model/MLSTM_10_32_0.01.pt (torch, 10465 bytes, 12 tensors)

weight_ih_l0 f4 [32, 4]
00000000: 8144 1b3e d573 b0be e665 8d3c 0bd6 793e
00000010: 870c 2a3e e625 82be 12d5 7a3e 7ffb 8e3e
00000020: 31f4 94bc fc53 61be 238c aabd 4c32 34be
00000030: a59f 323e 848d 1cbe 3cb9 40bd 0bea 043e
00000040: 2ebe b4bd 5a81 033d 8502 af3d 5c75 6cbd
00000050: ff1d 89be 6452 4c3e 41d1 8d3d e58d a43e
00000060: 32af 503e 4572 97bd 2ef3 2cbe b55b 2c3d
00000070: ebd3 9d3e 1f7e c03d 69a2 08be 34c9 7abe
00000080: b0cb 3e3e eafe 3c3d e6ad a5be 683a 6fbd
00000090: a3e8 f2bd de85 8dbe f02b 7c3e 39ce 7abc
000000a0: 929f 3f3e a810 c6bd 3242 973e c767 8fbe
000000b0: ddb6 883d bd2b 823e 59f7 62be ce72 803e
000000c0: 9e14 95bb 6638 86be 78b2 5dbe fca7 06be
000000d0: 5d8c 81be 4e6a 163e e6ac 61be e558 8a3c
000000e0: 1c5d 773e e257 aebe d9d0 41be f404 bc3b
000000f0: c84c f13d e9ec a8bc d0f6 84be b544 af3e
00000100: 52bf ce3e cbe5 ba3e 5277 c63e a02c 2dbd
00000110: e322 aa3d 3da7 abbe cf2c 243d d7ac 0fbe
00000120: 8af2 bbbe b03c 9e3d fe6b 143d 57ea 90be
00000130: 71de 21be 8214 49be 1d7f bbbe f09c 0dbf
00000140: b1aa 97be b599 b73e afaf bb3c 3a2d 45be
00000150: 9082 b13d 32ef 86be 7ac3 b1be ea25 343d
00000160: 2420 8cbe 08ba 993e f441 9d3c b1b3 da3c
00000170: e579 923e 5a43 c23c f9a4 afbc 0c58 b33e
00000180: a9ee 7abd a7f6 80be 0ec2 8bbd b90d 8f3e
00000190: c69e 99bd c39d 7fbe 476e 9b3d 344d bdbd
000001a0: 7ebe acbe 0337 25bd b448 ae3e df29 273c
000001b0: 3907 c1bd b9df a33e c13b 773e f4b3 8bbe
000001c0: 91a3 86be baf4 803e 4ebb f3bd 87ea 9dbe
000001d0: d46e b4be 598f 52be 7ad6 9bbe 8bda 92be
000001e0: cce7 6a3e f546 59be efc0 8c3e 2720 d6bd
000001f0: fee7 453e 9301 763e fb08 2cbe 3d13 41bd
0.15162851 -0.34463373 0.017260503 0.24398057 0.16606341 -0.2541954 0.24495342 0.2792625
-0.018182846 -0.22004694 -0.0832751 -0.17597312 0.17443712 -0.15288359 -0.047051653 0.12979905
-0.088253364 0.03210578 0.085454024 -0.05772911 -0.26780698 0.19953305 0.06924678 0.32139507
0.20379332 -0.07394842 -0.1688964 0.042079646 0.30825743 0.09399056 -0.13343205 -0.24490815
0.18632388 0.046141542 -0.32359236 -0.05840531 -0.11860778 -0.27641195 0.24626136 -0.015307956
0.18713215 -0.09671146 0.2954269 -0.28008863 0.066755034 0.25423995 -0.22164668 0.2508759
-0.004549577 -0.26214904 -0.21650112 -0.13150018 -0.253024 0.1468899 -0.22038612 0.016888091
0.24156612 -0.34051424 -0.18927325 0.005737895 0.11782223 -0.02062078 -0.25969553 0.34232107
0.4038034 0.36503443 0.3876291 -0.042278886 0.08307435 -0.3352603 0.040081795 -0.14030777
-0.3670848 0.07726419 0.036235802 -0.28303787 -0.15807511 -0.1963673 -0.36620417 -0.5531759
-0.29622415 0.35859457 0.02291092 -0.19255534 0.08667481 -0.26354367 -0.3471945 0.04398147
-0.2736827 0.30024743 0.019196488 0.026697012 0.28608623 0.023713756 -0.02144097 0.35028112
-0.06126276 -0.2518818 -0.06824122 0.27940157 -0.07500987 -0.24962525 0.07589393 -0.09243241
-0.33739084 -0.040335666 0.34039843 0.010202854 -0.09425206 0.32006624 0.24143888 -0.2728573
-0.26296666 0.25186712 -0.1190096 -0.30842993 -0.35240805 -0.20562495 -0.3043707 -0.2868236
0.22939986 -0.21218474 0.27490947 -0.10455351 0.19326779 0.24024038 -0.16800301 -0.047137488

weight_hh_l0 f4 [32, 8]
00000000: dc87 16ba 2360 abbe 97c9 c83d 369a 803e
00000010: 2026 673e a4bb 8d3e 817c 87be ed90 a13e
00000020: f0a2 86be d260 9abd 2373 ae3e 4bdd 83bd
00000030: 40bd a03e 0847 a5be e120 9a3e 2df8 a7be
00000040: 8a2d 82be 1ae8 bb3d 7215 cf3d c93f b93c
00000050: ecd3 623d 2538 f1bd 1cc2 283d 887c 4a3d
00000060: 80e2 1b3c 677f 2a3e 082b cd3d 5c25 943d
00000070: 0237 ed3d 73c4 303e e1e3 a03e 15a6 a1bd
00000080: f441 d6ba 33ee d53d ce37 97be d55a 9fbe
00000090: 4150 ac3e 6855 e4bb bd96 243d 866a 91bc
000000a0: d6f7 a4ba 9e96 77be 1247 9dbe 4e9e 95be
000000b0: 98c7 5c3e c9c7 07be 6219 5c3e 969f 863e
000000c0: ee29 05be 028e 4f3c a26c 5bbe cb58 27be
000000d0: a0aa aa3e 7e48 8f3e 86a7 4a3e 7d01 93be
000000e0: 9a10 6f3e fbcf 393e feff 813e fa34 513e
000000f0: b616 193e b2e9 9abe 3962 a8be e404 a83c
00000100: 127e 933e 469e 943d 6ee3 673e 7545 063e
00000110: 6b61 1ebe 1132 8c3e e88a 193e a4ae 013e
00000120: 07ee 013c 1a37 b23e 639b cebd 9dbf e5bd
00000130: 2d28 b7bd e484 0a3e 5b8a a83c bfa7 cfbd
00000140: 7861 80be dd16 8f3d 8f10 8f3e 54d7 9e3e
00000150: 94ac a93e 86d6 2c3e bcfc eebc ddf4 733d
00000160: 5ed1 203b 3d15 823c a719 90bd a021 873e
00000170: 5005 b23e 62ea 08be 00cb f23d cec4 4b3e
00000180: d411 c7bd fa2b 99be 46d0 2dbe 26e8 93be
00000190: 3150 d73d 1369 6fbe a520 0c3d 13af c7bd
000001a0: 129c 473c c0b6 93be a55d 16bd 56cb a13e
000001b0: 8fe9 123d 6bd8 b5bd 3332 773e c039 0dbe
000001c0: 2767 a0bc 5f12 4dbc 1ac6 843e c5a8 8d3d
000001d0: c54c 8bbe 9de3 673d 89b1 c3bd 16ed 4cbe
000001e0: 03c1 42be ae81 9ebe 443a 5dbe 7895 223e
000001f0: 0a05 81be bea6 a4ba 93a0 83be b546 8b3e
00000200: 424a 2bbe 3576 803e 9d94 12bd acc7 65be
00000210: fc15 35be cfd1 58bd eb7a 943e 5258 4fbe
00000220: 588f 423c d75f 543d 5b49 503d 0189 7fbe
00000230: 5b96 893d 1fb2 9a3e 9a4b ef3b 4d40 363e
00000240: e3e9 95be 37a1 a1be b38e 323e c6d7 92be
00000250: 8b24 d33d d9ce 093e 8eaa 86be 4239 a7be
00000260: a1a9 283e 393f 993e 1489 453e 2a77 af3c
00000270: 3c62 87be ba39 8fbe 35ac 89be 38e8 2a3e
00000280: 8dee a3be a1ee 713e 608c 233e 6041 4abe
00000290: a757 95bd 1670 7dbe 3ff0 4bbe 8e3b 58be
000002a0: 6004 8abe be97 a9bd c797 553e 89d2 043e
000002b0: c1ed 3cbd 9d3d 05be 19cb 00be 10b4 94be
000002c0: ecd2 7e3e 60a9 713e 981f 653e 1585 983d
000002d0: a718 8c3e 6ae8 013e 16df 29be 86d3 adba
000002e0: 485c 50be 8a9d 0bbd a523 313e dc04 7abe
000002f0: 39ab 0abd 727e a8be 493f 75be fd73 8f3d
00000300: 1a04 893e a6f5 94be 0ad9 89bd a8aa f1bc
00000310: 9f71 fb3d e022 823e cea4 953c fddb b03e
00000320: 6c1f c43d f549 7d3e d40b bf3d 5e0a ad3d
00000330: 725b 9b3e 17cd aabe a061 543e 175a 9dbe
00000340: 7daa 9abc 59a5 2ebe 68e1 183e 7b5b 2c3d
00000350: 4625 a73e 2985 923e e4bd 903e f16d 573e
00000360: 25a5 763d 0d1e 0cbc 5b5b 09be 175b eabd
00000370: f44b 963e 5db5 193e de7d 1d3e bf5b 083e
00000380: 07c9 443e 4e08 31be 0c7f 373d db4f 53be
00000390: e9a4 a7be 54ea b1bd 527c 81be 7116 c73d
000003a0: 5264 993e c85d 91bd fdc6 76bd 43ab a63e
000003b0: 055c 77bc 885d 8abe b939 ac3d 4626 923e
000003c0: 8d75 9f3e 76cd 973e eaf5 b03d 8c22 ff3d
000003d0: fb7b 38be 39dd 2c3e c562 15be bfe6 c5bd
000003e0: 06d2 0e3e 22f1 a9bd 0c49 9a3c 11c0 88be
000003f0: 17ac c6bd cfb2 95be 3cdf f7bd b4b9 c53e
-0.00057422905 -0.33471784 0.09804075 0.25117654 0.22573137 0.2768222 -0.26462176 0.31555882
-0.26296186 -0.07537998 0.34072217 -0.06438693 0.31394386 -0.32280755 0.3010321 -0.3280653
-0.2542537 0.09175129 0.10111512 0.022613423 0.055377886 -0.11778287 0.041200742 0.04943517
0.009514451 0.16650163 0.10017973 0.07233688 0.115827575 0.1726244 0.31423858 -0.07893006
-0.001634656 0.104458235 -0.29534763 -0.31123987 0.3365498 -0.006968189 0.040182818 -0.01775099
-0.0012586068 -0.2417855 -0.30718285 -0.2922234 0.21560514 -0.13259806 0.21494058 0.2629363
-0.13004276 0.012668135 -0.21428159 -0.16342466 0.33333302 0.27984995 0.19790468 -0.28712073
0.23346177 0.18145745 0.2539062 0.20430365 0.1495007 -0.3025642 -0.32887438 0.020510145
0.28807122 0.07256751 0.22645351 0.13112433 -0.1546685 0.27381948 0.14994395 0.12664276
0.007930285 0.34807664 -0.100882314 -0.11218188 -0.0894321 0.13527256 0.020573786 -0.10139417
-0.25074363 0.06986783 0.2794232 0.31023657 0.3313948 0.16878709 -0.029173248 0.05955969
0.0024538855 0.015879268 -0.07036143 0.2639284 0.34769678 -0.1337066 0.118551254 0.19899294
-0.09720197 -0.29916364 -0.16973981 -0.28888053 0.10513342 -0.23379926 0.03421082 -0.0975019
0.012183206 -0.28850365 -0.0367104 0.31600446 0.03586727 -0.08879169 0.24140243 -0.13791561
-0.019580437 -0.012516587 0.2593239 0.06916956 -0.27207008 0.056613553 -0.095553465 -0.20012316
-0.1901894 -0.30958313 -0.21604258 0.1587733 -0.25199157 -0.00125619 -0.25708446 0.27202383
-0.16727546 0.25090185 -0.03578626 -0.2243945 -0.17684168 -0.052934464 0.2900003 -0.20248535
0.011874996 0.051849212 0.050851207 -0.24954607 0.06718131 0.3021402 0.0073027136 0.17797966
-0.29280004 -0.3156831 0.17437248 -0.28680247 0.103097044 0.13457812 -0.26301998 -0.32660872
0.16470958 0.29931048 0.19290572 0.021419127 -0.26442134 -0.2797373 -0.26889196 0.16690147
-0.32017937 0.23626186 0.15971518 -0.19751501 -0.07292109 -0.24749789 -0.19915865 -0.21116468
-0.26956463 -0.08280896 0.2085868 0.12970938 -0.046125177 -0.13011785 -0.12577476 -0.29043627
0.24885148 0.23599768 0.22375333 0.074472584 0.27362558 0.12686315 -0.16589007 -0.0013261891
-0.20347703 -0.034085788 0.17298754 -0.24415916 -0.033854697 -0.3290897 -0.23949923 0.07004545
0.26760942 -0.29093665 -0.0673085 -0.02950032 0.12277531 0.25417233 0.018267062 0.34542838
0.09576306 0.24735244 0.09328428 0.08449243 0.30343205 -0.33359596 0.20740366 -0.30732796
-0.018880123 -0.17055263 0.14929736 0.04207943 0.32645625 0.28617218 0.28269875 0.21038033
0.060216088 -0.008552087 -0.13413756 -0.11443155 0.29354823 0.15010591 0.15380046 0.13316248
0.19217311 -0.17288324 0.044798896 -0.20635931 -0.32743004 -0.08687273 -0.2529016 0.09721077
0.2995935 -0.070979655 -0.060248364 0.32552537 -0.015097623 -0.27024484 0.08409447 0.28544825
0.31144372 0.29648942 0.086406544 0.12457761 -0.18016045 0.16881265 -0.14588459 -0.09663152
0.13947305 -0.082979456 0.01883366 -0.26709035 -0.09700792 -0.29237983 -0.121031255 0.38618243

bias_ih_l0 f4 [32]
00000000: 0f3a af3b 6a1c 81ba e89f ce3e 30ab 463e
00000010: 5367 2c3e 4fcc 993e 1feb b53d 1f9b 01bd
00000020: 5541 a0bd efbf 933e 2b42 c43e b7c7 823e
00000030: 91ac 83be 0c17 a9be a62f 1a3d f7a1 95bd
00000040: 5964 1b3e aff4 3c3d b1e7 86bd 8d36 6a3c
00000050: a164 a63e e179 99be 5c25 2bbd a2c8 6d3e
00000060: 067a 8d3e cad9 b5bd 5f13 093f a71b 313d
00000070: dc8e 883e c626 1d3c a239 6abe 4c33 0c3d
0.0053474973 -0.0009850387 0.40356374 0.1940124 0.1683629 0.30038688 0.088827364 -0.031642076
-0.07824961 0.2885737 0.38331732 0.25542995 -0.25717595 -0.33025396 0.037643097 -0.07306283
0.15174998 0.046131786 -0.065871604 0.0142952325 0.3249865 -0.299758 -0.041783676 0.23221067
0.2763216 -0.088794306 0.5354518 0.043239262 0.26671493 0.009591764 -0.22873548 0.034228608

bias_hh_l0 f4 [32]
00000000: 01fc 28be cca1 66be 3653 ad3e 96ad 693e
00000010: 8b9b 383e f2c3 93be d490 0cbe bf01 a63e
00000020: 3ded c03e 184e b7bd 02b5 18be 994f 3bbe
00000030: e8a3 ae3e 161b 44bd 603e a5be 90ef 613e
00000040: c44d e13c 0fa2 693e 490e 63bd 6552 8f3e
00000050: 54ae 63bd 2ab0 313e 7a85 603d 18e1 4c3e
00000060: 6faa a83c 795f 3d3b 8da2 7cba 297e 683e
00000070: ee41 4fbe 2897 333e 5ce4 553e 16c1 0b3e
-0.16502382 -0.22522658 0.33852547 0.22820124 0.18028085 -0.28860432 -0.13727123 0.32423207
0.37680998 -0.08950442 -0.14912799 -0.18292083 0.34109426 -0.047877394 -0.3227415 0.22064042
0.027502902 0.22815727 -0.055433545 0.2799255 -0.055586174 0.17352358 0.054814793 0.20007741
0.020589082 0.0028896017 -0.0009637259 0.22704376 -0.20239994 0.1753813 0.20887893 0.13647875

weight_ih_l0 f4 [32, 3]
00000000: a00b a03d d0a2 8cbd 8dd2 aa3e f315 9b3e
00000010: dafc 553e f2d1 323e a268 533e 47a8 aabe
00000020: c705 88be 565c 193e a31f b23e 5e0f 373e
00000030: eb08 9d3e 7326 823e f0a0 af3d 107c 20be
00000040: c346 a3be d201 afbe 853f 913e 4476 f83d
00000050: 76ac 593e 08dc 1cbd 000d f8bb 02b7 433e
00000060: 76c4 0ebe b15e b33e 6832 c93d e02d 59bd
00000070: 2ea4 013e 1c49 b43d 26b5 5e3e 9c05 f63d
00000080: 2304 5abe 40e8 113e fca6 d03d dc75 0cbe
00000090: 9a86 33be 14b1 b3bd 92e9 443e bc3c aabd
000000a0: da1e afbe c0cd 3dbc 9272 44be 40dc cc3c
000000b0: bdc9 ab3e 2092 fa3d ad44 0bbe e0cf 76bd
000000c0: 0061 fe3b cb6b 87be 60cc 213c aa15 0bbe
000000d0: e096 5e3c 58e6 c63d 3214 1c3e 3428 d0bd
000000e0: c013 89bd 5424 963d a756 aebe a0f1 84be
000000f0: 16b5 3c3e d6fb 62be 459c adbe c045 bfbb
00000100: 78dd 3fbe 3a1e 76be f2d9 aabe e036 823c
00000110: e78b 8bbe 8ac6 373e a005 0fbe 50a1 33bd
00000120: 1256 6c3e 6974 b1be 579c 7cbe 60ff 263c
00000130: 3093 aa3c 9c23 9e3d f445 f83d 0868 dfbd
00000140: 2496 d9bd a37d 85be 6abe 82be 08d8 033e
00000150: e743 8d3e 6f29 953e ac26 b6bd 436f a13e
00000160: 6b38 853e 5f84 8cbe a386 8abe 40b9 d1bb
00000170: b85d 58bd bc27 b8bd d0b8 fa3d 8040 773d
0.07814717 -0.068669915 0.33363762 0.30290183 0.20897236 0.174629 0.20645383 -0.3333151
-0.26566908 0.1497663 0.34789762 0.17876956 0.30670866 0.2541996 0.08575618 -0.15672326
-0.31889924 -0.34181076 0.28368774 0.121319324 0.21257195 -0.038295776 -0.007569909 0.1911278
-0.13942131 0.3503318 0.09824067 -0.053022265 0.12660286 0.08803007 0.2174879 0.12012789
-0.2129064 0.14248753 0.101881 -0.13716835 -0.17531815 -0.08774009 0.19229725 -0.083123654
-0.34203225 -0.011584699 -0.1918433 0.025007367 0.33552352 0.122349024 -0.13600416 -0.06025684
0.007763028 -0.26449427 0.009875387 -0.13582483 0.013585776 0.09711903 0.15242079 -0.10163918
-0.0669322 0.07331148 -0.34050485 -0.25965595 0.18428454 -0.2216638 -0.33908287 -0.0058371723
-0.18736827 -0.24034968 -0.33369404 0.015895307 -0.27255175 0.1794683 -0.1396699 -0.04385501
0.23079708 -0.34659126 -0.24669014 0.010192722 0.020822138 0.07721636 0.121227175 -0.10908514
-0.1062434 -0.26072416 -0.255359 0.12875378 0.27590868 0.29133174 -0.08894095 0.31530198
0.26019606 -0.2744474 -0.27055845 -0.0064002573 -0.052823752 -0.08991954 0.122422814 0.060364246

weight_hh_l0 f4 [32, 8]
00000000: ffa2 b03e 2b6b 883e d23f 5e3e 6ac5 733e
00000010: 18fc 42be c48c ac3d f6c1 203e f175 b0be
00000020: 57e3 973e 5711 b4be 00d6 57bc f2b3 f2bd
00000030: 88c6 1c3d 0097 adbc 03aa a73e 64e6 fb3d
00000040: 00b8 613d 3c33 be3d 5556 953e c821 b1bd
00000050: a020 523d a0b4 09bc 506f 91bd 64d0 a43d
00000060: 4854 f7bd e0fd 74be f04b 873c 7c85 96be
00000070: 0c60 a7bd 3417 a93d c00f 0ebe 3194 9ebe
00000080: 1cf7 fc3d 8bb5 56be 795b 803e 60f5 e93c
00000090: b612 1c3e 5d18 ae3e 54d1 0d3e 5cfd 0cbe
000000a0: 762d 223e e9e0 27be b26f b3be 84df dabd
000000b0: 676f 0fbe 60ce 17bd 70a5 e93c fb7e 65be
000000c0: 633a a03e 44ff cbbd 46b8 293e 8682 dfbd
000000d0: 82f6 06be 9f6f 81be d6fc 63be 8dd3 a73e
000000e0: 204d d63d 061b 633e 484a 43be 60c1 d33c
000000f0: 0aca 333e 6007 1b3c a0df 043e 5e25 633e
00000100: 204b 563d 345c 99be 69e3 913e 210a a13e
00000110: f81f 553d 3ab8 623e 4013 ccbc 4484 b53d
00000120: a910 35be 62e3 8fbe cf3c 9b3e ecf0 b2bd
00000130: d3cd a73e 4a47 453e 7a23 7cbe f0f4 b43c
00000140: 80a7 c93c a80f 903d 30dc 91be 6862 c13d
00000150: ed3b 9a3e 4246 4d3e 63b1 b0be f373 a3be
00000160: 5254 96be 6895 b8bd 20dc 1f3d 00c6 a7bb
00000170: 8aff 103e 6ec9 463e 65cc 8b3e 2194 a13e
00000180: c23b 293e b818 a73d e33c 813e 0713 11be
00000190: 9f37 83be 6c0c b1bd 9657 6e3e e04c b53d
000001a0: 87e4 ab3e 6259 513e 7d1a a63e fe60 e1bd
000001b0: 040e 36be 6c97 c2bd 7677 dabd a458 c9bd
000001c0: f008 42be 77ee 0ebe 0af0 6cbe 64a4 b4be
000001d0: 3e8b 163e b3be 913e acaa 91bd 4669 0c3e
000001e0: 7066 f9bc 9fa7 8abe 388e 95be 968c 183e
000001f0: 6461 c3bd f09e b1be d102 b5be 14af 94bd
00000200: b607 11be c2e2 3f3e 1886 0ebd d9f3 4bbe
00000210: ee86 143e 2d57 acbe fde3 a13e 5815 6a3d
00000220: f05c 1e3d 5ef3 d4bd 40da bd3d 379c 5bbe
00000230: e04e 543d edc7 883e 505e f8bc f442 74be
00000240: e2d6 a3be 82b3 a4be 3c46 d5bd 684d a33d
00000250: b92f 5ebe 0d7e 09be 0851 273d a1aa ad3e
00000260: 6455 a2be 043d d9bd 2848 a0be 40c4 1fbd
00000270: e2b7 0b3e 1810 bc3d 711b aebe 701b ba3c
00000280: a238 163e b0e6 2fbd 02f6 513e c048 4dbc
00000290: 16aa 173e 18a3 cc3d 9636 783e 005e 833d
000002a0: 2293 253e d761 af3e 6233 423e 1869 513d
000002b0: 1d50 973e e281 57be 042e 22be fe42 87be
000002c0: 3cad 47be 56d5 183e 554b aabe b30f 953e
000002d0: 9cbe b53d 3d62 29be 0862 14bd a865 6f3d
000002e0: bb1e 60be 0820 3dbd 22b1 7b3e d89f ad3d
000002f0: 7087 73be 84ea a5bd 7a90 91be f08b c6bd
00000300: 40de b73c 8058 813b cc20 ce3d 3b80 af3e
00000310: 91ea 9c3e d6d8 4f3e f8e1 9a3d c160 39be
00000320: 08d0 67bd e805 893d 87f5 77be 00b5 6bbb
00000330: 30a9 9dbc 70d6 8d3d 81bf 973e 48e2 573d
00000340: 7434 fa3d 0a30 353e 429a 9abe 5e40 acbe
00000350: d8c0 08bd a060 a53d aefb 723e 0042 b73d
00000360: 3840 8dbe f096 5a3d 241c e23d 30bd edbc
00000370: 72a3 1a3e a1fb 0dbe bc1d 91bd 86d0 673e
00000380: 8099 8d3d 0017 15bb 80c9 053e aed5 7e3e
00000390: 0cce d3bd 95e4 48be eece 54be e6e2 103e
000003a0: 8001 a1bc 59d7 26be 30be dbbd d197 2dbe
000003b0: 9793 ac3e e6f1 78be d8a9 72bd 26e6 51be
000003c0: 2012 453d c080 603d b8ac b43d 509d ab3d
000003d0: 6d64 a33e 0ab7 9dbe dd7e a93e 440d 57be
000003e0: 612f 883e aa51 47be 6a75 233e 9a8a 493e
000003f0: bc41 98bd e428 8ebe ee06 24be 6865 46bd
0.34499356 0.26644263 0.21704033 0.23805776 -0.19041479 0.084252864 0.1569899 -0.34464982
0.29665634 -0.3516948 -0.01317358 -0.11850728 0.03827527 -0.021190166 0.32746896 0.12299803
0.055107117 0.09287116 0.2916743 -0.086490214 0.051300645 -0.008404881 -0.07101309 0.0804756
-0.12076622 -0.2392497 0.016515702 -0.29398715 -0.08172616 0.08256379 -0.13873196 -0.30972436
0.1235182 -0.2096769 0.25069788 0.028559387 0.15241513 0.34002963 0.13849384 -0.13768524
0.15837654 -0.1639439 -0.35046154 -0.106871635 -0.1400734 -0.03706205 0.02852127 -0.2241172
0.31294546 -0.099607974 0.16574201 -0.10913567 -0.13179973 -0.25280473 -0.22264418 0.32778588
0.10463929 0.22178277 -0.19071305 0.025849044 0.1755754 0.009462208 0.12975931 0.22182223
0.05231774 -0.29953158 0.28493813 0.3145304 0.05203244 0.2214059 -0.024911523 0.08863118
-0.17682137 -0.28103167 0.3031983 -0.087373585 0.3277422 0.19265476 -0.24622908 0.022089452
0.024616003 0.07034236 -0.28488302 0.09442598 0.30123845 0.20046332 -0.34510335 -0.319244
-0.29361206 -0.09012872 0.039028287 -0.005120039 0.1415998 0.19412777 0.27304378 0.31558326
0.16526702 0.081590116 0.25241765 -0.14167415 -0.25628373 -0.086449474 0.23275599 0.08852553
0.3357279 0.20444253 0.32442084 -0.11004828 -0.17778784 -0.09501538 -0.106673166 -0.0983136
-0.18948722 -0.13958155 -0.23138443 -0.3528167 0.14701554 0.28465804 -0.07112631 0.13712034
-0.030444354 -0.2708101 -0.29210067 0.1489738 -0.0954006 -0.34691572 -0.3535371 -0.07259956
-0.14163098 0.18738845 -0.03479585 -0.19917239 0.14504597 -0.3366026 0.31619254 0.05714926
0.03866285 -0.10397981 0.092701435 -0.2144631 0.051833034 0.2671503 -0.03031841 -0.23853666
-0.3199988 -0.32168204 -0.10413787 0.079737484 -0.21697892 -0.13426991 0.04084876 0.33919242
-0.31705773 -0.10607341 -0.3130505 -0.039005518 0.13644364 0.09182757 -0.3400531 0.022718161
0.14670041 -0.04294461 0.20504001 -0.012529552 0.14810976 0.09992045 0.24239573 0.064144135
0.16169408 0.34254333 0.18964913 0.051125616 0.2955331 -0.2104564 -0.15837866 -0.26418298
-0.19499677 0.14925131 -0.332606 0.2911354 0.088742465 -0.16541381 -0.036226302 0.058446556
-0.21886723 -0.046173126 0.2457929 0.084777534 -0.23782134 -0.08101371 -0.2843054 -0.0969466
0.022444844 0.0039473176 0.10064849 0.3427752 0.3064771 0.2029756 0.07562631 -0.18103315
-0.05659488 0.0669058 -0.24214755 -0.0035966039 -0.019245714 0.06925666 0.29638293 0.052706033
0.12217036 0.17694107 -0.30195814 -0.33642858 -0.033387035 0.080750704 0.2372882 0.089481354
-0.27588058 0.0533666 0.11040524 -0.029020876 0.15101412 -0.1386552 -0.070857495 0.22638139
0.069140434 -0.0022749305 0.13065147 0.248862 -0.10342035 -0.19618447 -0.20782062 0.14149055
-0.019654036 -0.16293086 -0.10729635 -0.16952445 0.33706352 -0.24311027 -0.059244007 -0.20497951
0.04811299 0.054810286 0.08822006 0.08379614 0.31912556 -0.3080371 0.33104602 -0.21001154
0.26598647 -0.19464746 0.15962759 0.19681779 -0.07434413 -0.27765572 -0.16018268 -0.048436552

bias_ih_l0 f4 [32]
00000000: 60ee 98bc be17 353e fa4a 0a3e fd61 86be
00000010: a0f5 4cbd 753e 9ebe 1588 ae3e 6ca1 e7bd
00000020: 2c1c b23d 6804 6ebe 14bf 853d db79 a13e
00000030: 801f 81bd 8c92 91be fa01 4a3e a4e2 edbd
00000040: 933d 26be cec6 5a3e 7cc5 c13d d96e 2bbe
00000050: 6651 83be c45b 62be f08f b4bc 0060 20bc
00000060: 9006 cf3c d3ea 70be 7c86 f53d 4832 8a3d
00000070: 04f4 be3d 7170 833e 5676 673e 7081 e13c
-0.018668354 0.17684838 0.13505164 -0.26246634 -0.050038934 -0.30907026 0.34088197 -0.11310086
0.086967796 -0.23243868 0.06530586 0.3153828 -0.06304836 -0.2843212 0.19727316 -0.11615494
-0.16234426 0.213649 0.09461495 -0.16741504 -0.2564804 -0.22105318 -0.022041291 -0.009788513
0.025271684 -0.23527078 0.119885415 0.06747872 0.09323886 0.25671723 0.22603735 0.02752754

bias_hh_l0 f4 [32]
00000000: 1697 1a3e 9a0d 4c3e a36e 57be 2cc1 c63d
00000010: 50cf 1b3d 0083 d6ba 10a7 cc3c 30bf 643d
00000020: bf7b 8a3e 00e8 7b3b 998d a4be 4342 aabe
00000030: 1007 cbbd efed 2ebe 48f1 c83d 6cdb 053e
00000040: 0bad 4ebe 80fb 38bc d812 84be 7bfc 843e
00000050: 1f04 5fbe 902e 98be c073 773c 66e4 4d3e
00000060: 6ae8 7a3e eda0 98be a216 463e a29d 143e
00000070: 22bc 103e 2085 643c d45c a53d b167 803e
0.15096697 0.19927064 -0.21038298 0.09704813 0.038039505 -0.0016365945 0.024982005 0.055846393
0.27047536 0.0038437843 -0.3213928 -0.3325368 -0.099134564 -0.17082952 0.09811646 0.13071984
-0.20183198 -0.011290431 -0.25795627 0.25973877 -0.21778916 -0.29723024 0.015103281 0.20106658
0.24502721 -0.29810277 0.19344571 0.14513257 0.14134267 0.013947755 0.08074346 0.2507911

weight f4 [4, 16]
00000000: 036d 913e ca8f 8ebc 66d2 febe f8a4 adbe
00000010: 049c dabe a4ad 4b3e 5130 dcbd 0e0a 713e
00000020: d27c 763e 9d05 4dbe 6dd4 c9be 0b83 26bc
00000030: 29b5 35bd 678d 083e 2e21 b8bd 132b b23e
00000040: b39f ad3e 02a8 c3be 5165 4bba 8a4a 543e
00000050: cfa0 ae3e 3451 7a3c ea07 053e 34d1 743c
00000060: 2615 b43e 537a e9be 8a29 46be 5552 f83c
00000070: d50d 833e a3c6 9e3a c694 623e ed7a cc3b
00000080: 2844 ce3e 2afd dd3d 8ca6 5ebc 2840 9abe
00000090: ce53 83bd a274 9dbe 2a50 62be 24a6 803b
000000a0: 0926 943e dac8 803e 4a12 1dbe 702e 9fbe
000000b0: 30d0 14bd 5e1c 0fbe 7d75 b3bd 1f1e e3bb
000000c0: 6ef8 803e 6a2e 213e 7931 88be 86c9 6ebe
000000d0: d5a0 cdbe 087b 983c aaf0 dc3b 994c 6a3e
000000e0: 8d25 283e e16c 3bbe ceb6 d4be b3f9 84be
000000f0: 213c 46be 798d 1fbe 0878 30be 544d b03e
0.28403482 -0.017402548 -0.49769896 -0.33914924 -0.42697155 0.19890457 -0.10751403 0.23538992
0.24071053 -0.20021673 -0.3941988 -0.010163079 -0.04436222 0.1333519 -0.089907035 0.34798488
0.33910903 -0.38214117 -0.0007758933 0.2073156 0.34107062 0.015278149 0.129913 0.014942456
0.35172385 -0.45601138 -0.19351783 0.030312696 0.2559649 0.0012113642 0.22127065 0.00624024
0.40286374 0.10839303 -0.013589513 -0.30127072 -0.06412469 -0.30753046 -0.22100893 0.0039260555
0.2893527 0.25153238 -0.15339008 -0.31090117 -0.036331356 -0.13975665 -0.087626435 -0.006931081
0.25189537 0.15740362 -0.26600245 -0.23319063 -0.40161768 0.018613353 0.0067425566 0.22880782
0.16420574 -0.18303253 -0.4154572 -0.25971755 -0.19358875 -0.15581311 -0.17233288 0.34433997

bias f4 [4]
00000000: a701 debd e1e6 24bd 8869 16bd 6675 bbbd
-0.10840159 -0.040259246 -0.036721736 -0.09153251

weight f4 [3, 16]
00000000: f5dd 083e f8aa dcbd 65bd 90be 528e 85bd
00000010: 8080 b63d df95 6fbe 59c9 373d 7aa3 893e
00000020: b4b7 953e 0f49 e63d 5194 aebe 4562 66bd
00000030: c68e 24be 9454 08be 73e4 1cbe 4146 2c3e
00000040: 10f9 a03e 87b1 0d3e 498f f4be 1cc7 7fbd
00000050: e540 083d 1835 25be 234b 6abd 23c3 8b3d
00000060: ad25 573e 2aa0 8c3d b4aa 14bf 10e0 b6be
00000070: ec49 9dbe 4ecd 143e e154 89be 21a4 243e
00000080: 2626 213d 930c 19bd a102 ffbe 017e 8ebe
00000090: 6e5b 69be c185 88bc 610e 0c3e 8a61 813e
000000a0: b5e5 1b3e 3a89 a93d f077 04bf d013 1abd
000000b0: 783d 73be bbe7 183e c102 1cbd 113c ee3e
0.1336592 -0.10774797 -0.28269497 -0.06521286 0.08911228 -0.23397015 0.044869754 0.26882535
0.29241717 0.112444036 -0.3409753 -0.05624606 -0.16070089 -0.13313514 -0.15321521 0.16823675
0.3144002 0.13837253 -0.47765568 -0.062445745 0.033265013 -0.16133535 -0.057200562 0.06824329
0.21010466 0.06866486 -0.5807297 -0.3571782 -0.3072046 0.14531443 -0.2682257 0.16078235
0.03934302 -0.037365507 -0.49806693 -0.27830508 -0.22788784 -0.016665341 0.1367736 0.2526973
0.15224345 0.08278127 -0.5174551 -0.03761655 -0.23753917 0.14932148 -0.038088564 0.46530202

bias f4 [3]
00000000: 1814 89bd 9336 efbd 1849 1fbe
-0.06693286 -0.11680331 -0.15555227
