model/MLSTM_10_32_0.01.pt (torch, 10721 bytes, 12 tensors)

weight_ih_l0 f4 [32, 4]
00000000: 91b8 1abe 00ea 2abe 359b 77be 482c ec3c
00000010: fe28 923e 83e2 3abe d970 e83d d135 5dbe
00000020: a2e8 6bbd 61fe 79bd 5c0c acbe 1d65 6a3e
00000030: cb16 18bc 5d5f 8d3e 2235 76be d671 e9bc
00000040: 0a90 713d 8129 5a3e 3daf d53d 8d74 1ebe
00000050: 8e41 96be eedc eb3d da45 aabe cbac 083d
00000060: 9b47 1f3e 8ef1 223e eba0 40be 63f2 973c
00000070: 6770 913e 5f1a 59bd 20d5 dbbd aa02 a6bd
00000080: 2a0a 6abe cde0 8e3d de5f 993e 0b22 84bd
00000090: 5b89 073e 0985 113e 9e8c 6d3e 8101 8dbe
000000a0: 762c 063e 0ad2 a7bd 1693 383e caa8 ddbd
000000b0: a045 74bd f52a 0b3e 8ed4 41be d60b 083d
000000c0: 4ced 16be b481 5a3e 8e01 e6bd 5fa6 61be
000000d0: 850d a73d 1738 83be ab56 b0bd f68b 683e
000000e0: cf85 babd bce8 b23e 50b1 3abe 319c 353e
000000f0: 7ddd bcbd cc5d 73be 6e05 993e 2c10 6cbd
00000100: aa72 55be 6571 323c 61e6 a2be d548 9ebe
00000110: 1676 d1be 01a5 f3bd f685 dd39 93d5 663d
00000120: d225 c13e 7095 60be cc9f 61be f44b 6d3e
00000130: e8e2 68bd a295 503e 2231 ccbc fe61 13be
00000140: ef11 9abe 2699 9dbe 990c 133d 3c2b 393e
00000150: 05a9 a13c bb2f 28bd 27f5 873e 1719 22be
00000160: 1423 1c3d 8dfa 43bd 3bc4 853d eaea 1c3c
00000170: ee65 83be a4f0 693e 414f 7a3c f433 433e
00000180: 5022 7dbe 864c c13d e550 853e 5b99 303e
00000190: 4861 ad3e e39c aebe 3a27 4bbe 38e3 473e
000001a0: 1fc6 3c3e eb64 22be 3db9 d3bc 4193 903e
000001b0: 134d 943e a7b1 adbe 62e4 83be 68bf aabe
000001c0: f88f 75be af97 dd3d 5ebb 8b3e e3f9 043c
000001d0: ba93 9b3e 051d 973e 0512 e13d e5bd 2cbe
000001e0: deb6 083e 89b8 6f3e 8d94 8cbb 569f 4d3e
000001f0: d9aa a3be 9b77 1bbe 4fdc 203d 31cc 00be
-0.15109469 -0.16690826 -0.241803 0.028829709 0.285469 -0.1825047 0.11349649 -0.2160256
-0.057594903 -0.06103361 -0.3360318 0.22890134 -0.009282778 0.2761182 -0.24043706 -0.028496664
0.058975257 0.21304895 0.10433815 -0.15474148 -0.2934689 0.11516748 -0.33256418 0.033367913
0.15554659 0.15912458 -0.18811385 0.018548196 0.2840607 -0.053003665 -0.1073401 -0.08105977
-0.2285544 0.06976471 0.29955953 -0.06451806 0.1323599 0.14210905 0.23198172 -0.2754021
0.13102898 -0.08194359 0.18024859 -0.108232096 -0.059636712 0.13590606 -0.1892874 0.033214413
-0.14738959 0.2133854 -0.11230765 -0.22036122 0.081568755 -0.2562873 -0.086102806 0.22709641
-0.09107553 0.34943187 -0.18231702 0.17735364 -0.09221933 -0.2376625 0.29886955 -0.05763261
-0.20844522 0.010891293 -0.3181639 -0.3091494 -0.40910405 -0.11896706 0.00042252213 0.056356024
0.37724167 -0.21932006 -0.22033614 0.23173505 -0.05685702 0.2036958 -0.024925772 -0.1439285
-0.30091807 -0.30780905 0.035900686 0.18082899 0.019733915 -0.041061144 0.26554224 -0.15829884
0.03811939 -0.047846366 0.065315686 0.009577492 -0.25663704 0.22845703 0.015277685 0.19062787
-0.2472012 0.09438424 0.2603828 0.17246 0.33863282 -0.3410407 -0.19839182 0.19520271
0.18434952 -0.1585881 -0.025845164 0.28237346 0.28965053 -0.339246 -0.2576018 -0.33349156
-0.23980701 0.10819947 0.27291387 0.008116218 0.30386144 0.29514328 0.10989765 -0.16869314
0.13351008 0.23410238 -0.0042901696 0.20080313 -0.31966284 -0.15182345 0.039272603 -0.12577893

weight_hh_l0 f4 [32, 8]
00000000: ee3a b53d 3af3 ef3d f297 ca3d c94b 923e
00000010: 8fcd 66be 68cd 063e 82b6 3b3d 64c9 2ebe
00000020: 67e8 a7be e5d4 5d3e 1c8b 993e 3603 3a3d
00000030: 52af 813d 242e a5be b364 ad3e 5b97 95bd
00000040: f1b6 84bd 7f3d 363e 955e afbe 72ff e2bd
00000050: 7f0e 483d 3271 e5bc 9fed 903d ed6b d8bd
00000060: fc78 12bd 4c92 02be 2941 393e 8756 3b3e
00000070: 48b2 af3e 5f0e ce3b 24ac 6f3e da02 9dbe
00000080: d571 653e 96bb ba3d 18b6 7cbe e480 943e
00000090: cfc7 b9bd 51bc 8cbe 84c4 b83d 7707 4c3e
000000a0: b325 6fbe 0792 b23e af71 163e 5df7 923e
000000b0: 43b1 84bd 5563 a93e eb1a 0e3e 7f75 97be
000000c0: 0055 5bbe 7a59 40be 1fcf 73be b53b 263d
000000d0: df48 78bd 01ff 223e 1a32 34be 2b8e 44be
000000e0: e83e 94bd 2c14 813e 964d 89be d4ea 123e
000000f0: 4adb 55be 8507 37be 4d57 a73e 1b92 9ebe
00000100: 77fa 243e d5d8 adbe 1b33 a73e be6d 9b3e
00000110: ab8a acbd 30d3 e93d 0fc2 a6be 6b5e 70be
00000120: 0b93 843e 7191 29bc f939 843e bd81 abbe
00000130: 380e 00be ecbf 953e 3790 433e ab9a 8e3e
00000140: dc2b 003e 1de5 68be 8200 943e 9914 5abe
00000150: 084c 333e 79a7 aebd 08dd 92bd 435b 033e
00000160: 083f 5a3e 55af 6a3e a90c c2bc 03b3 37be
00000170: fda3 38be 128f 433e ae03 afbe b04c ca3d
00000180: 971d f13b 375f ebbd 31c7 a33e 0e6c 96be
00000190: cb18 75be bf4f 79bd b6b2 acbe 04a7 2d3e
000001a0: b39c 94bd 5644 c3bc 80bf a53e e128 913e
000001b0: 2952 3bbe 9cfc 66be 0fe5 38be f2bf 503e
000001c0: af98 813b fd7e 263e d224 a8be c716 2dbe
000001d0: 8c0d 3a3e a4a4 44be 1a1c 9bbe 1643 b13d
000001e0: 25b9 8c3e cc96 513e 085f 0a3d 036e 2cbe
000001f0: 2974 eb3d 3e49 7e3e 0523 6d3e ea64 583d
00000200: 3009 52bd 43ac 433e 019d 96be ec1a a83e
00000210: aad5 1bbe 2393 87be 8e7b fc3c 4427 a13e
00000220: 2494 a1be bd1c 653d c710 133e 1547 c43d
00000230: 7984 b63e 88c0 ae3d 4309 9ebe 55a0 42be
00000240: d702 cb3d 384a 86be cf35 9a3d a035 73bd
00000250: 3415 6cbe 4046 56be fe1f da3d 015a 2dbe
00000260: 92e7 2abe ba19 34be b313 0d3e dd57 83be
00000270: 92da af3e 0510 5abe da59 773d c918 4fbe
00000280: cb71 2f3e 6315 563e 2351 99be 1f59 473e
00000290: 952a 9c3e 9cb4 c0bd c45e a33e a244 58be
000002a0: f43d 953e e668 8cbd 0c0a a8be 80e4 6b3e
000002b0: 0a1e ab3e 0e9c 6c3d e6c1 2b3e fe2f 0bbe
000002c0: cd90 bd3c 8125 57be 1843 943e 2983 4cbe
000002d0: 30da 57bc 2655 533e f3dc 38be faa8 0cbe
000002e0: 972b 4c3e ad90 293e ec31 abbe 1ab7 9cbc
000002f0: e89b 8f3d cc50 afbe 1a98 473e 0831 1c3d
00000300: ce63 a63e fd78 1ebe 4830 ef3d a4cb 22bc
00000310: c8c4 733d 2dee 95be 8d98 663d c51c 263d
00000320: 738d f33d 436f ae3e dde2 7ebd 4c7c 87be
00000330: 5ffe 2b3e e22d 853e c861 103e c490 2cbb
00000340: bdbf edbd c3c8 6abe 1183 6d3e 5aba aabe
00000350: a5ea 96be 995e 923d a934 95be d76f 713e
00000360: 3c13 823e f17b 83be 89c1 03bd ed92 6b3e
00000370: 63ed 7fbe 8419 813d 5396 9dbc 78d8 263e
00000380: de15 c3bd 638c 4d3e e326 6abe 5adb 573b
00000390: 4ae6 663d fecf a0bd a1c6 5cbe 92ac 423e
000003a0: b5bf 4d3e 3ea6 c5bd 8dd9 7a3e 5df1 173e
000003b0: 85bb 3f3e 8c84 fabd 782c bfbd fc64 6a3e
000003c0: 13e9 a5be f588 4abe dded 173d 58f2 943d
000003d0: 94db 5e3c 4151 2e3e 49d2 87be ec98 883c
000003e0: 805e 3fbe 1e91 873e f87f 11be 71e2 323e
000003f0: 4664 90bd 7a11 88be 72bd fbbc 7255 d03d
0.088491306 0.11716314 0.098922625 0.28573444 -0.22539352 0.13164294 0.04582835 -0.17069012
-0.32794496 0.21663244 0.29988945 0.04541322 0.06332268 -0.32261765 0.3386589 -0.073042594
-0.06480206 0.17796896 -0.34251848 -0.110838786 0.04884195 -0.028008077 0.070765726 -0.1056746
-0.03575991 -0.1275112 0.18091263 0.18294726 0.34315705 0.0062883343 0.2340551 -0.30666238
0.22406705 0.091178104 -0.24678838 0.29004586 -0.090713136 -0.27487424 0.090218574 0.19924723
-0.23354225 0.34877035 0.14691804 0.28704348 -0.064791225 0.33083597 0.13877456 -0.2958183
-0.21419144 -0.18784133 -0.23809479 0.040584285 -0.06061637 0.15917589 -0.17597237 -0.19194858
-0.07238561 0.25210702 -0.26817006 0.14347392 -0.20884433 -0.17873962 0.32683793 -0.30970845
0.1611117 -0.33954492 0.32656178 0.30357164 -0.08424886 0.11417234 -0.3256993 -0.23473518
0.25893435 -0.010349617 0.2582548 -0.3349742 -0.12505424 0.29247987 0.19097982 0.27852377
0.12516731 -0.2274365 0.28906637 -0.2129692 0.17509472 -0.085280366 -0.071710646 0.12827782
0.21313107 0.22918446 -0.023687677 -0.17939381 -0.18031307 0.19097546 -0.34182495 0.09877908
0.0073582637 -0.1149277 0.31987908 -0.29379314 -0.23935239 -0.060867067 -0.33730096 0.16958243
-0.072564505 -0.023836296 0.32372665 0.283515 -0.1829306 -0.225573 -0.18056129 0.20385721
0.003954969 0.1625938 -0.32840592 -0.1690322 0.1816923 -0.1920343 -0.30294877 0.08655374
0.27485004 0.2046768 0.033782035 -0.16838841 0.11496765 0.24832627 0.2315789 0.052830614
-0.051278293 0.19108681 -0.2941666 0.3283304 -0.15218225 -0.26479444 0.030820634 0.3147527
-0.31558335 0.05593561 0.14361869 0.0958387 0.35647944 0.08532816 -0.3086644 -0.19006474
0.09912651 -0.262285 0.075297944 -0.059377313 -0.23054963 -0.20925236 0.10650633 -0.16928865
-0.166899 -0.17587939 0.13777046 -0.25652972 0.34346443 -0.21295173 0.060388424 -0.20224299
0.17133252 0.20906596 -0.29944715 0.19467591 0.30501238 -0.094094485 0.31908238 -0.21119931
0.2914883 -0.06855945 -0.32820165 0.23036385 0.33421355 0.057766013 0.16773185 -0.13592526
0.023140335 -0.210104 0.28957438 -0.19971909 -0.013174579 0.2063795 -0.18053035 -0.13736334
0.19938503 0.16559096 -0.33436525 -0.019130278 0.07012159 -0.3424133 0.19491616 0.038132697
0.3249802 -0.15475841 0.11679131 -0.009936247 0.059513837 -0.29283276 0.056297828 0.04055478
0.11892214 0.3406926 -0.062228072 -0.26462018 0.16796254 0.26011568 0.140998 -0.0026331404
-0.11608837 -0.22928147 0.23194529 -0.333453 -0.29475895 0.07146949 -0.2914174 0.2357782
0.254053 -0.25680497 -0.03216699 0.23005266 -0.249929 0.06303695 -0.01923672 0.16293514
-0.09525655 0.20073085 -0.22866397 0.003293714 0.056371965 -0.07852171 -0.21560146 0.19011143
0.20092662 -0.09650849 0.24497052 0.14838167 0.18723877 -0.122323126 -0.093346536 0.22890085
-0.32404384 -0.19778807 0.03709208 0.07272786 0.013602156 0.17023183 -0.26527622 0.016674481
-0.18688393 0.26477903 -0.14208972 0.17469193 -0.07050376 -0.26575834 -0.030729983 0.101725474

bias_ih_l0 f4 [32]
00000000: eab5 bc3d d2d0 453c 76b8 aebc b077 b2be
00000010: 5589 76be 9c35 5c3e 9111 753e 9b6b 9bbe
00000020: 870c 58be 09aa c73d 985a fabd 2204 383e
00000030: ad25 ae3e 2628 9cbe 44ff 20bd 65da 243e
00000040: b7dc 563e 631e 7a3e 7ae5 903d 84ac a7be
00000050: d577 7bbe 4202 8c3d 9f7b 2dbe 3a21 a4be
00000060: 7b03 3fbe f4e9 3dbe 2a2e 543e ec72 51be
00000070: e1cc a1be 9a76 813e 9bce 653e ed87 c8bd
0.09214385 0.012073712 -0.021328192 -0.3485694 -0.24075826 0.21504825 0.23932482 -0.30355534
-0.21098529 0.097492285 -0.12224311 0.17970327 0.3401312 -0.3049938 -0.03930594 0.16098936
0.20982634 0.24425654 0.07075019 -0.32748806 -0.24557431 0.06836368 -0.16941689 -0.320566
-0.18653671 -0.18546277 0.20720735 -0.20453995 -0.31601623 0.25285798 0.22442095 -0.09791551

bias_hh_l0 f4 [32]
00000000: 91dd 703d 5c22 a13e fab2 07be d490 97be
00000010: f4a4 673e ab1e 633c 2f2b afbd abc2 d0bb
00000020: bb7d e6bd 3be4 a23e da29 c6bb daff 3a3e
00000030: 63fe 89be 423c c9bd aca2 513e 6b62 4a3e
00000040: aeb1 903e 42e0 80be 4cdd 66be fb31 343e
00000050: 47ea ea3c 0857 89be 4e6e 9c3e 9912 c63c
00000060: 3ee8 803d 8e2b d8bb 3013 af3e 85cb 363e
00000070: a5c4 403e 3ce8 94bb 08bc 353e 0c05 a73e
0.058805052 0.31471527 -0.13251868 -0.29602683 0.22621518 0.013862292 -0.085531585 -0.0063708625
-0.1125445 0.3181475 -0.0060474696 0.18261662 -0.26951894 -0.098259464 0.2047221 0.19764106
0.2826056 -0.25171095 -0.22545356 0.17597191 0.028676165 -0.26824212 0.30552906 0.02417879
0.06294297 -0.006596989 0.34194326 0.17851074 0.18825014 -0.004544286 0.1774751 0.32621038

weight_ih_l0 f4 [32, 4]
00000000: 2153 db3d 78e3 2e3e 3df4 9a3e ac16 9fbe
00000010: 8507 a63e 807b a5be 025d 04be 66dc d6bd
00000020: b9d8 f1bd 441e a13e be7f a1be ca10 f1bd
00000030: 00d8 e3bd 0b4e a4be 8592 863e 0b83 92bd
00000040: a222 98be bc97 9fbe ec63 85be 047c 853e
00000050: c05c 87be bd9b 8c3e 7be8 a7be 23d0 cd3d
00000060: ffe6 a2be 1b24 0bbd 486c 9fbe 2636 07be
00000070: 7e51 87bd 8b7c 673d 255e c4bd 0b94 493e
00000080: 6df3 b33e b935 893e 5f03 3bbc 4002 cbbd
00000090: 4cd2 8fbd 87f8 54be 9008 95be 0a2d 863d
000000a0: 2178 b33d b342 a6bc 97e5 3f3e 52fb a0be
000000b0: 08f4 5abe d9bf df3d 4671 ab3e a19e 8fbe
000000c0: a9d7 3fbe 599a b9bd 8d0e 26bb ec0e 38be
000000d0: a627 55bd 4762 d43d a3e4 9dbe ccaf b2bd
000000e0: 425a 943e ce0c 0d3e fc3a 44be f835 44be
000000f0: b8bd f13d f0b4 803e 51a3 533d 3eb3 d0bd
00000100: 2732 853e a447 983e ffc4 a9be eac4 92bc
00000110: 7277 783e 038c 9bba f089 8fbe df65 de3d
00000120: 6120 c9bd 8e05 92be ee14 1f3d f771 72be
00000130: 91ce 5abd a24a b3bd 0d0c aa3e 62b7 853e
00000140: 1b4e 06be 8787 a33d 3082 67be 06ca 7c3e
00000150: a45b 733b 826b 933e 99ac fdbc 6b88 b7bd
00000160: a6a2 633e 3109 483e 6f61 eebc 2e55 683e
00000170: 3d83 8b3e aeaa 973d e1a8 e13d 3d3e 833e
00000180: 7a3d bdbd cf83 a53e 6ed2 7fbe be8d 5d3d
00000190: 3bcc 89bd 4c0f 4fbe c31f 973e d2d8 673d
000001a0: 7cd5 0a3d 4912 a9be c864 623e 45c4 7cbe
000001b0: 098f e7bd d3c8 81bd dde4 41bd ed79 77be
000001c0: fd8e 1cbd d9e9 36bd fc5e 893e 4449 47bd
000001d0: 5892 4dbe 17a7 133e 4ec8 803e cf17 91bd
000001e0: 25ca 653e 3552 81bd d081 193e d1df f53c
000001f0: 4973 733d 6197 ab3e cfb4 a63d e3c5 103e
0.10709215 0.1707896 0.30264464 -0.31071985 0.32427612 -0.32320786 -0.12926105 -0.104912564
-0.11808915 0.31468403 -0.31542772 -0.117707804 -0.11125183 -0.32090792 0.2628366 -0.07153901
-0.29713923 -0.31170452 -0.26052797 0.2607118 -0.2643795 0.2746257 -0.32794556 0.100494646
-0.3181686 -0.03396998 -0.311373 -0.1320425 -0.0660734 0.056515258 -0.09588269 0.1968538
0.35146657 0.267988 -0.011414378 -0.099125385 -0.07022533 -0.2079793 -0.29108095 0.06551559
0.08763147 -0.020295477 0.18739925 -0.31441742 -0.21382153 0.10925264 0.33484858 -0.28050712
-0.18734612 -0.090626426 -0.0025338263 -0.17974442 -0.052039765 0.103703074 -0.30838498 -0.08724937
0.2897511 0.13774416 -0.19163126 -0.19161212 0.11803764 0.25138044 0.051669423 -0.10190438
0.26014826 0.29742157 -0.3315811 -0.017916162 0.24264315 -0.0011867288 -0.28034925 0.10859274
-0.09820629 -0.28519863 0.03883832 -0.23676287 -0.053419653 -0.087544695 0.3321232 0.26116472
-0.13115732 0.07984834 -0.22608256 0.24686441 0.003713348 0.2879296 -0.03096609 -0.089615665
0.22230014 0.19534756 -0.029099194 0.22688743 0.27248564 0.074056014 0.11018539 0.25633422
-0.09240241 0.32327124 -0.24982616 0.054090254 -0.06728407 -0.20220679 0.2951642 0.05660326
0.033895 -0.33021763 0.22108757 -0.24684246 -0.11306579 -0.06337132 -0.0473374 -0.24167605
-0.0382223 -0.04465661 0.2683028 -0.048653856 -0.20075357 0.14419208 0.2515282 -0.07084619
0.22440393 -0.06314508 0.14990926 0.03001395 0.059436116 0.3351393 0.08139955 0.14137988

weight_hh_l0 f4 [32, 8]
00000000: dbe2 79be feb0 4bbe 8452 5a3d 077c 163e
00000010: 4567 6a3e 0c6e 45bd 52ce 93bd 460c 9e3d
00000020: 3802 0d3e 9d45 f73b 46ab 873e 68aa 90be
00000030: 46e2 4c3e 5577 62bd 8c9c 1ebd 8325 c33d
00000040: 2885 b3be 2755 f63d 064c 8cbe d540 1ebe
00000050: 8cf6 1e3e 237a a43e dd54 5dbe f260 733e
00000060: 2900 bc3b 5c80 1abe 824d 87be a742 88be
00000070: 4196 cbbd 6a11 4ebe b538 013e d2f8 0ebd
00000080: 1f33 2f3e 5d41 9fbe e0a8 d93d e33d 2ebd
00000090: 6187 393e 7dc1 7d3e 5042 1e3e 6ffe 463e
000000a0: 46b9 9ebd 6d0a e03d e10e 7bbe affd 6c3e
000000b0: 7bc6 91be cd1b 54be 617d 933d d089 34be
000000c0: 7512 fb3d 34e1 bb3d 852e 733e cf75 51be
000000d0: 52f3 b13e 3541 0fbe edb7 bfbb bd22 a53e
000000e0: e2ac dc3c 4139 a2be 0bbe 81be 0f58 7a3e
000000f0: a284 943e b31a 603e 33ec 6dbe 698d a93e
00000100: 899f 21be beda acbd bbbd 9a3e ccd2 83be
00000110: 510e 6a3e e08e 233e 9aef 17bd 17cd 7bbe
00000120: 348b 54be 08cb 1b3d 8ffe 63be aa55 b2be
00000130: 3397 8abe 2b5a fe3d 011d fe3d c914 fa3d
00000140: 878c a63e f78b a8be 3b5d 9b3d 6a40 0d3e
00000150: b62e 843e 1890 74be 01db 703b abb5 51bd
00000160: 6e8f 84be 1c58 073e 8eb9 0abe e6c1 973e
00000170: f6ff 223c 609a 103e 7f3c babc 9882 a5be
00000180: 9768 5ebe cc53 a03e 6a5a b2bc 532a 863e
00000190: ac59 863e 9020 ae3e e48a c43b 4d7d 42be
000001a0: f83c b0bd 9a8a 81bb d951 72be 026a 333e
000001b0: a4cd a6be 1ac8 693b 2465 da3d f10f 7fbe
000001c0: f5a0 fcbc 2ed9 a03e 6b20 83be 5f8e 0f3d
000001d0: 912a c03c 75ae f8bd 1411 dbbc ba38 9dbe
000001e0: c8a4 ebbc 3d7c a8be 6443 0cbe 3e24 d2bd
000001f0: 1e00 0c3e 1b40 133e 3b3e c5bc b773 413e
00000200: 2789 213d 3637 00be b7b2 a13e 11a8 3ebe
00000210: d9d1 543e 6eaf 8bbd 7964 83bd 1351 a1be
00000220: 15bf 9dbe 7ba2 543e 6607 36bc fc95 a43e
00000230: 3a0d 99be d861 993e 444a b43e a44b 173d
00000240: a1f7 66be d299 933d 696b 983d 98d3 693e
00000250: 5023 6bbe f6f1 b5bd b315 203d 0876 c43b
00000260: ed92 76be 493b c6bd ae74 64be cba0 a2be
00000270: f003 8cbe e7e4 b13e 3595 663e fb96 adbe
00000280: 73ee f0bc 903f 0bbe 7f43 f6bd ecea 31be
00000290: 370c b33e ff39 9dbe 311e f73c 44f7 593e
000002a0: 5556 ac3e bcf3 a13e f37f 103e 2906 753d
000002b0: 6007 0a3e fbd0 053d 0129 8b3e 2e48 333d
000002c0: 6083 aa3e 4eeb 8c3e 840e 9fbe 8875 9c3d
000002d0: adc7 98be 0b0c 3dbe 0885 77be a9a0 9cbe
000002e0: 2e36 98be ac7e 463e d410 69be 4d71 873e
000002f0: 2161 0d3e 4ab5 9fbe 2107 653e 0fe8 323e
00000300: 89f6 8c3e 8ea3 a83e 4484 8c3d d42e b33e
00000310: 7617 ba3c c3cb 8abe 9daf 3abe 0e10 d0bd
00000320: 7967 9dbd ff30 e2bd 378f 9f3e 1f41 52be
00000330: 513b b03e d0a5 733e ff0b c6bc 922c ca3d
00000340: dd7f 98be 2be6 60be f213 a8be f453 21be
00000350: 8a49 763e 1d89 c13c 886a 69be 1c7d 23be
00000360: 675e 1bbd e58b 95be 8333 8abe da7d 96be
00000370: ea02 9bbe 6c69 843e 4c72 243e ac18 b33e
00000380: c04b 3fbe 7fdc 783e ca07 903e b539 78be
00000390: 6f85 a7be 3ab0 613e a517 8bbd 6c8d a0be
000003a0: 306d 5abe a67e 90be 868b ad3e a452 97be
000003b0: b6a8 63be 49d2 5bbe 5a4b 8cbe e39f 323c
000003c0: 24aa d4bd ff84 6dbe b1b3 b4be a253 4b3d
000003d0: 9eb7 bf3d b8b7 a13e ae38 95be 0ff5 82bd
000003e0: 84ff fb3d b79e 9dbd fb27 82be 94e1 ee3d
000003f0: d8ab f1bd f58f 3cbe 3c34 59be 08fa 32be
-0.24402945 -0.19891736 0.05330135 0.1469575 0.22890957 -0.048200652 -0.07217087 0.07717185
0.13770378 0.0075461403 0.2649786 -0.2825501 0.20008191 -0.055289585 -0.038723513 0.09528639
-0.35062528 0.1202796 -0.2740175 -0.15454419 0.15523738 0.32124433 -0.21614404 0.2376745
0.005737324 -0.15088028 -0.2642632 -0.26613352 -0.09940768 -0.2012383 0.12619288 -0.034905262
0.17109345 -0.31104556 0.106279135 -0.04253949 0.18118049 0.24780841 0.15454984 0.19432996
-0.07750182 0.109394886 -0.24517395 0.23143648 -0.2847174 -0.2071373 0.072016485 -0.17630696
0.1225938 0.091738135 0.23748215 -0.20455097 0.3475595 -0.13989718 -0.005850783 0.32253066
0.026937906 -0.31684306 -0.25340304 0.24447654 0.2900744 0.21885185 -0.23234634 0.331157
-0.15783514 -0.08440159 0.30222878 -0.25746763 0.22857024 0.15972471 -0.037093736 -0.24589954
-0.20756227 0.038035423 -0.22265075 -0.34830981 -0.2706848 0.12419542 0.12407876 0.12210996
0.3252909 -0.32919285 0.07586142 0.13794103 0.25816888 -0.23883092 0.003675163 -0.051198643
-0.25890678 0.13217205 -0.13547346 0.2964012 0.009948721 0.1412139 -0.022733925 -0.32326198
-0.21719585 0.31313932 -0.021771628 0.26204166 0.2624029 0.34009218 0.0059980024 -0.18993111
-0.08605379 -0.00395329 -0.23664035 0.17520908 -0.32578766 0.0035672248 0.10663822 -0.24908425
-0.030838469 0.31415695 -0.2561067 0.035047885 0.023457797 -0.1214265 -0.026741542 -0.3070734
-0.028765097 -0.32907286 -0.13697582 -0.10260819 0.1367192 0.14379923 -0.024077525 0.18891798
0.03943744 -0.12521061 0.3158166 -0.186188 0.20783176 -0.0682057 -0.06415648 -0.31507167
-0.30809847 0.20765106 -0.011110162 0.3214568 -0.29892904 0.2995746 0.3521291 0.03693737
-0.225554 0.07207073 0.07442362 0.22834623 -0.2296269 -0.08884041 0.039083194 0.0059955157
-0.24079485 -0.096792765 -0.22310135 -0.317633 -0.27346754 0.3474495 0.22517855 -0.3390425
-0.029410576 -0.13598466 -0.120245926 -0.17374772 0.34970257 -0.3070831 0.030165764 0.2128573
0.33659616 0.31631267 0.14111309 0.059820328 0.13479376 0.032670002 0.2717972 0.043770008
0.33303356 0.27523273 -0.31065762 0.07639605 -0.2983984 -0.18461625 -0.24171841 -0.30591324
-0.29728836 0.19384259 -0.22760326 0.2645363 0.13806583 -0.31193 0.22366 0.17471336
0.2753184 0.32937282 0.06861165 0.34996665 0.022716265 -0.27108583 -0.18231054 -0.10159312
-0.076857515 -0.110445015 0.31163952 -0.20532654 0.34420255 0.23793721 -0.024175642 0.09871782
-0.29785052 -0.21962802 -0.32827717 -0.15754682 0.2405149 0.023624951 -0.22794545 -0.15965694
-0.037931826 -0.29208294 -0.26992425 -0.29392892 -0.3027566 0.2586168 0.16059226 0.3497976
-0.1868124 0.24302863 0.28130943 -0.24240763 -0.3271899 0.22039881 -0.06791619 -0.31357896
-0.21330714 -0.28221625 0.3389551 -0.29555237 -0.22232327 -0.21466936 -0.2740124 0.010902378
-0.10384014 -0.23195265 -0.35293344 0.049640305 0.09361194 0.3158548 -0.29144806 -0.063943975
0.12304595 -0.07696288 -0.25421128 0.11664119 -0.11800355 -0.1841429 -0.21211332 -0.17478192

bias_ih_l0 f4 [32]
00000000: bf06 143e b313 243e aef9 583e 39e0 8c3e
00000010: 056e c23d b9cc 8f3e 2ad8 4cbe 1533 2e3e
00000020: 9afd 90bd e44b d9bd 7384 9abe a288 493e
00000030: 71fa 303e 2220 7cbd ca4b e4bb 88a8 073d
00000040: 668f 8cbe 59c8 ae3e 5b15 4a3e a00f e33d
00000050: ed05 81be 0060 33be a7eb ab3e 5472 723e
00000060: c244 febd af8b 1a3c b406 2b3e 827c a3be
00000070: 85ce 09be d4ed 5b3d 512f 833e a815 8dbe
0.14455698 0.1602314 0.21188995 0.27514818 0.09493641 0.28085878 -0.20004335 0.17011674
-0.07079621 -0.10610178 -0.30179176 0.19681028 0.17283036 -0.06155408 -0.0069670426 0.03311971
-0.27453154 0.34137228 0.19734709 0.110869646 -0.25199834 -0.1751709 0.33578226 0.23676425
-0.12415458 0.009432717 0.16701776 -0.3193093 -0.13457687 0.053693607 0.25622037 -0.27555585

bias_hh_l0 f4 [32]
00000000: b139 213e 13c1 263e ff64 133e 4815 b93d
00000010: 02db ab3e 7b73 e73d 894e a7be 56f1 983e
00000020: 4057 2fbe 366a 83be 5c59 42bd 7d6a 4ebd
00000030: 4efa 873e ca70 1fbe 0fb7 d53c e587 403e
00000040: 2772 d73d f1bf 9f3d 3a8d 5a3e 91c4 65be
00000050: 5869 853c c282 f23d d0a1 aa3e 4e15 52bd
00000060: 467a 92be c57b 823e b097 abbe 2706 8c3e
00000070: ebf3 6cbe ee37 98be 5e1a 27be 5ba5 67be
0.15744664 0.1628459 0.14393996 0.09037262 0.33565527 0.11301323 -0.32677105 0.29871625
-0.17123127 -0.2566697 -0.0474485 -0.050394524 0.26558155 -0.1557037 0.026088266 0.1880184
0.1051982 0.07800282 0.21342936 -0.22438265 0.016285583 0.11841346 0.33326578 -0.05128985
-0.28608912 0.25485054 -0.33514166 0.27348444 -0.23139922 -0.2973017 -0.16318652 -0.22621672

weight f4 [4, 16]
00000000: 3796 64be e036 693d 965f 6d3e 5e16 12be
00000010: f3f9 c8bd 091f df3d 8e98 3a3e 3e65 b1bd
00000020: 88e6 98bc eec7 0cbe 8ef5 10be e08b dabd
00000030: 97b6 c53d 3920 8fbd 5a80 7d3e 71d1 7cbe
00000040: 5392 36be 2f61 3ebe d128 cabd d215 bbbd
00000050: 5ecd 78be 3a48 58be 5320 70be b104 233e
00000060: 3441 873c 9c29 923d 05af e2bd dc12 7a3e
00000070: 5a7c 6e3e 968e 483e 499b 44be d7e5 643e
00000080: c431 f3bd 06f8 2c3e ad6f dc3d 47b5 20be
00000090: 9ac1 c43c c9c6 573d 318d c33d 8c2d b3bd
000000a0: ff2f 96bd f41e 30be 8f62 ddbd b5ff 74be
000000b0: b541 8ebd 84fe 9abd ba28 693d db37 543d
000000c0: 6c13 adbd cd1c 603c 6bf1 ee3c 7e5e 693e
000000d0: e1c0 243e 6f9e d6bd 2515 42be dbdf d03d
000000e0: cc56 973d 15ca e13c 1300 c6bd 6d97 bf3c
000000f0: 89f0 17be 1d83 d73c bfbd 35be 8b7b a93d
-0.22322927 0.0569371 0.23180994 -0.14266345 -0.09813299 0.10894591 0.18222257 -0.086618885
-0.018664613 -0.13748142 -0.14156172 -0.1067121 0.09653967 -0.06988568 0.24755993 -0.2468927
-0.17829256 -0.1859176 -0.09871066 -0.09135021 -0.24297091 -0.21121302 -0.2344983 0.15919758
0.016510583 0.071368426 -0.110685386 0.24421257 0.23289624 0.19585642 -0.19199862 0.22353302
-0.118747264 0.16891488 0.10763488 -0.15694152 0.024018098 0.05267981 0.095484145 -0.08748922
-0.07333373 -0.17199308 -0.10809814 -0.2392567 -0.06946126 -0.07568076 0.056923606 0.05181108
-0.0845097 0.013678742 0.029167851 0.22789952 0.16089202 -0.104794376 -0.18953378 0.10198947
0.07389602 0.02756218 -0.09667983 0.023387635 -0.1483785 0.026307637 -0.17748164 0.08275517

bias f4 [4]
00000000: 0371 8fbd 0034 913d 8317 093e 6578 c7bc
-0.07003977 0.07089996 0.13387875 -0.0243494

weight f4 [4, 16]
00000000: 06d6 293e 53ae 43be ed25 983e 5fda 213d
00000010: b41d e3bd 1c83 cf3b f19f 31bd f182 c23c
00000020: bc44 db3d 6c90 82bd 2aed 413e 570a 68be
00000030: ef84 203d 506a 503e c6a3 063e e46a 86bd
00000040: 05a3 73bc 0bbc a73d d3dc 2bbd 6b5f d73d
00000050: ad43 873d 6532 553e 2a9b a7bd d83c 41be
00000060: b5f4 833e da3f d43c ebb3 183e 903b f93d
00000070: c6e1 733e bc7d 83be ca47 abbd af83 cf3c
00000080: 02db 36be 027f a0be fb3f 303e 9391 0cbe
00000090: 2d5e 44bd 7557 6ebe c23e c2bb e39c 2dbd
000000a0: 90c6 7f3d 383d 1cbe 5105 893e 4a40 6fbd
000000b0: e82b c4bc 5239 84bd bfb3 25be 5f48 2a3e
000000c0: aa78 69be fd58 59bd 2f0d 743e 9d4c 543d
000000d0: 8b8f 92be 12f4 aabd 0e43 e43d a015 d4bd
000000e0: fbdf 1a3d 2286 5cbc bb21 1abe 9c1f 12be
000000f0: 0166 65be cf96 8d3d b385 33be 2421 80be
0.1658555 -0.19109468 0.29716435 0.039514896 -0.1108965 0.006332768 -0.043365423 0.023744078
0.107064694 -0.063752025 0.18938127 -0.22660194 0.039189275 0.20353055 0.13148412 -0.065633565
-0.01487041 0.08190163 -0.04195864 0.105162464 0.06604705 0.20820005 -0.08183892 -0.18870866
0.25772634 0.025909353 0.14912383 0.12169564 0.23816594 -0.25681865 -0.08363302 0.025331346
-0.17856982 -0.313469 0.17211907 -0.13727407 -0.047941376 -0.2327555 -0.0059278915 -0.042385947
0.062445223 -0.15257728 0.2676187 -0.05841092 -0.023946717 -0.064562455 -0.16181849 0.1662917
-0.22799936 -0.05306338 0.23833154 0.051830877 -0.2862514 -0.08347334 0.11145602 -0.10355687
0.03781126 -0.013459714 -0.1505193 -0.1426987 -0.22402193 0.0691353 -0.17531471 -0.25025284

bias f4 [4]
00000000: d62c b3bd 2f67 cbbd 10ef e03d 8750 ffbd
-0.08748786 -0.0993179 0.109830976 -0.12466531
