model/MLSTM_10_32_0.01.pt (torch, 10465 bytes, 12 tensors)

weight_ih_l0 f4 [32, 4]
00000000: 8a50 30bd b406 acbd 0528 453e af67 a5be
00000010: 7c8c a83e dcbe 89bc 4a9c d8bc 37db 7fbe
00000020: 72e3 92be 771c 87be 32f4 44be 8459 213e
00000030: 7615 e03d efb5 ba3c c11d 89be b496 8cbe
00000040: cd74 71be 8a7a aabe e3cf f43d c726 34bd
00000050: 8704 9ebd aac7 893e 208e 633e 6a95 843d
00000060: 5d4e c0bc c33f bebd a2f4 72be 0171 013e
00000070: c615 16be 80e1 513e 6a0d b33e 3c4b a93c
00000080: ad66 c3be 73d2 a0bc f326 d9bd 480b 303e
00000090: 37eb 073e 2000 9bbe 3784 203e 8b69 1cbe
000000a0: 53c3 6c3d 4108 c33e 6e70 a23c 7072 b9be
000000b0: c31f de3d 5795 9bbe e212 43be dbac 7c3e
000000c0: 7033 a8be 0d57 1e3e 0674 3fbe 6839 80be
000000d0: 2279 adbd 26b0 8ebe 1be0 ba3e dfe0 543e
000000e0: 3ea9 433e 33d3 a33e 4ff9 4ebe 40ce a0bd
000000f0: 7734 cdbe 5843 533e 90a5 98be d563 b7be
00000100: b8ae 6a3e cbe9 47be e68d 24be 29d4 073f
00000110: 6ca2 e7bd 9feb b2be e0e4 a6be 28c0 bebe
00000120: c8d3 c83e 1f5e 8bbe 3c2b 333e ac90 723b
00000130: 7c1c 95be 8520 613e 1db3 70be 265f c03b
00000140: ea36 18be 0411 a5be d65c 36be 4091 a1be
00000150: 80aa 8c3e 0d6d bd3d c9e8 6f3d b991 023f
00000160: 2e9e cb3e d9ef 843e 23e6 8abd 118e 3c3e
00000170: 7c11 0abf 5074 80bd aa01 8ebe b244 89bd
00000180: 49e8 95be ba94 5c3e 764d 1a3d a7f2 99be
00000190: a508 f03d 328d ffbd b116 1ebe 7df5 9a3e
000001a0: bb90 abbe 94a7 60be 3485 46be e684 08be
000001b0: 3991 f43d 2d22 483e 5881 b0bd 71b8 133e
000001c0: d792 febd c5d6 ecbe 8c9e d53e b5c9 63bd
000001d0: 4d6f c43d 469e f3bd a800 00bd 95d4 663e
000001e0: 31bc bcbc d0f7 2cbe bfd4 173e ff1b 92be
000001f0: 1220 7abe d67d a53d 9a52 86be 815d 27be
-0.043045558 -0.08399716 0.19253547 -0.32305667 0.3291968 -0.016814642 -0.026441712 -0.24985968
-0.28689152 -0.26388904 -0.19233778 0.15756804 0.10941593 0.02279183 -0.26780513 -0.27458727
-0.23579712 -0.33296615 0.11953714 -0.043982293 -0.07715707 0.26910144 0.22222185 0.06473811
-0.023474867 -0.09289505 -0.23726133 0.12640764 -0.14656743 0.20496178 0.34971172 0.020665757
-0.38164273 -0.0196316 -0.10603132 0.17191803 0.13273321 -0.30273533 0.15675436 -0.15274636
0.057803463 0.38092235 0.019829001 -0.3622012 0.10845902 -0.30387375 -0.19050172 0.24675314
-0.32851744 0.15462895 -0.18696603 -0.25043797 -0.0847037 -0.27868766 0.36499104 0.20788907
0.1910753 0.3199707 -0.20212291 -0.07851839 -0.4007909 0.20631158 -0.29813814 -0.35818353
0.22918212 -0.19522779 -0.16069755 0.53058106 -0.113102764 -0.3494539 -0.32596493 -0.3725598
0.39224076 -0.27220246 0.17496961 0.00370125 -0.29123294 0.21985061 -0.23505826 0.0058707176
-0.14864698 -0.32239544 -0.17808852 -0.3155613 0.2747383 0.092493154 0.05857161 0.51003605
0.3976912 0.2596424 -0.06782176 0.18413569 -0.5393293 -0.06272185 -0.27735645 -0.06702556
-0.29278782 0.2154111 0.03767153 -0.30067942 0.11720399 -0.12478103 -0.15438344 0.30265418
-0.33508858 -0.21938926 -0.1938675 -0.13331947 0.119417615 0.19544287 -0.0861842 0.14425828
-0.12430351 -0.46257606 0.41722524 -0.055612285 0.095915414 -0.11895423 -0.031250626 0.22542031
-0.023038955 -0.16891408 0.1482725 -0.28536984 -0.24426296 0.08080642 -0.26234895 -0.16344263

weight_hh_l0 f4 [32, 8]
00000000: bdc0 ac3e 4e73 813c c8eb b93d 2da7 2dbe
00000010: bb5a 17be 9b08 85be c61f 363d b4cf 143e
00000020: ed3b 903e 13b7 223e a764 e8bd 4024 813e
00000030: 014c 5dbe edc2 a3be ab28 81be 0783 1e3e
00000040: 6251 453e 52a9 8cbe 2d22 153e d426 15be
00000050: 2033 99be 529f 083b 2dab 933e 3f26 6ebe
00000060: aec7 9e3e 4c1f 85be 549d 673e e53d 82be
00000070: 1e0a 623e 8d27 89be b18d 6ebe fbb3 923e
00000080: 29c9 b3be 4ddc 0f3e 467b 8bbe fb44 013e
00000090: 279a abbe 87be 833e f58c 113e 7eca 13be
000000a0: d0e3 68be c3c7 fbbd 5652 433e ebfe 783d
000000b0: f60a ed3c 779b 173d f504 a8be 0fe7 a0bd
000000c0: b143 e13c e93e c9bd d874 923d d12f b3bd
000000d0: df7c 68bd 5db0 0abe 80c2 01be b3e1 ae3e
000000e0: cff9 2f3e cd4d 713e d16c 2ebe 177c 42be
000000f0: cb03 3d3e 7e0b cfbd 6262 01bd c4ec 9fbe
00000100: 24db bdbe ee37 5f3e 47e7 843e 602c 933e
00000110: 9161 553e a1a8 433e b94b ec3d c024 61be
00000120: 6f82 6f3e 9af1 193e da71 ad3c ccb1 98bd
00000130: ce10 26be 86fc e03d 2dc4 1c3c d070 433e
00000140: 61e8 8e3e 1a2c 153e 31e6 4b3e 5201 0cbe
00000150: 05ad 8cbe 1e66 78bb 46b4 d93b bce6 edbd
00000160: 60bb 243d 31ba 98be 1229 503e 064d 5d3e
00000170: 73a4 ac3e 7769 28be f3c1 43be 6d1a 863d
00000180: 4711 8ebe fbc1 8bba 15e0 9fbd 526d 7f3e
00000190: 0700 a53b fcc2 6abd 74b5 a2be 0163 4a3e
000001a0: 83d3 003d de1b 72be 199d a5be 7507 8c3e
000001b0: fc2d 63bd f835 9abe ecf6 753e 3b04 8c3e
000001c0: b025 94be 4eaf adbd ea8c 153e 0c2f 513e
000001d0: 2e27 acbe 397c 413d 0874 c43d 5f29 edbd
000001e0: 3852 433e 4bde 5dbe 3a21 093e 0b7b bf3d
000001f0: 4cb3 2b3e 8549 863e 305b aa3e 5362 033e
00000200: ee9e 80be 55e5 803d 02c7 20be 026d 03be
00000210: 3b11 4d3e 884c 573e e143 4e3e 911e bbbe
00000220: c0be 95bd 592a 39be f6bb a93e 747d a9bd
00000230: ce9d b83b 0486 563e d1a0 89be f9a1 abbd
00000240: 2f64 f3bd a636 e83d e5c3 1d3e 13f2 143e
00000250: 63eb 983d fd5b 4d3e 72e0 6cbe 73f5 ddbd
00000260: 0f10 7cbe 731e cb3d 75d1 eabd 904a 79be
00000270: 9e89 f73d 09a2 8ebd 6a9b acbe f29e 323e
00000280: bd95 9fbd 7e92 773e 710c 643e 0324 e73d
00000290: 2ed1 8e3e bcf0 aabe 3f21 923e b5a4 9dbd
000002a0: beeb 89be 3933 51be fd65 aa3e fdf2 0dbe
000002b0: 28cd 943e 0046 00be 8ee9 edbd efe8 453e
000002c0: 1520 a4be d744 85be 6071 8bbc 927f 933e
000002d0: 4cce 80bd 8f0f 9ebe b9be adbe 7d61 9bbe
000002e0: dad1 4abe cd7e 8f3e 4fae 993e 2f4a 453e
000002f0: 7f5d af3e aaaf a9bd 1a73 9fbe ab8e 6ebe
00000300: a914 4ebe e4ba e83c c34b 873e 4cc2 17be
00000310: df0f 963d 92d1 5ebd a653 5cbe a380 673d
00000320: fdc8 a2bd a27e 70be c196 6ebe d2d1 01bd
00000330: c844 8b3d 2e2f 623e c70a 22be d861 813d
00000340: b35a 5abe 4a4c 683e aeab 043d d139 76be
00000350: 64e8 653e 09f2 71bd 67aa e93d 5994 b43e
00000360: 2e3d a4be 210d a23e dbc3 36be eebb 19be
00000370: e47a 8b3e 96d2 1b3e 817c 8fbe 4df4 adbe
00000380: 076f aebe c4a8 853d 3d4a 56be 30c5 4f3e
00000390: 8e5e 25bd 3ffe c03d 2880 253e 0437 0dbe
000003a0: c332 81bd e14c aa3e 66bf a73b 18da 913e
000003b0: 1931 fabd eac5 6a3e 3f5a 813e ee38 083e
000003c0: 5419 79be c540 103c 2e1e 91be 0a8e 5fbe
000003d0: 132f 0d3e 8cb3 b7bd c0b8 0a3e b926 2dbe
000003e0: ec24 573d 7114 a83e c187 b8bd dd74 923e
000003f0: d5a2 62be 10d7 e33d 7f13 efbd 6a52 c8bd
0.33740798 0.015802052 0.09078175 -0.16958304 -0.14780705 -0.25983128 0.044463895 0.14532357
0.2817072 0.1589015 -0.11347323 0.2522297 -0.21611024 -0.31984654 -0.2522634 0.1547967
0.19269326 -0.2747293 0.14563818 -0.14565593 -0.29921818 0.0020846915 0.28841534 -0.23256777
0.3101172 -0.2600044 0.2261861 -0.25437847 0.22074172 -0.26787987 -0.23296238 0.2865294
-0.3511441 0.14048882 -0.27242488 0.1262397 -0.33516046 0.25731298 0.14213927 -0.14432713
-0.22743154 -0.12293961 0.19074377 0.060789984 0.02893589 0.037013497 -0.32816282 -0.07856571
0.027498098 -0.09826452 0.071511924 -0.08749355 -0.05675971 -0.1354384 -0.12671852 0.3415657
0.17185138 0.23564835 -0.17033698 -0.18992649 0.18458478 -0.10109614 -0.031587966 -0.31235325
-0.37081254 0.21798679 0.259577 0.28744793 0.20838 0.19107296 0.115378805 -0.21986675
0.233896 0.1503357 0.021172453 -0.07455787 -0.16217348 0.10985665 0.009568256 0.19086003
0.27911666 0.14567605 0.1991203 -0.13672379 -0.27475753 -0.0037902663 0.0066438047 -0.11616275
0.040217757 -0.29829553 0.20328167 0.21611413 0.33719215 -0.16446482 -0.19116955 0.06548009
-0.27747557 -0.0010662669 -0.07806412 0.24944046 0.0050354037 -0.057314858 -0.31779063 0.1976433
0.031451713 -0.23643443 -0.32346418 0.2734944 -0.055463776 -0.301193 0.24019974 0.27346978
-0.28935003 -0.08480702 0.14604536 0.20428103 -0.33623642 0.04723761 0.09592444 -0.115801565
0.19074333 -0.2166683 0.13391581 0.093496405 0.16767615 0.26227966 0.33272696 0.12830476
-0.25121254 0.062937416 -0.15700915 -0.12834552 0.20026104 0.21025288 0.20143081 -0.36546758
-0.07311773 -0.1808256 0.33151215 -0.082758814 0.005634046 0.2094956 -0.26880506 -0.08380503
-0.11884343 0.11338548 0.15406759 0.14545469 0.074667715 0.20054622 -0.23132494 -0.10837831
-0.24615501 0.09917917 -0.11465732 -0.2434485 0.12086795 -0.069644995 -0.33712322 0.17443445
-0.07792232 0.24176976 0.22270371 0.112861656 0.27893966 -0.3338679 0.2854099 -0.07697431
-0.2693767 -0.20429696 0.33280936 -0.13862224 0.29062772 -0.12526703 -0.11616813 0.19327138
-0.32055727 -0.26029083 -0.017021835 0.28808266 -0.06289348 -0.30871245 -0.33934572 -0.30347815
-0.19806615 0.2802643 0.300158 0.1926658 0.3425102 -0.082854584 -0.31142503 -0.23296611
-0.20125069 0.028409429 0.2642499 -0.14820212 0.07327246 -0.05439908 -0.21516284 0.056519162
-0.07948492 -0.23485807 -0.23299696 -0.03169424 0.06800228 0.2208831 -0.15824424 0.0631749
-0.21323662 0.22685352 0.03239029 -0.24045493 0.22451931 -0.059068713 0.11409455 0.3526943
-0.32077926 0.31650642 -0.1784815 -0.15013096 0.27242196 0.15217051 -0.28024676 -0.3397545
-0.34069082 0.0652633 -0.20926757 0.20290065 -0.040373378 0.094234936 0.16162169 -0.13790518
-0.0630851 0.3326178 0.005119252 0.28486705 -0.12216396 0.2292706 0.25264165 0.13302967
-0.24326068 0.008804505 -0.28343338 -0.21831527 0.13787489 -0.08969793 0.13547039 -0.16909303
0.052525446 0.32828096 -0.09010268 0.28604785 -0.22132428 0.11125004 -0.116736405 -0.09781344

bias_ih_l0 f4 [32]
00000000: 3d27 113e 1535 343d 5383 82be 680a a63d
00000010: 3547 813e ea4b c6bd ea3d 79be 87d1 933e
00000020: 21af 843d f465 8b3c b94c fb3c e630 553d
00000030: dfeb 35be 4fe7 893e af35 a9bd be2f cdbd
00000040: ee81 47be d5f6 93bd cf28 fb3c 3a57 353e
00000050: ac3e 8a3e 96cb 543d 2833 36bd 4ac1 f73c
00000060: cc60 b33e 9122 cc3e 9db9 963e e64d 8a3e
00000070: 3c90 6fbd d950 ce3e 4d18 74be 6a2f b03e
0.14175124 0.043995935 -0.25490817 0.081074536 0.2524964 -0.09682448 -0.24340025 0.28870794
0.06478716 0.017016388 0.030676233 0.052048586 -0.17765759 0.26934287 -0.082621925 -0.10018872
-0.19483158 -0.07224814 0.030659107 0.17709056 0.2700094 0.051951967 -0.04448238 0.030243535
0.35034788 0.39870122 0.29438487 0.27012557 -0.058487162 0.40296057 -0.23837395 0.34411174

bias_hh_l0 f4 [32]
00000000: f84a 573e 6229 8fbb 7cd5 c53e 9e9a ed3d
00000010: a174 97be fe15 6fbe 82ef 9dbc d559 9a3e
00000020: dc67 933e 0031 2cbe 3aa2 6b3d 547a 22be
00000030: b1d8 37be f159 683c bb38 a9be 31db 85be
00000040: f5de 90bd 3bf5 85be c887 cb3d 3ab4 6ebe
00000050: b7fb 1f3e 06fb 773d 3c16 033e 3baf 0d3c
00000060: fb4f b8bd ba72 32bc 031e f3bd ee56 33be
00000070: fe64 08be a6d0 d4bb f64c 27be c207 f13e
0.21024692 -0.004368947 0.38639438 0.116017565 -0.29581168 -0.23348233 -0.019279245 0.3014666
0.28790176 -0.16815567 0.05752776 -0.15866977 -0.17953755 0.0141816 -0.33051094 -0.26143792
-0.07073776 -0.26163658 0.099380076 -0.23310938 0.15623365 0.06054213 0.1280145 0.008647735
-0.0899963 -0.010891611 -0.11870959 -0.1751363 -0.13319775 -0.0064945994 -0.16337952 0.4707623

weight_ih_l0 f4 [32, 3]
00000000: 658c 843e 68ef a4bd 73da 98be 0249 1d3e
00000010: 48bc 71be 7803 1fbd 5154 9c3e 9069 c03c
00000020: 3efb 263e 621f 723e 0646 afbe 785f 9fbd
00000030: 8b6a 903e eae0 97be e6e4 283e 6947 1dbe
00000040: 90a2 b23c 6401 5fbe 82ba 303e 00ce 5dbd
00000050: 117e ad3e da32 673e d2ec 6f3e d877 563d
00000060: 17d7 a53e 6297 353e 52c5 153e bcf8 9abe
00000070: 6c5c 4ebe 2019 a33c 6659 4f3e 38eb b93d
00000080: f0d1 ea3d 3396 903e 500f b1bc 124d 6abe
00000090: fdec 88be 58f0 08be 5d94 a1be b81e 013d
000000a0: a284 4d3e adac 8cbe bea3 1a3e 9ed2 5f3e
000000b0: c05d 313d f219 28be 0076 f5ba 98eb 793d
000000c0: 6b73 893e 6113 13be c038 83bd 589d babd
000000d0: 9ad8 3b3e a002 1bbd 004f f9bc e8c4 163d
000000e0: 81b5 b23e f4f1 bfbd 70cf 10bd f5eb 08be
000000f0: 04e1 97be 7afd 403e c45a be3d 1e39 e0bd
00000100: 268e 2a3e 1c59 d53d b57f 9d3e ac19 d4bd
00000110: eded b23e debc 6e3e 4e5f 313e 8000 5cbe
00000120: cfc9 4bbe 44ab 893d 9388 9bbe a88e 79be
00000130: 083a 32be 643e 9bbe c8dc a2be 479e 9b3e
00000140: 2d49 803e 0c80 c8bd 1885 75bd ea73 3e3e
00000150: 3c7f 94be e517 29be d8f3 3fbe 2e48 4f3e
00000160: c902 39be a043 77bc f920 34be 61db 8fbe
00000170: 96fa fcbd e038 4bbc 80e3 61bd 5e66 9cbe
0.25888363 -0.080534756 -0.29854164 0.15359882 -0.2360698 -0.038821667 0.30533078 0.023487836
0.16306779 0.23644784 -0.3423311 -0.07781881 0.28206286 -0.29663783 0.16493568 -0.15359272
0.021806031 -0.21777874 0.17258647 -0.054151535 0.33885244 0.22577992 0.23430184 0.052360386
0.32390663 0.17733529 0.14626053 -0.30267894 -0.20152444 0.019909441 0.20248947 0.090780675
0.11465824 0.28239593 -0.021613747 -0.22880962 -0.26743308 -0.13372934 -0.31558505 0.031523436
0.20070127 -0.2747549 0.15101525 0.21857688 0.043302298 -0.16416147 -0.0018727183 0.061015695
0.2684587 -0.14362861 -0.064073086 -0.09112042 0.18344346 -0.0378443 -0.030433178 0.03680888
0.34904101 -0.09372321 -0.035354078 -0.1337126 -0.2966386 0.18846694 0.09294656 -0.10948394
0.16655788 0.10417387 0.30761495 -0.10356459 0.34947148 0.23314235 0.17321512 -0.21484566
-0.19901203 0.067221195 -0.30377635 -0.24370825 -0.1740495 -0.30321038 -0.31809068 0.30394194
0.2505583 -0.09790048 -0.05994138 0.18598905 -0.29003322 -0.16513021 -0.18745363 0.20242378
-0.18067469 -0.015091807 -0.17590703 -0.2809706 -0.12352483 -0.012403697 -0.0551486 -0.3054685

weight_hh_l0 f4 [32, 8]
00000000: 5636 713e 5117 a2be 4699 503e d4d8 99bd
00000010: e70e b1be 30a3 d73d ac8e e93d ca47 dbbd
00000020: 37fe b1be 90e7 eabc f8c8 4b3d 402f f3bd
00000030: 014d ae3e 2043 32bd 947d 02be 0081 f3bc
00000040: 6a7a 0e3e 0c75 a03d e359 b23e d072 c5bc
00000050: db79 8fbe e25c 07be b018 e53d 10f8 92be
00000060: 1ff6 5ebe 5bc8 843e 6900 9e3e a626 a7be
00000070: 85c0 33be db78 9c3e a806 eb3d 7072 8c3c
00000080: 3197 82be 62f8 7a3e ddd3 91be 707a 75be
00000090: 8243 463e 8073 f4bd c4c0 c2bd a794 9b3e
000000a0: f963 9a3e e828 9dbe daf0 703e ef83 00be
000000b0: 8d78 b03e c97c 8b3e 809f 8a3b 4905 9b3e
000000c0: bf68 23be c662 5fbe 04d6 bd3d 9f64 893e
000000d0: a0ea 613c 9816 113d b841 5f3d 54a4 e83d
000000e0: 4591 17be 3cd1 f03d 92d9 303e 68a7 f93d
000000f0: 86d2 753e 0a31 5cbe 0a53 55be c06e 7e3d
00000100: 4605 b3be f0d1 9dbd 62a4 623e 02a4 0a3e
00000110: 5e02 163e c267 333e 8823 0d3e 3f84 96be
00000120: 666c 513e 6890 823d da69 543e f757 adbe
00000130: a820 483d d4dc 9ebe 7030 7b3d 0b8e 56be
00000140: 92ca 563e 4cff aebe a60b 7ebe 409f 863b
00000150: b2c9 633e 75a0 883e c00e 003e 8ebe 293e
00000160: 68f8 9abe 2503 7bbe c8a6 e13d fa9b 043e
00000170: 69d9 a93e 3052 d03c da6a 413e 10af 05be
00000180: 34c5 ae3d 4adb 703e feb2 9dbe c2a6 04be
00000190: 69d4 af3e 400f bc3b 012b 6bbe 4883 7abd
000001a0: 68d2 8bbe 7acc abbe 87ed 9a3e 3fb7 3cbe
000001b0: abd7 ac3e b54c 51be 9474 0c3e 6917 b33e
000001c0: 068c 1e3e b84b dd3d 24ce ec3d 4db4 ac3e
000001d0: 26ea 283e 8d5e a43e 2391 47be 9cfd a5be
000001e0: 60b0 a83d 8f54 23be 409f 56bd 1dfd 86be
000001f0: d4b1 d43d 2a44 6e3e 9b81 973e d6d1 4c3e
00000200: 01e4 62be e736 8e3e 5638 163e 682a 6bbd
00000210: 87c9 4cbe 6745 ac3e 8819 4e3d 12ce 80be
00000220: 081f 0ebe 15da 823e 68da aebd 3a1a 18be
00000230: a022 e2bc 0042 fe3d 3d93 9e3e da7e 443e
00000240: b2a2 7c3e 732e 873e 9f28 b43e d9df 30be
00000250: 3863 57bd bca7 c63d 6c73 b3be a0ff 7fbe
00000260: 308a 6b3d f7b7 12be 8459 d73d 1efc 073e
00000270: 99c9 a3be fb85 3abe 10b8 ccbd d5ed 96be
00000280: 6a9c 92be 3da8 80be e933 10be 168a 343e
00000290: 18df 813d 904f 7a3d fb41 b43e 10d6 15bd
000002a0: 2ab6 4fbe 5079 ee3c a009 893d a3f4 ae3e
000002b0: 5a37 37be fcfe 73be 46b1 33be 2c16 e93d
000002c0: 2ec6 91be 03d8 4cbe 130f 9c3e 4eaf 44be
000002d0: 1048 84bc 7bcc afbe a4f4 67be 9527 a83e
000002e0: aaf7 4cbe a096 55bc c773 b23e 903a a93c
000002f0: fb70 893e 8902 863e 19ff 5dbe da7b 543e
00000300: c0ee 14bd 7443 74be a00a 50bd 9435 8dbe
00000310: 4e21 683e e202 70be 82dd 4e3e ad88 a43e
00000320: 5cf6 cb3d c2b1 01be e093 46bc 8b0e b13e
00000330: aab1 b0be c183 a43e 08ca 123e 888d 92be
00000340: 17b8 8e3e 26eb 653e fcd0 853d 58ab 52be
00000350: a067 28bd d38e 943e 7a57 e8bd bb1b ad3e
00000360: 74c8 ea3d 70fc cb3c 3b7c 8cbe 709c 47bd
00000370: ee1a 453e bc3a 053e f8fe 143d 9ca5 ad3d
00000380: a966 1cbe 9c39 ab3d 6d7b 39be c470 d63d
00000390: f8eb 7c3d d851 3cbe 3626 1e3e a62d 663e
000003a0: dc42 e33d 602d efbc fc8d 963d 06d0 593e
000003b0: c010 233c c40e c0bd e98a 12be 81fe 3fbe
000003c0: feab 4d3e 8e60 303e a079 0c3e 9c1c 8cbe
000003d0: c4fd fd3d 7646 b1be c077 813c 9fba 63be
000003e0: 1822 8fbe 900e c53c a23d 703e c059 67be
000003f0: 991f 4ebe 1ba1 853e 25bc 953e 6a46 5c3e
0.23555884 -0.31658414 0.20370969 -0.0751206 -0.34581682 0.105291724 0.114041656 -0.10707052
-0.34764263 -0.02867487 0.049752206 -0.118742466 0.34043124 -0.043521047 -0.12743217 -0.029724598
0.13913885 0.07834825 0.34834203 -0.024102598 -0.28022656 -0.13219026 0.111863494 -0.28704882
-0.21773575 0.2593411 0.30859688 -0.32646674 -0.17553909 0.30560955 0.11475879 0.017144412
-0.25505975 0.24508813 -0.2848195 -0.23972487 0.1936169 -0.119360924 -0.095094234 0.3038685
0.30154398 -0.30695271 0.23529378 -0.12550329 0.34466973 0.2724364 0.0042304397 0.3027747
-0.15957926 -0.21815023 0.09269336 0.2683458 0.013788849 0.035421938 0.054506034 0.11359468
-0.1480151 0.11758658 0.17270496 0.12190133 0.2400609 -0.21503082 -0.20832458 0.06211734
-0.3496496 -0.07706058 0.2213302 0.13539127 0.1464934 0.17520049 0.13783085 -0.2939777
0.20451507 0.063751996 0.20743504 -0.33856174 0.04885927 -0.31027853 0.06132549 -0.20952623
0.20975712 -0.3417915 -0.24809131 0.0041083395 0.2224491 0.2668492 0.12505627 0.16576597
-0.30267644 -0.24512918 0.11018139 0.12950125 0.33173683 0.025429815 0.18888417 -0.13055062
0.08533707 0.23521152 -0.30800623 -0.12954238 0.34341744 0.0057391226 -0.22965623 -0.061160356
-0.27308965 -0.3355444 0.30259344 -0.18429278 0.33758292 -0.20439418 0.13716346 0.34978798
0.15483102 0.10805458 0.11562756 0.3373131 0.1649557 0.32103387 -0.19488959 -0.3242005
0.08236766 -0.15950225 -0.052397966 -0.26364985 0.103854805 0.2326819 0.2959107 0.20001921
-0.22157289 0.27776262 0.14669928 -0.05741349 -0.19998752 0.336467 0.050317317 -0.2515722
-0.13879025 0.25557008 -0.085377514 -0.14853755 -0.027604401 0.12414932 0.3097171 0.19189015
0.24671438 0.26402625 0.3518724 -0.17272891 -0.052584857 0.096999615 -0.35048997 -0.24999857
0.057504833 -0.1432799 0.105151206 0.13279769 -0.31989744 -0.18215172 -0.09996045 -0.29478326
-0.2863496 -0.25128356 -0.14082302 0.176308 0.0634138 0.061111033 0.3520659 -0.0365811
-0.20284334 0.02911058 0.06691289 0.34171018 -0.17892209 -0.23827738 -0.17548093 0.11381182
-0.28471512 -0.20004277 0.3048025 -0.19207498 -0.016147643 -0.34335694 -0.22651917 0.328427
-0.20016351 -0.0130364 0.34853956 0.020657808 0.2684401 0.2617381 -0.21679343 0.2075037
-0.036360502 -0.23853856 -0.050791383 -0.2757994 0.22668955 -0.234386 0.20201686 0.32135525
0.09959099 -0.12665465 -0.012120217 0.34581408 -0.34510547 0.3213177 0.14334881 -0.28623605
0.27874824 0.22452983 0.06534001 -0.20573175 -0.04111445 0.29015216 -0.1134481 0.3381022
0.11464015 0.024900645 -0.2743853 -0.048733175 0.19248554 0.13010687 0.03637597 0.08478853
-0.15273537 0.083605975 -0.1811349 0.10470727 0.061748475 -0.18390596 0.15444264 0.22478351
0.11096737 -0.029196441 0.073513 0.21270761 0.009952724 -0.09377816 -0.14310803 -0.1874943
0.20085141 0.17224333 0.13718271 -0.27365577 0.124019176 -0.3462407 0.015804172 -0.22239159
-0.279557 0.024054796 0.23461011 -0.2259283 -0.20129241 0.26099476 0.29245105 0.21511236

bias_ih_l0 f4 [32]
00000000: 2d66 af3e 48ae 12bd 4d35 b0be 4ad2 19be
00000010: 58f1 31be e674 e2bd 405c a0bd 50c2 eebc
00000020: 6649 4a3e 79a2 32be 74f6 7abe 0b66 893e
00000030: d4d1 933d 8300 19be 0e2f 98be 7bdf b23e
00000040: fac4 163e b8a3 653d d822 293d 4050 b73d
00000050: 1942 ab3e 50b1 f9bc 7d13 adbe d7da 2ebe
00000060: bac3 7ebe adbf 91be 3e87 3d3e 136d a43e
00000070: 5cf8 aebd 6dec 8a3e 6321 8c3e 808b dabd
0.3425764 -0.03581074 -0.34415665 -0.15021625 -0.17377222 -0.11057453 -0.07830095 -0.02914539
0.19754562 -0.17444791 -0.24508077 0.26835665 0.07217756 -0.14941601 -0.297234 0.34936127
0.14723578 0.056064337 0.041292995 0.08950853 0.33448866 -0.030480057 -0.3380393 -0.17075668
-0.24879351 -0.2846655 0.18508622 0.32114467 -0.085434645 0.27133504 0.27369222 -0.10671139

bias_hh_l0 f4 [32]
00000000: 65e9 8abe 51c8 b03e 7aba 473e 4a4d 1a3e
00000010: 27a8 36be c6ad 3dbe 960b ffbd cd9e 983e
00000020: b079 bf3c 9225 0abe a0b9 b73d 978f a23e
00000030: 40e1 1c3c eee1 85be 2157 8a3e fb01 9c3e
00000040: 4eea 0d3e 9609 acbe e18e 24be 3c55 82be
00000050: 40c2 1ebd 075f 8a3e 1888 b53d 0425 dabd
00000060: fb71 a83e 26a7 413e 6e66 31be 7c73 8abd
00000070: 9e3b 703e 35dc 40be baac 793e 23c0 8b3e
-0.2713119 0.3452783 0.19504729 0.15068546 -0.17837583 -0.1852332 -0.12453382 0.29808655
0.023373455 -0.13490894 0.08970952 0.31750175 0.009575188 -0.26148933 0.270196 0.3047026
0.13858911 -0.33601063 -0.16070129 -0.25455654 -0.03875947 0.27025625 0.088638484 -0.106515914
0.3289946 0.18911418 -0.1732423 -0.06760308 0.23460242 -0.18834002 0.24382296 0.27295026

weight f4 [4, 16]
00000000: 6424 c43e f0cb 9bbe 53be 183e 7909 67be
00000010: b7cd 6cbe cfe1 ac3e 34c0 8e3e a60c bcbd
00000020: 377b 283e 6e44 03bd ffcd 8e3e 4953 78be
00000030: 0eaa 85bd 0640 963d 0447 b63e 7513 cfbe
00000040: 6b22 abbe be38 b8bd af08 d3be 6b83 a33c
00000050: 49f3 9abe 4c4c ca3d 81ee 463e 0eaf 003e
00000060: 482f 1b3d db39 93be 51c9 0dbe 5c31 873e
00000070: f13f d3be 38d9 3c3e 5379 e43d 1cc7 6ebd
00000080: 51cf 1d3e 4bbd 1dbe 8494 40ba 4eb1 a639
00000090: a5aa b73b 1401 603c 05e1 d73d 4e66 88be
000000a0: 09e8 333e f695 a5be 0087 46bc a8e7 81be
000000b0: 614f 333e 25fa 703e 37bb d8bd 6bb0 7fbe
000000c0: 3112 153f 132e bdbd dfb7 463e 5c7b 7fbd
000000d0: 7a20 56be b0fc b73c 3a16 813d fdf9 9abe
000000e0: fcee a03e 32dc 19bd cb44 e93d d992 5ebe
000000f0: 6bc2 6bbd b444 f73e d7ac 9e3e 39f2 11be
0.38309014 -0.3042903 0.14916353 -0.22562207 -0.23125349 0.33766028 0.27881014 -0.091821
0.16453253 -0.03204768 0.27891538 -0.24250521 -0.06526576 0.0733643 0.35601056 -0.40444532
-0.33424696 -0.08995198 -0.41217563 0.019960126 -0.30263737 0.09877834 0.1942692 0.12566778
0.037886888 -0.28755078 -0.13846327 0.26404846 -0.4125972 0.18442237 0.11155953 -0.058295354
0.15411116 -0.15404241 -0.00073463493 0.0003179409 0.005605059 0.013672132 0.10540966 -0.26640552
0.17568983 -0.32340974 -0.012117147 -0.25372052 0.1751075 0.23532923 -0.105825834 -0.24969642
0.5823088 -0.092373036 0.19406079 -0.062373504 -0.20910826 0.022459358 0.063030675 -0.3026885
0.3143233 -0.03756351 0.11390074 -0.21735705 -0.05755846 0.48294604 0.3099124 -0.14252557

bias f4 [4]
00000000: 8767 593d c818 d8bc 241d 103d a4f5 143e
0.053077247 -0.026379004 0.03518404 0.1454683

weight f4 [3, 16]
00000000: c7af 7cbd bd2b 34be 8159 893e 089f 6dbe
00000010: 5b60 9b3d f00e e23a fc97 58be 939b a0be
00000020: a7b8 893e 7b00 17bd 848b 953e c618 643d
00000030: 97ef b9be eafc ac3e 0058 fa3d 67cf 0dbe
00000040: 8ec4 b13e 25a3 5abe 2799 a5bd 9624 9fbe
00000050: 4033 afbe 3078 b43e 328f 173c 1b7d 9cbe
00000060: a5b7 9d3e 4003 dc3a c142 8dbc f438 f43d
00000070: ee80 bbbe 2872 113c bb6a 063e f932 fabe
00000080: 147b da3e 36f5 febd 9f80 c0bd 1c51 0fbe
00000090: 4e70 26be 293e b53e ced4 7dbd 7694 d0be
000000a0: ed66 373e 49e9 8cbd 77c1 a6bc a94d 84be
000000b0: 1bfe b3be f509 543e fc2f ffbd 5249 c6be
-0.06169107 -0.1759481 0.268261 -0.23205197 0.07586738 0.0017246883 -0.21151727 -0.31368694
0.2689869 -0.036865693 0.29208004 0.05568769 -0.36315605 0.33786708 0.12223816 -0.13848649
0.34720272 -0.21351297 -0.08085852 -0.310826 -0.34218788 0.35247946 0.009250449 -0.30564198
0.30804172 0.0016785637 -0.017243745 0.119249254 -0.36621803 0.008877315 0.13126652 -0.48867014
0.42672026 -0.12449114 -0.093995325 -0.13995785 -0.16253778 0.35398987 -0.061970524 -0.40738267
0.17910357 -0.06880433 -0.020355923 -0.258405 -0.35154805 0.20706923 -0.12460324 -0.38727814

bias f4 [3]
00000000: 09d7 173e 8769 413e 60ef 023e
0.14828123 0.18887912 0.12786627
