model/MLSTM_10_32_0.01.pt (torch, 10465 bytes, 12 tensors)

weight_ih_l0 f4 [32, 4]
00000000: 381a 6dbe 613d a03e fe38 6abe d37f 74be
00000010: 86cd b23e 474b aabe 16e4 a33e 90c9 b63e
00000020: 6011 6c3e c632 fabd 7bde fabd 60f1 34be
00000030: ff34 82be cfaf 8e3e 7bde 9dbe 1c7c d13d
00000040: 6113 1fbe ceb3 513e 0115 df3d a906 80bd
00000050: a40e 45bd 9db8 85be 6ecf 6e3e b3ae 543e
00000060: 8996 6dbe c77b 24be de60 92bd 5c1a 2ebe
00000070: 633b 413e 9485 ac3d 51c5 cbbc 9d59 9c3e
00000080: 5f2c b3be 0359 58be bccd 2dbe 70f1 90be
00000090: 9f98 9c3d bd5f b3be e2f0 acbe ffbb 9fbe
000000a0: 32ff 8bbe 9d5f 803e fb2a 823d e838 76bd
000000b0: 6d08 723e 903b 3cbd 2aae 853e 67e1 a23e
000000c0: 17a0 b53e 60a9 7abd cd30 2abd c6aa 673e
000000d0: d298 23bd 789c 8bbd 43a4 97be 7621 b93e
000000e0: 0ee7 633e ec3b b73d 8470 083e 955a 323e
000000f0: 58e5 6cbd 028d 3cbe fb8f 183c 7673 a9be
00000100: 4e51 aa3e a044 76be 3c63 103d d1ad 0e3e
00000110: 3819 c43e 60e8 7ebc d329 08be 9770 b1bc
00000120: 0261 97be 408e 6abe 5934 f3bd 6af1 7b3d
00000130: 5233 abbe a69c 383e 497b 7ebe 4bba 71be
00000140: 627f d43e 62f1 593e d8da cb3e d224 36bc
00000150: d42a 503d 387d 803d 11d9 c5be 9143 b9be
00000160: 278d d3bb 0c26 4fbe 3da1 a0be 0d4a 1ebe
00000170: 46cf ec3e 82b4 59be 833f a83e 922c d83e
00000180: 7e63 cdbe 38a4 49bd b9b8 9abe b5e9 cdbd
00000190: ee03 803e d052 bc3c 9ebb afbd 9624 323c
000001a0: 50c3 883e dfc9 58be d000 88be 6602 443e
000001b0: 3786 6e3e e06c b1be b4a4 b43d c378 903e
000001c0: 047e 99be d266 213e 0d05 4cbe 0af8 85be
000001d0: 5a2a ee3c 0083 e0bb fd90 cf3e a3dd 883e
000001e0: 4a84 a93e 952c 2ebe 9d4d f53d a296 bbbd
000001f0: 856a 5bbd 4003 e4bc 7395 ab3d ac79 a73e
-0.23154533 0.31296828 -0.22873303 -0.23876886 0.34922427 -0.33260557 0.32009953 0.35700655
0.23053503 -0.122167155 -0.12249466 -0.17670202 -0.25431058 0.27868506 -0.30833802 0.1022875
-0.15534736 0.20478746 0.10892678 -0.0625127 -0.048109666 -0.2611741 0.23321316 0.20769767
-0.23201956 -0.16062842 -0.07147382 -0.17002243 0.1887031 0.084239155 -0.024874361 0.3053712
-0.3499479 -0.21127705 -0.16973013 -0.28309202 0.07646298 -0.3503398 -0.3377753 -0.31198117
-0.27343136 0.25072947 0.06355854 -0.060112864 0.23636027 -0.04595524 0.2610944 0.31812593
0.354737 -0.061196685 -0.041550446 0.22623739 -0.039940663 -0.068169534 -0.2961751 0.3615834
0.22256109 0.08946976 0.13324171 0.17417367 -0.057835907 -0.18413165 0.009311671 -0.33095902
0.33265156 -0.24049616 0.035250887 0.13933493 0.3830049 -0.015558332 -0.13297205 -0.021660132
-0.295662 -0.22905827 -0.11875219 0.061509527 -0.33437592 0.18028507 -0.24851717 -0.23606221
0.41503435 0.21283486 0.39815402 -0.011117177 0.050822094 0.062738836 -0.3864217 -0.36184362
-0.0064560357 -0.20229357 -0.31373015 -0.15457936 0.46251887 -0.21260265 0.32860956 0.42221504
-0.4011497 -0.049228877 -0.30219057 -0.10054342 0.25002998 0.022988707 -0.08580707 0.010872981
0.26711512 -0.21170758 -0.2656312 0.1914154 0.23293386 -0.34653378 0.08820477 0.28217134
-0.29978955 0.15761879 -0.19923802 -0.261658 0.02907293 -0.006851554 0.40540305 0.26731595
0.3310874 -0.17009194 0.11977694 -0.0915959 -0.05356838 -0.027833581 0.083781146 0.32710016

weight_hh_l0 f4 [32, 8]
00000000: 1c3b 06be 29a8 193e 8b53 10bd 8c6e bf3d
00000010: 74ba 4abe c84a b3bd 7718 253e 0385 3ebe
00000020: 6bcf 2fbd f9f3 a6bd 7d2e adbd d07a 99be
00000030: a85a 723e 23f8 5d3e 5745 0cbe 84a6 883e
00000040: a5c3 1ebe 4ff0 d2bd 3e15 99be a142 9dbe
00000050: ca37 943d def1 993d 4300 943d 2e50 1f3e
00000060: a0bb 5dbe 18ba e53d 5305 d43c d6bc 9cbe
00000070: acf0 a53e 9020 1e3e f04c 9abe 99e8 8a3e
00000080: 9a85 a7be edbf 33be defb 7f3e 9c01 57bd
00000090: 8626 a6bd 9f17 823e b21e 87be 8607 88be
000000a0: 7202 a6be f1d8 453e 7f87 80be ca6b 1bbe
000000b0: 70ce a33d b111 35bc da13 893e 09f3 573e
000000c0: ae54 3cbe 69f2 4d3e 5cdb b4be 5998 1b3e
000000d0: 0086 853c 705f 99be 9140 d23b 849b 32bd
000000e0: e09e abbe 8259 98be cebf 04be e845 c93c
000000f0: 195b 833e 1e99 73be 30d8 67be 6812 063d
00000100: dc1e 6bbe 8a62 e7bd 8156 2d3e 7353 6c3e
00000110: 6d78 583e dbf3 5abe e1e5 81bd b844 873d
00000120: 5f1f dcbc 703c 363d 3702 ad3e e8cb 4ebd
00000130: 5861 81be 1d95 82bd 041d 133e 662d 07be
00000140: 58fd 563e 4a69 7b3e 1316 51be 5ca6 95be
00000150: 4c96 a8be 6f9f 95be 2fa4 bc3d 5d17 863e
00000160: 1cff 12bd 24bd 883d 6461 383e 41e5 8b3e
00000170: 21c9 21be 2d59 68be 3c70 18be 7ca1 6e3e
00000180: 55b7 833e 76e2 98bd 31df 443e c4db bb3d
00000190: c6ef dfbd d532 05be 977d 0ebe 1725 43be
000001a0: 79cf 8bbe 3a95 3e3d c39e 403e f1f8 ae3d
000001b0: 5ba7 24bd a9b9 95be cd06 b03e ad1a 423e
000001c0: 4209 653d 58bc b3bc 6397 9abe c0b1 2ebe
000001d0: 3d38 ab3c 89f1 7fbe d434 a7bd 5bec 84be
000001e0: cdef 943e 74d8 adbd 06cb 15be 59e4 7abe
000001f0: c7e4 5abe a272 9b3d 877e 15be 681f 82be
00000200: 4d1e 8b3e 7dcc 303b 2cb4 a3bd fdd4 163e
00000210: a232 833e 122a 1dbe 4f39 3cbd ad8d 8c3e
00000220: 80d1 4f3e d059 87bd 8718 2f3e 4ed3 743d
00000230: cc57 aa3e a1e7 1bbe e29f 8bbe 2032 8abc
00000240: a8ae b73d 16ba d13d 63d8 433e 1e5e 0e3e
00000250: 78e3 6f3e 4c1e 23bd 4523 003e 76dd a8be
00000260: 7c94 b0be dfb0 853e 3737 a8be 92d2 7fbe
00000270: 76a5 bcbe 8362 0ebe 8a23 283e 9623 923e
00000280: 6099 06be bd98 133e 811e 41bd 4d8a 82be
00000290: 17a4 9b3e e595 483d d429 07be fca4 a83e
000002a0: 32be 8fbe 17b4 933d 3ada 553e 366c 8ebe
000002b0: f278 9dbe 5157 ac3e e537 b03e a7db b53c
000002c0: b9e4 0abe b42b 71be 914c 50be c608 85be
000002d0: ebea 26bd 23c3 f0bd 2315 46be 0876 6bbd
000002e0: 20cb 413e e757 94bc d663 f83d 534f 91bd
000002f0: 616b 83be 92d7 323e 5c1e 433e 916c 26be
00000300: d046 c9bd f66a cbbb f79e 123e d713 6f3e
00000310: 36ff 903e 80a7 4fbe a415 b53e 6ddf 1e3e
00000320: cc8f a0bc 4e46 053e 4921 e73c 36c7 603d
00000330: 3d30 aabe 023b dfbd eac2 60be 3c8f 2dbe
00000340: fcf1 3ebe 10f1 843d 60a4 82be 5e55 bb3e
00000350: dff4 57be fbe8 273e 1c7e e5bd 701c 94bd
00000360: aa30 a0be 632f 743e ce37 2b3d b5fb b73b
00000370: a023 db3b 2eef 3fbd 3735 31bd 2862 a33d
00000380: 0ae3 5fbe 683d c5bd 7d7a aa3e 41b5 e6bd
00000390: 7867 aebe 925c 5b3e c217 563e 6c76 9abe
000003a0: d933 69bd 9c0b bb3d e699 2ebb d06a 87be
000003b0: 5069 eb3d b778 003e c3c5 913d 78dc c13e
000003c0: 47e9 bd3d d23b 9abe 71ee 0dbe c7f5 7c3e
000003d0: fa40 09be 41f5 8c3e 4887 ad3c 2da7 4c3e
000003e0: ee4b 903d 3ffc 223d c5d5 1fbe 42ad 773e
000003f0: f4d8 ffbc 98a8 96be a60d 9ebe 93dd 3dbe
-0.13108486 0.15005554 -0.035235923 0.09347257 -0.19797689 -0.08754498 0.16122614 -0.18605427
-0.04292242 -0.08152003 -0.084561326 -0.2997651 0.23667395 0.21676688 -0.13698326 0.2668954
-0.1550432 -0.102997415 -0.2989902 -0.30714896 0.072372034 0.07516836 0.072266124 0.1555793
-0.21653605 0.11217135 0.025881445 -0.3061282 0.3241018 0.15442109 -0.30136824 0.27130583
-0.32719117 -0.17553683 0.24998423 -0.05249177 -0.081128165 0.25408646 -0.26390606 -0.2656824
-0.3242374 0.19321038 -0.25103375 -0.15177837 0.07998359 -0.011051581 0.26772958 0.21088804
-0.18391678 0.20112003 -0.35323608 0.15194835 0.016299248 -0.29955626 0.0064163883 -0.043605343
-0.3351965 -0.2975579 -0.12963793 0.024569467 0.2565544 -0.23788878 -0.22641063 0.032732397
-0.2296099 -0.11298092 0.1692753 0.23078708 0.21139689 -0.21382086 -0.06342674 0.06604904
-0.026870428 0.04449123 0.33790752 -0.05048743 -0.2526958 -0.06376097 0.14366537 -0.13200912
0.2099508 0.24551883 -0.20418577 -0.29228485 -0.32927167 -0.292232 0.09211003 0.261897
-0.035887823 0.06676701 0.18005902 0.27323344 -0.15799381 -0.22690268 -0.14886564 0.23303789
0.2572581 -0.07465069 0.19225766 0.09172776 -0.10934405 -0.13007672 -0.13915096 -0.19057117
-0.27306727 0.046529032 0.18810563 0.085435756 -0.040198665 -0.2924321 0.3438019 0.18955489
0.055917032 -0.021940395 -0.30193624 -0.17059994 0.02090084 -0.24994482 -0.08164373 -0.25961575
0.29089203 -0.08488551 -0.14628229 -0.2450117 -0.21376334 0.07590224 -0.14599048 -0.25414586
0.27171555 0.0026977353 -0.079933494 0.14729686 0.25624567 -0.1534808 -0.04595309 0.2745184
0.20294762 -0.06608927 0.170992 0.05977183 0.3327011 -0.15225078 -0.27270418 -0.016869605
0.0896886 0.10240571 0.19125514 0.1390309 0.23426616 -0.039823815 0.12513454 -0.3298146
-0.34488285 0.26111504 -0.32854626 -0.2498267 -0.36844987 -0.13904767 0.16419807 0.28542775
-0.13144445 0.14413734 -0.04714823 -0.2549614 0.30398628 0.048971076 -0.1319955 0.32938373
-0.28074795 0.07212084 0.20884028 -0.27816933 -0.30756336 0.33660367 0.34417644 0.022199465
-0.13563813 -0.23551828 -0.20341708 -0.25983256 -0.04075138 -0.117559694 -0.19344 -0.05748561
0.18925142 -0.018108321 0.12128417 -0.07095208 -0.2566786 0.17465046 0.1905455 -0.16252352
-0.098279595 -0.006207819 0.14318453 0.23347412 0.2831971 -0.2027874 0.35368073 0.15514918
-0.019599818 0.130151 0.028214114 0.054877482 -0.33239928 -0.10899927 -0.21949354 -0.16949171
-0.18646997 0.064912915 -0.25516033 0.36588567 -0.21089505 0.16397469 -0.11205694 -0.072319865
-0.31287128 0.23846202 0.041801266 0.0056147226 0.0066875964 -0.04685896 -0.04326364 0.07977706
-0.21863952 -0.09630853 0.33296576 -0.1126504 -0.34063315 0.21422032 0.209075 -0.30168474
-0.05693421 0.09133074 -0.0026642024 -0.2644868 0.11494696 0.12546049 0.07117798 0.37863517
0.0927301 -0.30123764 -0.1386049 0.24703132 -0.13403693 0.27530864 0.021182671 0.19985647
0.070457324 0.039791342 -0.1560889 0.24187186 -0.031231381 -0.29425502 -0.30869788 -0.18541555

bias_ih_l0 f4 [32]
00000000: 0b78 8fbd 7b18 3cbe d566 06bb 4605 c03e
00000010: 836c 8a3e 2d2b 4cbe f759 29be 99a9 c23c
00000020: d40e ed3d f412 6c3e 9940 1e3e cb7e 123e
00000030: fa4f 5fbd 210b b13e 1b07 a63c eed8 ff3d
00000040: 8ade 3e3d 9c21 5a3e 2caa 26be 78c4 95be
00000050: 4ad8 37be bf36 c83d fa0b 2cbe 070f 453e
00000060: 90ba 73be c988 44be 99a7 70be a5ae 88bd
00000070: 12a6 a63e 6406 123e c20d 9fbe cf8f 153e
-0.07005318 -0.18368714 -0.002050807 0.37504023 0.27035913 -0.19938345 -0.16538225 0.023762511
0.11575094 0.23054105 0.1545433 0.1430618 -0.05451963 0.34578803 0.02026706 0.12492548
0.04659895 0.21301883 -0.16275853 -0.29251456 -0.17953601 0.09776067 -0.16801444 0.19244014
-0.23801637 -0.19192804 -0.23501433 -0.06673936 0.32548577 0.1426025 -0.31065184 0.1460564

bias_hh_l0 f4 [32]
00000000: 75ea 253d 799b 2bbe 98b2 41be 1ec3 05bd
00000010: 029a 6cbe b19e 7c3e 3272 603e 9a15 a03e
00000020: e45a 02be c417 76be 3309 90be c364 ac3e
00000030: 5812 15be d0ce 0d3e c24c 9abe fd74 b03e
00000040: c799 91be 1bed 8f3e 09bc aebe 4a9f 0c3a
00000050: e1cc 343e e7f9 40be 1574 803d f5f2 b6bc
00000060: d10c 9bbc 96ad a5be 5544 89be cbab da3d
00000070: 53aa 973e 3e9a 0bbe b152 023e 5ae7 863e
0.0405068 -0.16758527 -0.18915784 -0.03265678 -0.23105624 0.24669911 0.21918562 0.3126648
-0.12729985 -0.24032503 -0.28132018 0.33670625 -0.14557779 0.13848424 -0.30136687 0.34464255
-0.28437635 0.28110585 -0.34127834 0.0005364312 0.1765628 -0.1884533 0.06272141 -0.022332648
-0.01892701 -0.32358998 -0.26809946 0.10677298 0.29622135 -0.13633057 0.12726857 0.26348382

weight_ih_l0 f4 [32, 3]
00000000: e64f 593e e713 a83e ce77 4a3e a693 a5be
00000010: 209c 99bd 3709 a23e a88f a9bd 9422 873d
00000020: 9a4b 7c3e a981 b3be 88e4 d53d 3321 31be
00000030: 0760 8f3e 00cf 83be 4e8f 743e d835 a6bd
00000040: 70e8 d63c 78b4 f0bd 6ea6 f1bd 1643 4c3e
00000050: 1838 90bd 7696 9abe 8cc3 82bd 20bd 4ebd
00000060: e06a 86be 17a1 adbe 99b2 8e3e 0be2 3dbe
00000070: a083 bf3c 3ef7 6abe f9e6 9a3e 7964 8b3e
00000080: 4898 683d 400a 48bc 9a1a 6d3e 9214 9cbe
00000090: 802b 7c3d 884c ccbd 1090 f2bc 50d8 443d
000000a0: b0fd 7fbd 549c c6bd 066a 5c3e c0cc 493c
000000b0: 105f e03c 888d b43d 52c3 a3be 7cd2 d03d
000000c0: 5f08 a43e 0708 8b3e d404 b03d 2a39 1f3e
000000d0: 3e5b a2be 7086 113d 7744 afbe ab3d 823e
000000e0: 6e99 79be 9c38 cc3d 5a51 273e c787 7cbe
000000f0: 2a87 653e 8f1b 36be fa8f 49be 1084 1abe
00000100: a2bf 7b3e 2374 ae3e 8e43 6f3e be96 5c3e
00000110: 4d8e 9a3e 7b07 52be a01c 52bd 502e 913c
00000120: 6286 1c3e 80aa f8bd 2066 243c 0014 ce3c
00000130: 5169 22be cb8e af3e ea3f 283e 3629 80be
00000140: 86d4 f9bd 166f 233e e0cc 7cbd aa79 40be
00000150: 7eca e9bd c9a0 a13e e6a4 9fbe 0070 b7ba
00000160: b2bd 6a3e cc39 85bd fa9f 463e 9914 b13e
00000170: 3ef1 9cbe 2092 a93d 0074 cdb9 0d36 17be
0.21221885 0.32827684 0.19772264 -0.3233921 -0.075004816 0.31647655 -0.082793534 0.06598392
0.24638215 -0.3505986 0.104439795 -0.17297821 0.2800295 -0.25743866 0.23882791 -0.08115739
0.026233882 -0.11753172 -0.11799322 0.19947466 -0.07041949 -0.30192918 -0.06384954 -0.050473332
-0.26253414 -0.33911964 0.27870634 -0.1854326 0.023378193 -0.22945878 0.30254343 0.27225092
0.05678585 -0.012209475 0.23154679 -0.30484444 0.061564922 -0.09975535 -0.02960971 0.048057854
-0.062497795 -0.09697786 0.2152482 0.012316883 0.02738908 0.088160574 -0.31984955 0.10196397
0.32037637 0.27154562 0.08594671 0.1554915 -0.31710237 0.0355286 -0.34231922 0.25437674
-0.24374935 0.09971735 0.16339627 -0.2466117 0.22414842 -0.1778395 -0.19683829 -0.1508944
0.24584821 0.3407298 0.23365614 0.21541879 0.30186692 -0.20510666 -0.05129683 0.017722279
0.15285638 -0.12141895 0.010034114 0.025156021 -0.15860488 0.3428863 0.16430631 -0.2503144
-0.12198739 0.15960345 -0.06171882 -0.18796411 -0.114155754 0.31567982 -0.31180495 -0.0013995171
0.22923926 -0.065051645 0.19396964 0.34586027 -0.30652803 0.08279824 -0.00039187074 -0.14766712

weight_hh_l0 f4 [32, 8]
00000000: dfde 963e 86b4 5c3e 803d 0e3c ce2d 9dbe
00000010: ee70 753e 3bee 9d3e ff40 843e ecea 9bbd
00000020: 01db 963e ee19 5e3e 0296 4f3e b9cc afbe
00000030: 6faf 983e 5720 8c3e 043e 043e 0f92 1ebe
00000040: 8ce5 93be 58af 0f3d b87f 5ebd a7d1 973e
00000050: 5022 a0bc a640 573e 228f 193e 4055 063e
00000060: 7087 2a3d 3faf 0ebe 2c1d b43d cdde 9f3e
00000070: a66b 293e 2098 3bbd 4c98 08be a0c2 f8bc
00000080: 7eb0 28be d807 1abe 46ec e5bd 9d68 49be
00000090: a8d7 9ebd c605 723e 2491 803d 400e 2c3c
000000a0: 18f6 d63d 2d5f 9ebe e2cf 043e c1ac b2be
000000b0: c518 8c3e f04c 6cbd d098 78bd c8d6 db3d
000000c0: 6826 7abd 7eb4 5c3e 6103 a53e ec39 a4be
000000d0: 4485 9fbe 0024 bcb9 30bb 3a3d cbcb 1bbe
000000e0: 2002 583d 16be 563e 979b 8c3e d34e 9c3e
000000f0: 405f 71bc 45cd 903e f7dd 5fbe 00a0 be38
00000100: 6717 843e 46a1 533e 88b7 ad3d 595d 5dbe
00000110: 280f 98be c888 f0bd 129e 40be ae67 323e
00000120: 62ab 89be 9cfc 36be be1e 25be 4085 86bd
00000130: 5a33 ecbd 84a1 a43d 7005 d43c a8e4 993d
00000140: 9c77 05be 80da 323d 9aa7 7f3e 3027 74bd
00000150: 547e b8bd d037 333d 2ee9 5a3e 99a9 a03e
00000160: 7bef acbe 11af b33e e96e b3be bb1a 923e
00000170: bd6d 0abe 6e87 093e 608f 56bc 103e 8d3d
00000180: 42c0 94be 5e8b 203e 589e c23d 5141 903e
00000190: 0c5a e83d 3474 023e c056 6cbd 7ee6 5b3e
000001a0: 5cf3 ab3d e2b0 413e e18e 48be 8e91 3e3e
000001b0: 16a0 703e b034 3abe 1e54 763e de47 2d3e
000001c0: 8d25 98be a0c0 7a3d 5dbb 80be 4632 1a3e
000001d0: 52db 8bbe f03e 2bbd b3eb a2be 2377 973e
000001e0: b7c2 9f3e a8ab 31bd f609 193e 9337 a4be
000001f0: 401d 2cbd 0827 86bd 2c1e 0b3e a080 3e3d
00000200: d60f 6a3e ce98 5a3e 46ea 72be 6e9a 483e
00000210: d2ef 2b3e 3883 5a3d 9850 6fbe 85ef a63e
00000220: f5b7 973e 40e1 bebd dbd1 0fbe e21b 503e
00000230: dced a0bd ced9 293e 2966 8e3e 83d6 af3e
00000240: 99c3 a03e c08f c8bb fcf2 c1bd 3aab 693e
00000250: be65 673e d0a5 97be 1fe5 a5be fce8 edbd
00000260: e482 78be ee0f 263e 204a 20bd ecd0 d4bd
00000270: c067 b03b be1e 90be 98a4 d1bd 3b5f 2ebe
00000280: feb7 073e 9ea2 7a3e e64d 6cbe 5851 1dbd
00000290: e006 50be c27c 7f3e 866f 6abe 30ad 86bc
000002a0: 1089 25be 25ca 8b3e 78c9 64bd e6b7 723e
000002b0: d539 893e 085d 6d3d bf68 953e b333 a73e
000002c0: c0ba 11bc 5421 c1bd 6a4f e0bd 485a aa3d
000002d0: 051a a4be 9e3c 333e 5816 a2bd 9139 04be
000002e0: 8011 98bb 1de4 b33e 2230 8dbe 8040 243c
000002f0: 22e8 7f3e aed2 463e 78b1 9bbd 9293 3f3e
00000300: 8cf2 b23d f417 a0bd 99a1 99be e668 19be
00000310: f0dd a93c 8aa8 543e 1c3e ad3d 942b 2cbe
00000320: fcf4 ecbd 21b9 1ebe a3b9 8abe ae50 103e
00000330: f1f3 9c3e 6a06 793e 103f fc3d da29 063e
00000340: d4d6 da3d 4127 a63e be5d d6bd 66a5 debd
00000350: b553 8f3e ae92 6a3e dedb 84be fd1b b43e
00000360: 7c21 a4bd 4841 75bd 8a24 8cbe f4e1 96bd
00000370: 8871 1bbd 6ca4 16be d05d d03c 88ff 05bd
00000380: fcfe c1bd 0487 ce3d 1f75 16be de32 b1be
00000390: 06fd 543e 3a6f 663e a26b 2e3e d5db a13e
000003a0: 57db a2be 9a65 11be 3848 463d 9003 c9bd
000003b0: a693 0a3e c4a2 b8bd a474 b4be 6d26 a1be
000003c0: c0ac a7bc 7e43 7b3e 94f5 58be 22ab 4f3e
000003d0: aa87 0d3e 8010 98bc bae1 9fbe c7ea 0cbe
000003e0: 209d 173c f2d8 4a3e ca58 86be e859 41be
000003f0: bc4d 9cbd 0f7e 843e 7a58 b3be 50f4 f43d
0.29466912 0.21553239 0.008681655 -0.3069901 0.2396886 0.30845818 0.25830838 -0.07613167
0.29463962 0.21689579 0.20272067 -0.34335878 0.29821345 0.27368423 0.12914282 -0.15485404
-0.28886068 0.03507933 -0.05432102 0.2965214 -0.019547611 0.21020755 0.14996007 0.13118458
0.04163307 -0.13934039 0.087946266 0.3122467 0.16544971 -0.045799375 -0.13339347 -0.030366242
-0.16473576 -0.15042055 -0.11226706 -0.19668813 -0.07755977 0.23635015 0.062776834 0.010501444
0.104961574 -0.30931988 0.12969926 -0.34897426 0.27362648 -0.05769056 -0.06069261 0.10734326
-0.061071783 0.21553227 0.3222914 -0.3207544 -0.3115636 -0.00035884976 0.045588672 -0.1521446
0.0527364 0.2097095 0.27462456 0.30528888 -0.014732182 0.28281608 -0.21862017 9.089708e-05
0.25799105 0.2066699 0.084822714 -0.2161764 -0.29699063 -0.11744839 -0.18810299 0.17422363
-0.26888567 -0.178698 -0.16125008 -0.06568384 -0.11533232 0.08038619 0.025881499 0.07514316
-0.13033909 0.04366541 0.24966279 -0.059607685 -0.0900847 0.0437544 0.21378013 0.31379393
-0.3377646 0.35094503 -0.35045555 0.2853602 -0.13518424 0.13430569 -0.013095707 0.06896603
-0.2905293 0.15678164 0.09502858 0.28174832 0.113453 0.1273964 -0.05769992 0.21474645
0.083960265 0.18915132 -0.19585754 0.18610212 0.23498568 -0.18184161 0.24055526 0.16921946
-0.2971615 0.061218858 -0.25142947 0.1505824 -0.27315766 -0.04180807 -0.3182045 0.29583082
0.31203243 -0.043376595 0.14945206 -0.3207365 -0.042020082 -0.06550413 0.13585728 0.046509385
0.22857603 0.21347353 -0.2372218 0.1959016 0.16790703 0.053347796 -0.23370588 0.32604614
0.29632536 -0.09320307 -0.14044897 0.20323136 -0.07857868 0.16586992 0.27812317 0.34343347
0.3139923 -0.006120652 -0.09470174 0.22819224 0.22597405 -0.29618692 -0.32401368 -0.11616704
-0.24268681 0.16217014 -0.03913319 -0.10391411 0.0053834617 -0.28148454 -0.10236472 -0.17028515
0.13253781 0.24476096 -0.23076591 -0.038407654 -0.20315123 0.24949935 -0.22894105 -0.016440004
-0.16165566 0.27302662 -0.055856198 0.23702964 0.26801935 0.05795005 0.29181477 0.3265663
-0.008894622 -0.09430185 -0.10952647 0.08318001 -0.320511 0.17503592 -0.07914418 -0.12912585
-0.004640758 0.35134974 -0.27575785 0.010025144 0.24990895 0.19416305 -0.07602209 0.18708637
0.087376684 -0.07817069 -0.30006102 -0.14981422 0.02073571 0.20767418 0.08459112 -0.16813499
-0.115701646 -0.15500309 -0.27094755 0.14093277 0.30654863 0.24318853 0.12316716 0.13101903
0.106855065 0.32451823 -0.10467099 -0.10871391 0.2799355 0.22907516 -0.25948995 0.35177603
-0.08014199 -0.05987671 -0.27371627 -0.07367316 -0.03795007 -0.1471116 0.025435358 -0.032714397
-0.094724625 0.10084346 -0.14693116 -0.3460912 0.20799646 0.22503367 0.17033246 0.3161303
-0.31807968 -0.14198914 0.048408717 -0.098151326 0.13532886 -0.0901542 -0.3524524 -0.3147463
-0.020468116 0.24537465 -0.2118743 0.20280126 0.13821283 -0.018562555 -0.31226903 -0.13761435
0.00925377 0.1980932 -0.26239616 -0.18881953 -0.07632014 0.25877425 -0.3502844 0.119606614

bias_ih_l0 f4 [32]
00000000: 2225 90be ee3c 143e 0000 633a 39b2 9cbe
00000010: 5311 a1be c2e0 7f3e 90ad 8ebd c4a3 9abd
00000020: 038b 893e 36f3 113e bcbe b73d 0ca9 a6bd
00000030: 86ef 2d3e b181 afbe 8670 613e 48ab 5fbd
00000040: 3895 01be f03a f33d 3faa 933e bf11 b13e
00000050: 24be 873d 301b 40be 767c 4f3e 7cb8 6fbe
00000060: c107 9bbe b065 e73c 76b2 92be 2094 013c
00000070: bc8a 18be 56a7 103e bd9a 9c3e c424 983d
-0.2815333 0.14476368 0.0008659363 -0.30604723 -0.3145853 0.24988082 -0.06966698 -0.07550767
0.2686387 0.14252934 0.089719266 -0.08137712 0.16985902 -0.34278634 0.2201558 -0.054606706
-0.12654579 0.11876476 0.28840825 0.34583852 0.06628063 -0.18760371 0.20262322 -0.23410219
-0.30279353 0.02824673 -0.2865178 0.007908851 -0.14896673 0.14126334 0.30586806 0.074288875

bias_hh_l0 f4 [32]
00000000: c0dd 7a3c c01b 103c 2eb7 523e a2dd 623e
00000010: c012 5bbe 5c9c f8bd b61a 353e 0010 b8b9
00000020: fc67 863d 026f 7ebe dabe 5b3e e6cb 29be
00000030: f460 b0be 8d40 ae3e 9ef4 083e 50ab dc3c
00000040: 2d4b a33e ead9 a1be 4cee 983d b0f0 953d
00000050: 7240 403e 40a5 39bd 1ae8 463e 7003 cfbd
00000060: 4031 21bd f6e2 90be e0cb 0ebd 107b d13d
00000070: baa1 6cbe 9c9d d1bd e8a5 2dbd 2b30 b03e
0.015311658 0.008795679 0.2057769 0.22154859 -0.21393871 -0.12139198 0.1768597 -0.00035107136
0.06562802 -0.24847034 0.21459523 -0.16581687 -0.3444897 0.34033623 0.13374564 0.026937157
0.31893292 -0.31611568 0.074673265 0.07321298 0.18774584 -0.04532361 0.19424477 -0.101080775
-0.03935361 -0.28298157 -0.0348624 0.102285504 -0.23108569 -0.1023514 -0.04239455 0.3441175

weight f4 [4, 16]
00000000: c569 3b3d 6afe 92bd 4faa 03bd 52b6 5abe
00000010: 5029 473e 353f b5bd 52fd 50be 68a6 d63e
00000020: 0609 5bbd 02a1 03be 6c83 323e 82e3 70be
00000030: 041d c23e 014a a3be a4fe 9c3d 357f 553e
00000040: d575 63be 3d8a 313e 88a3 4bbe 270c 003e
00000050: ed32 63be 914d b13c 6914 3c3a c6d2 2c3e
00000060: 397d 323d 197b 42be 2a4e 773e 598e b7bc
00000070: 1784 a53b 3a04 16be 7d3c 1b3e 127e 213e
00000080: a40e b03e 6891 343e e2e9 d8bd f5fc 31be
00000090: 93b4 c63d c5c6 4cbe 8a8a 85be 4aad 3dbc
000000a0: bf84 cb3e e51b 9d3d 8a4d cdbd e369 83bd
000000b0: 2df0 58ba b945 3dbe 23c3 cfbc 61b0 cb3e
000000c0: 791f 8c3e 9b40 163e 13a7 e43d 1cb7 52be
000000d0: 002d 263e 4ef8 6dbd b49a adbd ece7 6d3e
000000e0: 9b7c 02be b247 7d3e 6dea ccbd 144c 5bbe
000000f0: cf4f 213e 4b10 8fbe 14a0 12be 6ccd c03e
0.045755167 -0.07177432 -0.03214484 -0.21358612 0.19449353 -0.088499464 -0.20409134 0.41923833
-0.053475402 -0.12854388 0.17432946 -0.23524287 0.37912762 -0.31892398 0.07665756 0.20849307
-0.22212918 0.1733789 -0.19886601 0.12504636 -0.22187395 0.021643432 0.0007174672 0.16877279
0.043576453 -0.1899227 0.24150911 -0.022406744 0.0050511467 -0.1465005 0.15159793 0.15770748
0.3438617 0.17633593 -0.105914846 -0.17381652 0.097024105 -0.199977 -0.2608226 -0.01157696
0.39749715 0.07671336 -0.10024555 -0.06416681 -0.0008275535 -0.18483628 -0.025361603 0.39783004
0.27367762 0.14673083 0.111646794 -0.20577663 0.16228104 -0.05809813 -0.08476773 0.23233002
-0.12742846 0.24734381 -0.10005651 -0.2141574 0.15753101 -0.27942118 -0.14318877 0.37656724

bias f4 [4]
00000000: c225 593b 2136 e9bd b71e 8e3d 8367 e0bd
0.0033134078 -0.113872774 0.06939452 -0.10957243

weight f4 [3, 16]
00000000: 5bcc f43d 21d0 1cbe c28b d7bb 6cef 123d
00000010: 22e5 1d3e b5ae 85be d001 47be 003c 643e
00000020: 6ea1 4b3e 8ddf 823e d878 6b3d 9617 c6be
00000030: cdae 5e3e bfec 1a3d 6acc 303e d5b3 cd3e
00000040: 57ec 4f3e d21b cbbc 9ad9 ce3d 9fb4 aabd
00000050: f49a 833e 8046 c1be 1f4f 553e 0357 a13d
00000060: 38e3 863e c14c e1bd 6e52 0f3c 2655 bbbe
00000070: 56af 913e 0484 b7be 295a e6bd 6487 96bd
00000080: f8ca 873e 281d 8a3e b562 2f3e ce49 bebe
00000090: a243 01be a2fd 94be d9a7 0dbe f8f9 803e
000000a0: eb00 0b3e 40c0 8e3e b06c 02be f048 843d
000000b0: 0aa8 013e e040 6bbe 7153 eebc 22a5 ef3d
0.1195304 -0.1531377 -0.0065779397 0.03587286 0.15419438 -0.26109853 -0.19434285 0.22288513
0.198858 0.2556118 0.057488292 -0.3868987 0.21746369 0.037823435 0.17265478 0.40176263
0.20305 -0.02479354 0.10100098 -0.08335232 0.25704157 -0.377491 0.20830964 0.07877924
0.2634523 -0.11000968 0.00874768 -0.365884 0.28454083 -0.35842907 -0.112476654 -0.073500425
0.2652204 0.2697537 0.17127497 -0.37165684 -0.12623456 -0.29099756 -0.1383356 0.2519071
0.13574569 0.2788105 -0.12736773 0.06459224 0.12661758 -0.22973967 -0.029092522 0.117014185

bias f4 [3]
00000000: afd1 a33d d581 363d 497e a7bd
0.07998978 0.04455741 -0.08178384
