model/MLSTM_10_32_0.01.pt (torch, 10785 bytes, 12 tensors)

weight_ih_l0 f4 [32, 4]
0.27466378 0.04118219 0.34821835 0.050104722 0.29411867 0.15603104 0.02128205 0.23164476
0.13798258 -0.11365365 0.16025947 0.3235829 0.09204038 0.10686616 0.35190907 0.14198911
-0.18758273 0.009571381 0.31562114 0.08155259 0.22029102 0.14611068 -0.07847536 -0.3082014
-0.10789176 -0.26006454 -0.21216412 -0.08626726 0.19053987 -0.13788341 -0.09420331 0.22753984
-0.06830404 0.0061515854 0.07018226 0.19244234 -0.27758145 -0.2891994 0.23637925 0.23577423
0.11237966 -0.23153952 0.033329684 -0.07167274 0.28686365 -0.09875777 -0.0865075 -0.26213616
0.05563161 0.3278639 -0.17276321 -0.19050026 -0.29840732 -0.3467971 -0.21119769 0.0022015406
-0.27888736 -0.27331355 0.051330943 -0.16698442 0.053754773 -0.30061767 -0.19738637 0.2813474
-0.24679498 -0.037504837 -0.33498833 0.18157633 -0.08697139 0.18788926 -0.30591485 -0.25255263
0.03155278 0.2919509 0.18769066 -0.13890523 0.19120942 0.27043536 -0.20088992 -0.06980285
-0.092099994 -0.13070543 0.1844516 0.094381414 0.23798172 0.28452697 0.019691555 -0.044537123
0.113386326 -0.037517987 0.13330597 0.09887996 -0.27893096 -0.28735337 -0.037631825 0.110425755
0.044015273 0.060985476 0.11061242 0.28783607 -0.36312222 -0.14558166 0.25105757 0.33126947
-0.17320089 0.1415378 0.25962546 0.17292869 -0.25429118 0.10479936 -0.2203234 0.20919499
-0.13327564 -0.2839504 0.18262841 -0.023579264 0.20442167 0.2320581 0.25277096 -0.11426558
0.28683317 0.25787634 -0.18774803 0.14101733 -0.30008817 0.14368387 0.12546371 0.10367336
00000000: bba0 8c3e a8ae 283d ad49 b23e 9c3a 4d3d
00000010: b996 963e 9ac6 1f3e b257 ae3c 4934 6d3e
00000020: 4e4b 0d3e 3fc3 e8bd 0f1b 243e a8ac a53e
00000030: ab7f bc3d a5dc da3d 6d2d b43e 9865 113e
00000040: b015 40be 48d1 1c3c 1899 a13e 0b05 a73d
00000050: f893 613e 0a9e 153e b1b7 a0bd 93cc 9dbe
00000060: 5bf6 dcbd 2e27 85be 8d41 59be e4ac b0bd
00000070: e21c 433e 4f31 0dbe aaed c0bd 3400 693e
00000080: fde2 8bbd 3d93 c93b b7bb 8f3d 9b0f 453e
00000090: 281f 8ebe f211 94be 670d 723e cd6e 713e
000000a0: 4f27 e63d b218 6dbe b584 083d 28c9 92bd
000000b0: cbdf 923e 8441 cabd d82a b1bd b636 86be
000000c0: f9dd 633d c7dd a73e d7e8 30be 8012 43be
000000d0: d8c8 98be 648f b1be 3544 58be b947 103b
000000e0: 53ca 8ebe c1ef 8bbe 6540 523d f7fd 2abe
000000f0: f72d 5c3d 8fea 99be a71f 4abe c40c 903e
00000100: d3b7 7cbe ac9e 19bd 9783 abbe 25ef 393e
00000110: 0e1e b2bd 0b66 403e dfa0 9cbe 944e 81be
00000120: 7d3d 013d 977a 953e fb31 403e 2c3d 0ebe
00000130: 67cc 433e 8176 8a3e 16b6 4dbe ccf4 8ebd
00000140: ec9e bcbd a5d7 05be e1e0 3c3e 0b4b c13d
00000150: 7bb1 733e 85ad 913e 2f50 a13c 8f6c 36bd
00000160: 1737 e83d 76ac 19bd 5c81 083e 9481 ca3d
00000170: 0ad0 8ebe fb1f 93be d423 1abd e626 e23d
00000180: 5c49 343d e8cb 793d c488 e23d 405f 933e
00000190: 28eb b9be 5c13 15be 9e8a 803e 279c a93e
000001a0: 935b 31be 49ef 103e a1ed 843e 3814 313e
000001b0: 7432 82be 0ca1 d63d 759c 61be 3637 563e
000001c0: 6979 08be f261 91be f102 3b3e 4d29 c1bc
000001d0: ea53 513e a3a0 6d3e 326b 813e 1304 eabd
000001e0: ccdb 923e 5e08 843e 0541 40be d966 103e
000001f0: 28a5 99be dd21 133e 8f79 003e b352 d43d

weight_hh_l0 f4 [32, 8]
0.2448427 -0.22705321 0.04570425 0.2863878 -0.21706657 -0.34186566 -0.17689948 -0.117238976
-0.14295602 0.12746102 -0.07637845 0.22782461 -0.27263883 0.34445342 0.26862982 0.16508086
0.11470441 0.1564524 0.038106404 -0.110847145 0.2817739 -0.09730571 0.18929087 0.31429136
-0.0006425606 0.10169472 -0.18984522 -0.17321257 0.278472 0.29047585 0.13478205 -0.22299515
0.17388749 0.32926467 -0.0043321005 -0.19566116 -0.34179366 0.025219303 0.3269014 -0.11786794
-0.19148259 -0.15743785 -0.060202233 0.2299057 0.31122276 -0.17365295 -0.3424345 -0.32089004
-0.33666396 -0.1274269 0.22148615 0.27144128 -0.3079684 -0.15956439 0.27739003 -0.2230761
-0.30203074 0.2287017 0.3454389 0.112770535 0.12911008 0.10489096 0.19842085 0.025594
-0.31469864 0.104416125 -0.17954375 0.019511634 0.33593935 0.100031905 -0.19748715 -0.05276521
0.34974682 0.1392786 0.34333873 0.18108858 -0.3201832 0.20228319 -0.24534886 0.24574967
-0.04189837 -0.28435785 -0.07716601 -0.23098363 -0.08439789 -0.2662449 0.09767469 -0.19306435
-0.21631546 0.29752564 -0.1239019 -0.34863105 -0.056478262 0.08497528 0.18321614 0.16033855
-0.050846428 -0.17765474 0.33186486 0.09923081 -0.19300205 -0.13528293 0.2457873 0.021629687
0.25141978 0.30447373 0.03628555 -0.25834024 0.33460826 0.18587089 -0.21609677 0.098454975
0.18671495 -0.18797325 -0.0036618246 0.2421598 0.110919416 0.09784595 0.119796775 0.06989362
-0.07322154 0.20616561 0.32790133 -0.33153522 -0.18590182 0.10983284 -0.24817383 -0.06093374
-0.23609889 -0.109831356 -0.30101663 -0.097072475 -0.13565323 0.07814342 -0.33037284 -0.11490864
-0.18428358 0.2545462 -0.048154462 -0.19822879 -0.13591342 0.1486502 0.04548502 -0.3087976
0.22436693 -0.3476845 -0.1386963 -0.30431277 -0.033210002 0.014709008 -0.2236073 0.109577276
0.25558007 0.19952312 -0.3085902 0.03498448 0.189472 -0.10698623 0.08283162 -0.15563391
-0.042768493 -0.2088884 0.3024526 -0.3273179 0.20061348 0.0053343447 -0.27125144 -0.26051778
0.10803297 0.13384189 0.2266455 -0.18267272 -0.1949188 -0.25799176 -0.042795654 0.1940652
-0.16912343 -0.0763799 0.30040494 0.23743656 -0.04031685 -0.008217945 0.2976469 0.2664236
-0.28078377 0.028276158 -0.2527504 0.08250649 0.2779781 0.22260706 -0.33749375 -0.2862951
0.14605598 -0.21585478 -0.18482341 -0.16618775 -0.101501755 -0.23403195 0.008709371 0.35485068
-0.10166464 0.060686212 -0.0046939016 -0.23695947 -0.31336543 -0.3114985 0.27325666 0.17902875
0.2029244 -0.10380446 -0.08446803 -0.07696112 0.031173572 0.2777773 -0.2945788 0.07078082
0.29030988 0.32388508 0.22138396 -0.1966534 0.16738942 -0.15072782 0.04447672 0.08243353
-0.32875288 -0.022603411 0.15404682 -0.10116447 0.12860768 -0.2887265 -0.22076903 -0.041975364
-0.3012597 0.34891492 -0.003301807 0.25719807 0.21648428 -0.16387819 -0.18031275 0.2834277
-0.0035578904 -0.34468392 -0.012845606 -0.13995273 -0.012058287 0.010652108 0.1432618 -0.16964838
-0.120323166 -0.2639254 -0.15890147 -0.05069772 0.19306983 -0.0033200658 -0.13760947 0.217885
00000000: 0bb8 7a3e a380 68be 6134 3b3d 6ca1 923e
00000010: b346 5ebe 0409 afbe 2325 35be fd1a f0bd
00000020: 1063 12be 2485 023e 4e6c 9cbd db4a 693e
00000030: 5197 8bbe 335c b03e d989 893e f50a 293e
00000040: 25ea ea3d 0f35 203e 7615 1c3d d403 e3bd
00000050: ab44 903e 3748 c7bd 77d5 413e ccea a03e
00000060: 8371 28ba 5245 d03d c966 42be a35e 31be
00000070: e293 8e3e 40b9 943e 4e04 0a3e d758 64be
00000080: 900f 323e 6195 a83e 4bf4 8dbb 665b 48be
00000090: 94ff aebe b698 ce3c 9f5f a73e bf64 f1bd
000000a0: 0314 44be 6337 21be 9e96 76bd 666c 6b3e
000000b0: 9758 9f3e 14d2 31be 9353 afbe b34b a4be
000000c0: 385f acbe 337c 02be 44cd 623e 5afa 8a3e
000000d0: 09ae 9dbe d964 23be 1106 8e3e 106e 64be
000000e0: c6a3 9abe c730 6a3e 5edd b03e 3df4 e63d
000000f0: 6f35 043e 12d1 d63d d62e 4b3e 82aa d13c
00000100: 2e20 a1be 1fd8 d53d 51da 37be ddd6 9f3c
00000110: 3e00 ac3e 87dd cc3d 123a 4abe 5520 58bd
00000120: 0412 b33e 0d9f 0e3e 18ca af3e 496f 393e
00000130: 0def a3be 5323 4f3e bb3c 7bbe cda5 7b3e
00000140: a09d 2bbd 5a97 91be 3709 9ebd f986 6cbe
00000150: cdd8 acbd 4051 88be ab09 c83d a9b2 45be
00000160: cd81 5dbe 4855 983e 48c0 fdbd c57f b2be
00000170: c055 67bd 8507 ae3d 039d 3b3e ca2f 243e
00000180: 5844 50bd 20eb 35be 31ea a93e 8639 cb3d
00000190: 54a2 45be 9c87 0abe aaaf 7b3e be30 b13c
000001a0: 18ba 803e fbe3 9b3e 28a0 143d 2c45 84be
000001b0: c651 ab3e f054 3e3e 7948 5dbe c3a2 c93d
000001c0: 3432 3f3e 0f7c 40be 39fb 6fbb bdf8 773e
000001d0: b829 e33d 7563 c83d 0358 f53d 6324 8f3d
000001e0: 2df5 95bd 141d 533e afe2 a73e fcbe a9be
000001f0: 0c5d 3ebe 0af0 e03d 4821 7ebe a895 79bd
00000200: e8c3 71be 43ef e0bd da1e 9abe efcd c6bd
00000210: aee8 0abe a809 a03d a126 a9be 3955 ebbd
00000220: d6b4 3cbe e153 823e 9d3d 45bd 7dfc 4abe
00000230: e32c 0bbe c237 183e 804e 3a3d b81a 9ebe
00000240: 72c0 653e b403 b2be 6706 0ebe e2ce 9bbe
00000250: 3607 08bd 0dfe 703c 50f9 64be 0d6a e03d
00000260: 64db 823e ca4f 4c3e 89ff 9dbe e34b 0f3d
00000270: f304 423e 991b dbbd a0a3 a93d 7f5e 1fbe
00000280: 042e 2fbd d7e6 55be 11db 9a3e 3696 a7be
00000290: 9f6d 4d3e bacb ae3b 78e1 8abe 9662 85be
000002a0: 6440 dd3d d90d 093e c215 683e 8f0e 3bbe
000002b0: cb98 47be 7f17 84be 7f4a 2fbd 07b9 463e
000002c0: b12e 2dbe 116d 9cbd adce 993e 9222 733e
000002d0: 4823 25bd 8fa4 06bc 2d65 983e ad68 883e
000002e0: e4c2 8fbe 67a3 e73c 8068 81be 2af9 a83d
000002f0: 2553 8e3e 1bf3 633e fbcb acbe 4595 92be
00000300: b38f 153e 0909 5dbe 5942 3dbe 1f2d 2abe
00000310: 27e0 cfbd 12a6 6fbe c0b1 0e3c fdae b53e
00000320: 8d35 d0bd 1b92 783d 4dcf 99bb 81a5 72be
00000330: 6f71 a0be bb7c 9fbe 4ce8 8b3e 5053 373e
00000340: 6acb 4f3e 6f97 d4bd 93fd acbd cb9d 9dbd
00000350: b85f ff3c d438 8e3e 08d3 96be 89f5 903d
00000360: 7fa3 943e 44d4 a53e 7ab2 623e 825f 49be
00000370: 2268 2b3e 6558 1abe 392d 363d e9d2 a83d
00000380: 4c52 a8be ca2a b9bc 73be 1d3e 512f cfbd
00000390: bbb1 033e f6d3 93be 4711 62be 5cee 2bbd
000003a0: b63e 9abe faa4 b23e 2163 58bb 77af 833e
000003b0: 0eae 5d3e afcf 27be e8a3 38be 6f1d 913e
000003c0: 7f2b 69bb 697a b0be 6076 52bc c54f 0fbe
000003d0: 1f90 45bc 2e86 2e3c 39b3 123e 4eb8 2dbe
000003e0: fe6b f6bd 3b21 87be 11b7 22be 6aa8 4fbd
000003f0: 19b4 453e 7695 59bb 7fe9 0cbe 3f1d 5f3e

bias_ih_l0 f4 [32]
0.25588366 -0.012976919 0.16670232 -0.040544424 0.24355644 -0.18284236 0.18839791 -0.14388661
-0.09859463 -0.11293202 -0.25566778 -0.093530975 0.12059734 -0.19899744 0.06715019 -0.27265775
0.32777077 0.14738269 0.06381751 -0.3450905 -0.124003515 -0.21194276 0.32324353 0.14753917
-0.23964086 0.0553831 -0.31078902 -0.31856766 0.19440815 0.13567168 -0.10434263 -0.03796115
00000000: 2f03 833e 259d 54bc 03b4 2a3e e911 26bd
00000010: dc66 793e 073b 3bbe 62eb 403e 0357 13be
00000020: fbeb c9bd e748 e7bd e3e6 82be 2b8d bfbd
00000030: bdfb f63d fcc5 4bbe 0a86 893d cc99 8bbe
00000040: 92d1 a73e 7deb 163e c1b2 823d b4af b0be
00000050: 8ef5 fdbd 8607 59be 2d80 a53e 8214 173e
00000060: 6a64 75be 64d9 623d bd1f 9fbe 4d1b a3be
00000070: ee12 473e 84ed 0a3e 97b1 d5bd 277d 1bbd

bias_hh_l0 f4 [32]
-0.24849994 -0.215057 -0.2440242 -0.10849594 -0.11224568 0.2990574 0.12121225 0.14120224
-0.32255027 -0.28737655 0.18207103 -0.085808456 -0.2460423 -0.21886054 -0.01409746 -0.28957018
0.26937258 0.028587105 0.06160769 0.18523127 -0.057071567 0.27012825 0.11380081 -0.09762697
0.09969401 -0.35067412 -0.068025425 -0.13373761 -0.34385234 0.084860414 -0.10069331 -0.24542263
00000000: c576 7ebe e737 5cbe 7be1 79be 1f33 debd
00000010: 10e1 e5bd 0d1e 993e 213e f83d 5297 103e
00000020: 4f25 a5be 0523 93be d470 3a3e 58bc afbd
00000030: 83f2 7bbe fa1c 60be 08f9 66bc 8b42 94be
00000040: 34eb 893e 812f ea3c 5858 7c3d 44ad 3d3e
00000050: e0c3 69bd 404e 8a3e 6610 e93d a6f0 c7bd
00000060: 602c cc3d 8f8b b3be ea50 8bbd 83f2 08be
00000070: 6a0d b0be 4ccb ad3d 4b38 cebd 1250 7bbe

weight_ih_l0 f4 [32, 4]
-0.008969945 -0.21221225 -0.18151185 -0.31489718 0.24477452 -0.18972214 -0.106943704 -0.17749555
-0.2818726 0.15199287 0.3534286 -0.08579585 0.05746613 -0.015684906 -0.077060245 0.128057
-0.017931925 0.16784734 -0.0037106506 0.31582233 0.17971635 0.2729014 -0.01431248 -0.089365944
0.28152972 -0.03960535 0.24273765 0.35198882 -0.061385702 -0.31633258 -0.24212508 0.2330274
0.025786242 0.3332126 -0.119846165 -0.3165078 -0.09710954 -0.05355604 0.040316958 0.34080985
-0.02757369 -0.09997548 -0.21155922 0.26932237 0.099926256 -0.021833753 0.32712027 -0.27453235
0.1137398 0.21776429 -0.10143966 0.05194321 -0.34094656 -0.26067057 0.15825045 0.21674244
-0.107878484 -0.24784522 -0.10042207 -0.3040479 0.0642688 0.1365359 -0.24543862 -0.2708705
0.15071636 -0.05938141 -0.17539571 -0.17025468 -0.19019166 -0.09923096 -0.32124314 -0.29824534
0.001792084 -0.24957897 0.2607666 0.32427838 0.33111575 0.0022107707 0.35334033 -0.08658282
-0.28604057 -0.111963905 -0.18417515 -0.29935268 0.14521338 0.115904085 -0.23900332 -0.21216145
0.08826144 0.25323248 0.10293634 0.14016199 -0.28093794 0.030812044 -0.09943984 -0.26801732
-0.054579787 0.2328782 0.27697784 0.073622406 0.27481082 -0.1119749 0.07539582 -0.17791942
0.27633855 0.17331749 -0.06249526 -0.15497927 0.22337303 -0.051608223 -0.014525405 -0.22607957
0.28568006 0.12338241 -0.33039626 0.09616727 0.18528934 -0.22950219 0.2602744 0.32729974
0.089947104 0.10709316 -0.18797575 -0.11562979 0.27333966 -0.27571657 -0.22286743 0.2765206
00000000: adf6 12bc 2b4e 59be 3ede 39be 343a a1be
00000010: 2ca6 7a3e 8546 42be 4d05 dbbd 65c1 35be
00000020: 9b51 90be 05a4 1b3e 98f4 b43e bcb5 afbd
00000030: 9b61 6b3d a27d 80bc c3d1 9dbd 6021 033e
00000040: f9e5 92bc 2ce0 2b3e 632e 73bb 77b3 a13e
00000050: 9007 383e bbb9 8b3e e47e 6abc 7e05 b7bd
00000060: aa24 903e 3839 22bd 3890 783e e137 b43e
00000070: 936f 7bbd 58f6 a1be a3ef 77be bc9e 6e3e
00000080: ab3d d33c d89a aa3e e871 f5bd 4f0d a2be
00000090: 5ee1 c6bd 945d 5bbd 6523 253d a17e ae3e
000000a0: 38e2 e1bc f2bf ccbd fba2 58be 9fe4 893e
000000b0: 23a6 cc3d b3dc b2bc 4f7c a73e 818f 8cbe
000000c0: 6af0 e83d 9afd 5e3e 99bf cfbd 67c2 543d
000000d0: 8c90 aebe 9d76 85be 680c 223e bbf1 5d3e
000000e0: 65ef dcbd 23cb 7dbe 16aa cdbd 2bac 9bbe
000000f0: 5c9f 833d 11d0 0b3e 4354 7bbe 8aaf 8abe
00000100: 6455 1a3e ec39 73bd ef9a 33be 3e57 2ebe
00000110: 9ac1 42be 9a39 cbbd fb79 a4be 9db3 98be
00000120: 5ce4 ea3a a191 7fbe 3383 853e d107 a63e
00000130: 0188 a93e 94e2 103b 06e9 b43e 5552 b1bd
00000140: e973 92be 554d e5bd 6998 3cbe c144 99be
00000150: d1b2 143e 1f5f ed3d 49bd 74be da40 59be
00000160: 6ac2 b43d b0a7 813e 4ad0 d23d a086 0f3e
00000170: 19d7 8fbe 8a69 fc3c 1da7 cbbd 9139 89be
00000180: 0e8f 5fbd 9f77 6e3e 0ad0 8d3e 58c7 963d
00000190: 01b4 8c3e 1953 e5bd 2069 9a3d 8230 36be
000001a0: 3f7c 8d3e 247a 313e 08fb 7fbd e3b2 1ebe
000001b0: e6bb 643e 2563 53bd f7fb 6dbc 6781 67be
000001c0: a844 923e ebaf fc3d b329 a9be 58f3 c43d
000001d0: 7dbc 3d3e 9f02 6bbe b042 853e d593 a73e
000001e0: 3036 b83d a953 db3d b77c 40be 50cf ecbd
000001f0: 2df3 8b3e b92a 8dbe 5c37 64be 1c94 8d3e

weight_hh_l0 f4 [32, 8]
0.2731746 0.18653816 0.09988504 -0.32132185 0.054206282 -0.16066952 0.023272099 -0.27607116
0.29332995 -0.30058652 -0.22736345 -0.34351715 -0.071824506 0.2556152 -0.34412163 0.21905926
-0.18046868 -0.29277772 0.15066254 0.29994228 -0.13231708 0.06022283 0.055227377 -0.23237391
-0.24859299 0.25937322 -0.35202336 -0.12003831 0.057090603 0.026557487 0.24407691 0.08036181
0.074013405 -0.2037433 -0.08159259 -0.17838085 -0.29581937 0.30012742 0.15667656 -0.24940957
-0.22128591 -0.05174874 -0.3458448 -0.16637047 -0.19854689 0.29783154 0.17245613 -0.1704894
-0.34634104 0.24488461 0.2726119 0.29409578 -0.32154417 0.17175506 -0.3431145 -0.31799895
0.1017779 -0.21245973 -0.27008763 -0.20642503 0.077933066 0.23894237 -0.35343188 -0.27474856
0.30544087 -0.029409144 0.087650605 0.06193694 0.33575442 0.10384313 0.14772618 0.039120663
-0.051204037 -0.08410003 -0.00041982476 0.273652 0.2516387 -0.15722372 0.30739948 -0.18738717
0.20250751 0.35337836 0.34706002 0.06827296 -0.09200518 0.29620978 0.026597906 -0.14871499
0.2609603 -0.12489464 0.3440326 0.23476717 -0.14385891 -0.28098106 -0.012711615 0.27694318
-0.09766971 0.0877945 -0.28686535 0.26468274 0.23938073 -0.18359424 0.13912944 -0.2535095
0.25595134 -0.014955261 -0.32598984 -0.2653447 0.2074676 0.20169125 0.13127466 0.028436478
-0.19868462 -0.06211902 -0.31538612 -0.16162229 0.1718802 -0.18599704 0.21107103 0.2756228
-0.17215128 -0.004167312 0.174799 -0.2754592 0.2661677 -0.06211902 -0.34779412 -0.12370964
0.16492029 0.07505233 -0.08482323 0.3405118 0.10346326 0.10076418 0.10595785 0.2811974
0.118089944 -0.15092419 0.24997485 0.06530713 -0.29989538 0.35267425 0.12742324 0.27158716
-0.18356326 0.2082429 0.21303692 0.10349243 0.21507789 -0.23338361 -0.22853892 0.03169148
0.03914515 -0.22082461 -0.04631656 -0.030800369 0.18974781 -0.26747072 -0.10834598 -0.30834207
-0.041507438 0.33675003 0.08465928 0.23909105 -0.13042781 -0.2569572 -0.2730243 0.35090387
0.25516948 -0.15819891 -0.14610028 0.021379115 0.29319987 0.05945892 -0.30053556 -0.24299167
-0.3040582 0.06423905 -0.07215924 -0.17850138 0.32802925 0.25763357 0.0010531233 -0.2597938
-0.19119179 -0.16696557 -0.18283497 0.23039553 0.12828931 0.026344309 0.17215128 0.22948015
0.026000263 0.0318376 0.2827836 -0.24995638 0.14354411 -0.2077682 0.30674544 0.30678046
-0.15217394 -0.33006057 0.2791652 0.1850153 -0.2644142 -0.28251415 0.124033034 -0.02915504
0.19658436 0.1122843 0.29414397 0.048852917 0.07877174 -0.08645364 -0.31991464 0.114745215
-0.34535483 -0.1659044 -0.13085529 -0.0394583 -0.19424488 0.09365291 -0.26985142 -0.13111535
0.3045286 -0.123954974 -0.32780173 0.2706378 0.06049982 -0.33421022 0.349131 -0.07425735
0.0045681703 0.34717909 0.15226974 0.1121327 0.0403948 -0.076796405 -0.013405606 -0.2923066
0.18926999 0.0037855033 0.13186611 0.19775322 0.28978866 0.15750593 0.056710016 -0.05668123
-0.004991704 0.08950861 -0.14199623 0.31134903 0.17838311 -0.17312463 -0.022779865 -0.052651234
00000000: 8bdd 8b3e dc03 3f3e 8790 cc3d 4c84 a4be
00000010: 6807 5e3d 8d86 24be 21a5 be3c 3359 8dbe
00000020: 582f 963e 7ae6 99be f7d1 68be 7be1 afbe
00000030: ba18 93bd ffdf 823e b630 b0be 1251 603e
00000040: c8cc 38be f6e6 95be 4847 1a3e 0992 993e
00000050: 217e 07be 37ac 763d 1a36 623d 6df3 6dbe
00000060: 298f 7ebe 91cc 843e 683c b4be a5d6 f5bd
00000070: d6d7 693d 168f d93c 4cef 793e bc94 a43d
00000080: 5794 973d 15a2 50be 041a a7bd 78a9 36be
00000090: a375 97be 4daa 993e d26f 203e 3965 7fbe
000000a0: c698 62be 7df6 53bd 9212 b1be 055d 2abe
000000b0: e04f 4bbe 607d 983e 5798 303e c694 2ebe
000000c0: 9d53 b1be 08c3 7a3e c993 8b3e b993 963e
000000d0: 70a1 a4be 8fe0 2f3e b4ac afbe c2d0 a2be
000000e0: ee70 d03d 0b8f 59be ed48 8abe 1561 53be
000000f0: 5f9b 9f3d 4fad 743e 06f5 b4be d8ab 8cbe
00000100: bf62 9c3e 72eb f0bc 2982 b33d 97b1 7d3d
00000110: 01e8 ab3e b5ab d43d 8845 173e fd3c 203d
00000120: 53bb 51bd a33c acbd ed1b dcb9 1d1c 8c3e
00000130: cad6 803e 41ff 20be 7763 9d3e 6ce2 3fbe
00000140: 215e 4f3e 02ee b43e dab1 b13e b2d2 8b3d
00000150: 366d bcbd cfa8 973e dae3 d93c be48 18be
00000160: 979c 853e c3c8 ffbd 0a25 b03e ce66 703e
00000170: c04f 13be c0dc 8fbe 6144 50bc 7fcb 8d3e
00000180: 0f07 c8bd 9acd b33d 04e0 92be 7f84 873e
00000190: 3920 753e 2100 3cbe f377 0e3e ffcb 81be
000001a0: 0e0c 833e e906 75bc 24e8 a6be 43db 87be
000001b0: 6372 543e 2788 4e3e dd6c 063e 9ef3 e83c
000001c0: fb73 4bbe 8370 7ebd 4a7a a1be 5080 25be
000001d0: 5d01 303e 0276 3ebe 0123 583e 6f1e 8d3e
000001e0: 6d48 30be f28d 88bb 82fe 323e fd08 8dbe
000001f0: 2247 883e 8370 7ebd 1212 b2be 7b5b fdbd
00000200: dde0 283e 09b5 993d cdb7 adbd 9057 ae3e
00000210: 8ce4 d33d 735d ce3d 6e00 d93d 1bf9 8f3e
00000220: 24d9 f13d df8b 1abe 68f9 7f3e bfbf 853d
00000230: e38b 99be b891 b43e 3d7b 023e 790d 8b3e
00000240: 02f8 3bbe a03d 553e 5a26 5a3e d7f3 d33d
00000250: 613d 5c3e 1dfc 6ebe 1b06 6abe edce 013d
00000260: aa56 203d d91f 62be 6fb6 3dbd 0e51 fcbc
00000270: 404d 423e ecf1 88be 7fe4 ddbd 03df 9dbe
00000280: b403 2abd 806a ac3e d861 ad3d 49d4 743e
00000290: de8e 05be e58f 83be d7c9 8bbe aca9 b33e
000002a0: 93a5 823e e5fe 21be 509b 15be 4123 af3c
000002b0: 4b1e 963e 328b 733d ccdf 99be cfd2 78be
000002c0: 84ad 9bbe c38f 833d 39c8 93bd 11c9 36be
000002d0: 73f3 a73e 8ce8 833e f408 8a3a b103 85be
000002e0: c8c7 43be 06f9 2abe 1739 3bbe ceec 6b3e
000002f0: 465e 033e 05d0 d73c 6d48 303e d8fc 6a3e
00000300: 81fe d43c 2568 023d 03c9 903e 91f4 7fbe
00000310: 3afd 123e 30c1 54be bd0d 9d3e 5412 9d3e
00000320: 7cd3 1bbe b3fd a8be beee 8e3e a774 3d3e
00000330: 4c61 87be b2a5 90be 0805 fe3d 8dd6 eebc
00000340: 694d 493e 50f5 e53d 0a9a 963e ff19 483d
00000350: 1453 a13d 9b0e b1bd dacb a3be 8aff ea3d
00000360: 59d2 b0be d8e2 29be eefe 05be 079f 21bd
00000370: 21e8 46be 19cd bf3d f729 8abe 1a43 06be
00000380: 2ceb 9b3e 1bdc fdbd a1d5 a7be 0a91 8a3e
00000390: a9ce 773d 9a1d abbe 4cc1 b23e 3d14 98bd
000003a0: 97b0 953b 75c1 b13e 99ec 1b3e d4a5 e53d
000003b0: 0575 253d 6f47 9dbd 30a3 5bbc 36a9 95be
000003c0: fecf 413e 3516 783b e907 073e d27f 4a3e
000003d0: 2e5f 943e 3c49 213e c348 683d 942a 68bd
000003e0: 7391 a3bb 4a50 b73d 7667 11be 2469 9f3e
000003f0: 10aa 363e 9547 31be d79c babc d2a8 57bd

bias_ih_l0 f4 [32]
-0.069091454 0.0012832872 -0.0023917914 -0.10304778 -0.084500216 0.33389175 -0.040734634 0.14986466
0.08157295 0.26249078 -0.113917574 -0.1630936 -0.019920833 0.0184674 -0.23383075 -0.33038428
-0.045173667 0.28367513 -0.13657045 -0.12909028 -0.3182103 0.07045549 0.33990037 0.15224528
-0.12538485 -0.14047343 -0.3333148 -0.1409965 -0.18582453 0.29384878 -0.27673724 -0.23342614
00000000: d27f 8dbd f933 a83a 9abf 1cbb b70a d3bd
00000010: 730e adbd dcf3 aa3e 5cd9 26bd 1f76 193e
00000020: b80f a73d 3165 863e 9e4d e9bd 0202 27be
00000030: 0431 a3bc f248 973c 5471 6fbe 2128 a9be
00000040: 0608 39bd de3d 913e 20d9 0bbe 3e30 04be
00000050: 76ec a2be f84a 903d 6c07 ae3e 30e6 1b3e
00000060: e364 00be 44d8 0fbe 3da8 aabe 6361 10be
00000070: c948 3ebe 5973 963e 81b0 8dbe 4307 6fbe

bias_hh_l0 f4 [32]
-0.09071907 0.10885207 0.24415445 0.106339954 -0.27976972 0.15622303 -0.13490076 -0.08832243
0.2565011 0.090828314 -0.24636084 -0.2710662 -0.31534672 0.1740666 0.013171227 0.07184322
-0.27420744 -0.31678036 0.20086256 0.22914061 -0.102594405 0.23458995 0.0019049111 0.10012186
-0.10652527 -0.26956424 -0.13635804 -0.035662726 -0.11377432 0.01638682 0.19685887 -0.32886264
00000000: ebca b9bd d6ed de3d a003 7a3e c3c8 d93d
00000010: fa3d 8fbe eef8 1f3e 6d23 0abe 64e2 b4bd
00000020: 1d54 833e 3204 ba3d 0446 7cbe 30c9 8abe
00000030: 2075 a1be 843e 323e 21cc 573c 8a22 933d
00000040: eb64 8cbe 0931 a2be eaae 4d3e d6a3 6a3e
00000050: 041d d2bd 5938 703e 36ae f93a b10c cd3d
00000060: ec29 dabd 5304 8abe 71a1 0bbe 1413 12bd
00000070: 8302 e9bd a73d 863c 5f95 493e af60 a8be

weight f4 [4, 16]
-0.15335001 0.08354673 0.23570725 -0.09225642 0.15488204 0.27505565 0.14164059 -0.008073837
-0.094882526 -0.22208142 -0.082779475 -0.10003017 0.06066714 -0.17884302 0.28426147 0.059072662
0.09872683 -0.08848821 -0.19787827 -0.24634443 0.16517445 -0.21049412 0.23041807 -0.11679244
0.091769956 0.23833838 0.22544542 0.048925478 0.22507745 0.11344006 -0.1643139 0.035291385
0.2219822 -0.11982104 0.0104859555 0.16701998 -0.14398403 -0.15488787 0.021717362 0.21567003
-0.14240499 0.048751153 -0.22047593 0.19249637 -0.22781847 0.16546936 0.19193561 -0.23214443
0.08721582 0.16661385 -0.22978923 -0.16035123 -0.24397878 0.14371046 0.20305902 0.018952308
-0.1738109 -0.22776103 0.019960225 -0.038821124 0.113627404 -0.053284742 0.16744256 -0.11560088
00000000: c907 1dbe 8c1a ab3d 3e5d 713e eff0 bcbd
00000010: 6699 1e3e 18d4 8c3e 3b0a 113e 2048 04bc
00000020: c551 c2bd 5069 63be 4988 a9bd 9edc ccbd
00000030: 1b7e 783d a022 37be b88a 913e 2df6 713d
00000040: 4b31 ca3d 4f39 b5bd 9aa0 4abe b741 7cbe
00000050: 7e23 293e c58b 57be b7f2 6b3e e030 efbd
00000060: e3f1 bb3d fa0e 743e 2adb 663e 1566 483d
00000070: b47a 663e 4353 e83d e741 28be b38d 103d
00000080: 4d4f 633e bc64 f5bd 49cd 2b3c 4907 2b3e
00000090: 8d70 13be ed9a 1ebe 9ce8 b13c 9bd8 5c3e
000000a0: 9dd2 11be 4aaf 473d 71c4 61be c51d 453e
000000b0: 3f49 69be cd70 293e c58a 443e 45b7 6dbe
000000c0: 359e b23d d29c 2a3e de4d 6bbe 1d33 24be
000000d0: 93d5 79be d628 133e b4ee 4f3e df41 9b3c
000000e0: 7cfb 31be 303a 69be a083 a33c e602 1fbd
000000f0: 7cb5 e83d 1a41 5abd 1076 2b3e 27c0 ecbd

bias f4 [4]
-0.10802557 -0.14575528 -0.13486679 -0.15815723
00000000: 833c ddbd df40 15be 851a 0abe f8f3 21be

weight f4 [4, 16]
0.08211151 -0.05755542 -0.1444256 0.23667884 0.16122746 -0.20222104 0.1100456 -0.07261747
-0.11194581 -0.17083637 0.007554038 -0.122966714 -0.24010828 0.26263034 0.017065268 0.1019443
-0.13632888 0.21700221 0.09628675 -0.10520427 0.12782344 -0.014003101 0.12409417 -0.22144982
-0.24008472 -0.13388112 -0.24900211 -0.06875984 -0.24230912 0.100264676 -0.21326536 -0.11518547
-0.012067406 0.074774735 0.13434735 0.17870326 -0.06243275 0.1970867 -0.035959937 0.14786625
0.17626019 -0.09442342 0.0020113345 0.16179915 -0.16805024 0.12544382 -0.053059153 0.12289776
-0.13900396 -0.21996748 0.039086133 0.0002526669 0.13211401 0.13324638 0.1361825 -0.061297793
-0.13279143 -0.072300985 0.12425812 0.035671555 -0.048790425 0.09926996 -0.21730474 -0.09643875
00000000: 142a a83d 3bbf 6bbd 4ee4 13be f05b 723e
00000010: d018 253e 0813 4fbe 965f e13d 78b8 94bd
00000020: d843 e5bd bbef 2ebe dd87 f73b f9d5 fbbd
00000030: f2de 75be 7c77 863e 76cc 8b3c 2cc8 d03d
00000040: cc99 0bbe d435 5e3e fd31 c53d 5675 d7bd
00000050: 26e4 023e 436d 65bc 1625 fe3d bec3 62be
00000060: c5d8 75be 2218 09be 69fa 7ebe f6d1 8cbd
00000070: e21f 78be 9157 cd3d 3c62 5abe 5ce6 ebbd
00000080: 5fb6 45bc 7f23 993d 5a92 093e fdfd 363e
00000090: 7cb9 7fbd 19d1 493e ba4a 13bd 406a 173e
000000a0: 8d7d 343e 1161 c1bd 98d0 033b adae 253e
000000b0: 5d15 2cbe 5874 003e 8e54 59bd d2b1 fb3d
000000c0: 0e57 0ebe 283f 61be c818 203d 6178 8439
000000d0: e548 073e bd71 083e 6d73 0b3e 6513 7bbd
000000e0: 7afa 07be 8a12 94bd 0b7b fe3d 561c 123d
000000f0: 78d8 47bd 0c4e cb3d 2285 5ebe ae81 c5bd

bias f4 [4]
-0.04727431 0.10141106 0.07622341 0.120577395
00000000: b5a2 41bd 9ab0 cf3d 051b 9c3d 48f1 f63d
