model/MMAE_10_32_0.01.pt (torch, 108235 bytes, 24 tensors)

weight f4 [64, 60]
-0.26000383 0.3594277 -0.79151773 0.11805493 -0.25626916 0.22996843 0.057428446 -0.36095622
-0.4029883 0.39494112 0.08599832 -0.038838446 -0.4131804 0.5704625 -0.47191495 -0.70797837
-0.2992526 0.3458011 -0.77984565 -0.48206398 -0.34962103 0.2691543 0.28745568 -0.2121676
-0.3216733 0.11504023 0.07520425 0.14858143 -0.31467116 -0.07855084 -0.05191843 -0.38439733
-0.35043478 -0.10328925 -0.718769 -0.28225648 -0.31467503 -0.09724613 0.08937394 -0.15253668
-0.33960694 0.021358583 -0.2554268 -0.19082282 -0.19115238 0.081067294 -0.048091777 0.12234786
-0.2575353 0.021900995 -0.2920681 -0.2914236 -0.20721728 0.021094708 -0.18969218 -0.686731
-0.24463119 0.2817934 -0.4737792 -0.15572289 0.24563971 0.13544977 0.42944977 0.18612441
0.20626806 0.13090828 0.34540778 0.61034423 0.21459456 0.64872265 0.18856302 0.5267538
0.06069589 0.43608293 0.36480668 0.45939723 0.25079054 0.66201997 0.54963636 0.68759835
0.16224949 0.84952927 0.14026234 0.53914076 0.30448934 0.91727906 0.36092743 0.78338504
0.15794808 1.0978329 0.22128454 0.5543217 0.22519977 0.8227365 0.07737624 0.27244368
0.30489942 0.60241777 0.79912627 0.1755717 0.34937108 0.09885862 0.21940318 0.5707941
0.30086616 -0.28774372 0.25101927 0.373231 0.52653706 -0.20276509 0.39909175 0.54331386
0.47523424 -0.46057308 0.6188329 0.49509707 0.5002735 -0.7325546 0.008036409 0.817232
-0.22335203 0.0273936 -0.5631876 0.1676028 -0.35615015 -0.22638147 -0.3158186 -0.37952352
-0.22931851 -0.72035027 -0.12158672 -0.36309868 -0.36840242 -0.4307911 -0.5117611 -0.46396938
-0.37168327 -0.765738 -0.78154373 -0.553995 -0.4027553 -1.0027133 -0.5792895 -0.3060515
-0.32491928 -0.65094775 -0.108978696 -0.29512182 -0.38872424 -0.6903249 -0.70896095 -0.5676894
-0.39204067 -0.8009205 -0.31489864 -0.44655815 -0.45218444 -0.62595874 -0.31349188 -0.035122566
-0.42456234 -0.076646514 -0.36363223 -0.23562564 -0.3453801 -0.09424847 -0.032665808 -0.28332764
-0.43797937 0.60990447 -0.08340307 -0.7626692 -0.41474304 0.55760515 -0.13544643 -0.5703443
-0.38267845 0.53680104 -0.57910836 -0.38641688 -0.6385237 -0.13770881 0.5522834 -0.25451094
-0.6303467 0.01987995 0.17488667 0.20877291 -0.7671309 -0.24214421 0.14030662 -0.90387744
-0.63567084 -0.22729503 -0.34812266 -0.38199493 -0.74447554 -0.045235 0.51266235 -0.31484088
-0.7654344 -0.55441976 -0.00081555056 -0.0049896855 -0.64237195 -0.6371421 0.29317573 -1.0175846
-0.71394676 0.085952185 -0.21276987 0.009418141 -0.8025743 -0.18277405 0.75361156 -0.04039189
-0.76306945 -0.07075608 -0.28562304 -0.1982138 -0.6444495 0.0016092199 0.8358265 -0.58683497
-0.63626844 0.46534735 -0.3123482 -0.552419 -0.53169256 0.38435853 0.14546509 -0.015668757
-0.5917708 0.65728265 0.50477755 0.019530194 -0.5332564 0.82842326 0.8522226 -0.47040537
-0.6238622 -0.17375104 0.4698169 -0.44942194 -0.4258683 -0.31191567 0.10070039 -0.1385484
-0.45747557 -0.0114868805 -0.042496458 -0.46193242 -0.43612236 0.21166022 -0.031951252 -0.44504917
00000000: 391f 85be e806 b83e e8a0 4abf c8c6 f13d
00000010: b635 83be d87c 6b3e 173a 6b3d 41cf b8be
00000020: 7c54 cebe b935 ca3e e31f b03d 1015 1fbd
00000030: 628c d3be d509 123f d69e f1be 123e 35bf
00000040: a337 99be d70c b13e f7a3 47bf 17d1 f6be
00000050: 8701 b3be 98ce 893e 642d 933e 7742 59be
00000060: 5db2 a4be 369a eb3d b004 9a3d bb25 183e
00000070: 941c a1be 43df a0bd 6ba8 54bd bacf c4be
00000080: 306c b3be 5089 d3bd 3f01 38bf ec83 90be
00000090: 161d a1be fb28 c7bd af09 b73d 9332 1cbe
000000a0: f6e0 adbe 32f8 ae3c 4dc7 82be 0f67 43be
000000b0: 73bd 43be 9c06 a63d e2fb 44bd 8491 fa3d
000000c0: abdb 83be b769 b33c f389 95be 7935 95be
000000d0: c430 54be cfce ac3c ab3e 42be 9acd 2fbf
000000e0: 9980 7abe 3947 903e 3093 f2be d275 1fbe
000000f0: fa88 7b3e 58b3 0a3e d7e0 db3e 6697 3e3e
00000100: ef37 533e d20c 063e 4ad9 b03e 853f 1c3f
00000110: adbe 5b3e b012 263f aa16 413e 56d9 063f
00000120: 419c 783d 4346 df3e f1c7 ba3e 1d36 eb3e
00000130: 9e67 803e 247a 293f f8b4 0c3f 7206 303f
00000140: bb24 263e c07a 593f eea0 0f3e 2105 0a3f
00000150: 07e6 9b3e cdd2 6a3f 7bcb b83e ec8b 483f
00000160: 24bd 213e ca85 8c3f 6a98 623e 07e8 0d3f
00000170: c59a 663e dc9e 523f 6f77 9e3d bd7d 8b3e
00000180: c71b 9c3e 0d38 1a3f 8a93 4c3f 11c9 333e
00000190: c4e0 b23e 6376 ca3d 3aab 603e 901f 123f
000001a0: 210b 9a3e 2553 93be 9985 803e 2218 bf3e
000001b0: 22cb 063f a7a1 4fbe c155 cc3e 9e16 0b3f
000001c0: e751 f33e 3cd0 ebbe d56b 1e3f 5d7d fd3e
000001d0: ed11 003f b388 3bbf 24ab 033c 1e36 513f
000001e0: 65b6 64be 8b68 e03c 102d 10bf 12a0 2b3e
000001f0: 5059 b6be 8bd0 67be fab2 a1be e850 c2be
00000200: 79d2 6abe e068 38bf 7502 f9bd 12e8 b9be
00000210: 3e9f bcbe a790 dcbe c702 03bf 658d edbe
00000220: 454d bebe 6807 44bf 4013 48bf 9ed2 0dbf
00000230: f135 cebe e958 80bf 514c 14bf c8b2 9cbe
00000240: d25b a6be 83a4 26bf 3930 dfbd 351a 97be
00000250: dd06 c7be 22b9 30bf 777e 35bf 1854 11bf
00000260: 8eb9 c8be 2009 4dbf 653a a1be 45a3 e4be
00000270: b884 e7be d53e 20bf 0282 a0be aedc 0fbd
00000280: 3c60 d9be d9f8 9cbd 012e babe d947 71be
00000290: a9d5 b0be 5805 c1bd 95cc 05bd 5210 91be
000002a0: d53e e0be b322 1c3f 3bcf aabd 4a3e 43bf
000002b0: 3359 d4be 36bf 0e3f 78b2 0abe 1602 12bf
000002c0: 6eee c3be cb6b 093f 7240 14bf 6fd8 c5be
000002d0: 4a76 23bf 8a03 0dbe 7262 0d3f 424f 82be
000002e0: 675e 21bf 47db a23c 7e15 333e 91c8 553e
000002f0: b162 44bf a7f4 77be 8aac 0f3e 8364 67bf
00000300: 53bb 22bf 07c0 68be 223d b2be d794 c3be
00000310: f395 3ebf 5648 39bd d73d 033f d332 a1be
00000320: 82f3 43bf 74ee 0dbf acca 55ba 8480 a3bb
00000330: 7d72 24bf bf1b 23bf 211b 963e 3640 82bf
00000340: 37c5 36bf b307 b03d 58e0 59be 8c4e 1a3c
00000350: 8275 4dbf 1f29 3bbe b0ec 403f f771 25bd
00000360: 8558 43bf 90e8 90bd 2f3d 92be 8ff8 4abe
00000370: a4fa 24bf 76ec d23a baf8 553f d13a 16bf
00000380: 7de2 22bf 0242 ee3e 1aec 9fbe 556b 0dbf
00000390: 011d 08bf a4ca c43e cdf4 143e c45b 80bc
000003a0: 4b7e 17bf ad43 283f 1a39 013f c9fd 9f3c
000003b0: 7e83 08bf 8c13 543f 432b 5a3f f9d8 f0be
000003c0: 6fb5 1fbf cbeb 31be d78b f03e a21a e6be
000003d0: 690b dabe 69b3 9fbe 023c ce3d a2df 0dbe
000003e0: 3d3a eabe 7833 3cbc c410 2ebd 6882 ecbe
000003f0: 6e4b dfbe 75bd 583e 51df 02bd 7cdd e3be

bias f4 [64]
0.42278117 0.8178333 -0.7339076 -0.057644833 0.3261863 -0.12553363 -0.095316045 -0.1394446
-0.10513307 0.047831994 0.4836952 0.35497925 0.49266812 0.049351055 -0.7089143 0.52214974
0.22678715 0.63311964 -0.0830086 0.7938197 0.8523162 0.5409602 0.482077 -0.34940886
-0.4649486 -0.05421459 -0.74785566 -0.16757782 -0.0077802413 0.08833047 -0.32814455 -0.83254606
-0.07218811 -0.4682393 0.42507425 -0.71236044 0.6531125 0.6320616 0.7834641 0.2600983
-0.15097404 -0.528219 -0.52577853 0.09498346 0.69051015 -0.63348734 0.94681364 -0.074046806
0.0852652 0.31942508 0.59030914 0.081845306 -0.009153893 0.2817863 -0.19182184 0.04036494
0.67820156 -0.45815802 0.11664159 0.5524343 0.75412786 0.77647847 -0.7344571 -0.066973254
00000000: c676 d83e 865d 513f 5ee1 3bbf fd1c 6cbd
00000010: e401 a73e e38b 00be 0f35 c3bd 91ca 0ebe
00000020: 0250 d7bd 7beb 433d e6a6 f73e d7bf b53e
00000030: ff3e fc3e 5524 4a3d 687b 35bf 9bab 053f
00000040: e43a 683e 2114 223f 6a00 aabd c537 4b3f
00000050: 6531 5a3f 5e7c 0a3f ccd2 f63e b8e5 b2be
00000060: be0d eebe 1e10 5ebd 7873 3fbf 8599 2bbe
00000070: 65f1 febb 9be6 b43d 9002 a8be bd21 55bf
00000080: 5cd7 93bd 10bd efbe 55a3 d93e 415d 36bf
00000090: 6132 273f cace 213f 1a91 483f 9b2b 853e
000000a0: f098 1abe 5c39 07bf 6c99 06bf b086 c23d
000000b0: 46c5 303f 3a2c 22bf 6162 723f daa5 97bd
000000c0: 859f ae3d af8b a33e 801e 173f 839e a73d
000000d0: 36fa 15bc 4b46 903e f26c 44be b555 253d
000000e0: 9e9e 2d3f b093 eabe c9e1 ee3d 566c 0d3f
000000f0: 860e 413f 4bc7 463f 6105 3cbf 4629 89bd

weight f4 [32, 64]
0.16350962 -1.4485056 0.6142944 0.53007334 0.01060018 0.23313084 0.025710538 0.5414835
0.27462307 -0.3246149 0.054109238 0.31330678 0.05808245 -0.0028150333 1.1787188 -0.47885388
-0.059222538 -0.39227062 0.062316142 -0.42855397 -0.4153947 -0.5840173 -0.69534147 -0.54140484
0.46301347 -0.37095752 -0.13457584 0.43783927 -0.060650986 -1.0839193 0.7946412 0.74157554
0.36171156 0.6824184 0.04781107 -0.19890335 0.221305 0.07308498 -0.60557187 0.8221344
1.0881385 -0.14178751 0.2140257 1.0231993 -0.09769722 -0.3448271 -0.46268177 0.4390364
-0.19508763 0.165611 -0.5149975 -1.0603862 -0.116657086 -0.32932073 -0.6602144 -0.75155777
-0.42588207 0.40655878 0.7646424 -1.2655697 -0.26596206 0.04927129 0.6397699 -0.026973825
0.25771716 -0.9525728 0.55727386 0.5782397 0.029641083 0.80078226 0.8326876 0.41937718
0.3935067 -0.30052415 0.17312142 0.22476883 0.28233996 -0.3201084 0.30951717 -0.5518659
-0.245658 0.13299197 0.3868993 -0.62033755 -0.8234929 -0.64998674 -0.6098743 -0.6002295
0.545859 -0.5843827 -0.3940725 0.41683757 -0.3481829 -0.5884416 0.5868591 0.04174179
-0.24192652 0.3917648 0.45321956 -0.33501524 0.30991814 0.07409645 0.17846361 0.3896217
0.54274833 -0.017067732 0.2668673 0.7119245 0.30917615 -0.29051557 0.17104094 0.32784227
-0.37829965 0.24481058 -0.639065 -0.57898355 -0.32084632 -0.30817142 -0.3752896 -0.6694086
0.19666064 0.79951507 0.62362206 -0.65366846 0.15325779 0.1978874 -0.050932027 -0.34037012
-0.259758 -1.0016452 0.08436046 0.16717716 -0.11964534 -0.0068120733 0.14796628 -0.51288986
-0.19108984 -0.41628888 -0.0065552527 0.10134348 -0.06470085 -0.24796091 1.0572053 0.016839422
-0.3197921 -0.7548859 0.4135692 -0.8932753 -0.09442487 -0.38668248 -0.70684266 0.017228065
0.2687401 0.21121441 0.50202674 -0.11750838 -0.2316968 -0.84237516 0.37837642 1.1178757
-0.087336 0.87361765 -0.3632293 0.29633522 0.027909447 -0.40998837 -0.9071404 0.036389004
1.0227743 0.14874238 0.33962563 0.8236433 -0.24807084 0.54676956 -0.55398333 -0.13036631
-0.37212354 -0.15548345 -0.26349953 -1.1223694 -0.23450394 0.16693659 -0.16328962 -0.15903209
-0.977879 0.31834725 0.47652757 -1.011808 -0.09738067 -0.3238663 0.77131194 -0.05962688
0.14671472 0.06931486 -0.37136146 1.08165 0.4069016 -0.021929905 0.065519795 0.21881689
-0.008581023 -0.029514577 0.2325751 -0.1648686 0.051969897 0.11016866 -0.09035146 -0.19765723
-0.59707963 0.38230717 0.021457357 0.2974998 -0.43032625 -0.5479468 0.5015208 -0.37181383
0.68117756 -0.28162542 -0.583191 0.11294509 -0.68787265 -0.2958613 0.2399655 -0.36220315
0.28426784 -0.030925935 0.39471442 -0.39402074 0.14045314 0.53424865 0.3004311 0.42195502
-0.28524333 -0.28586772 0.070163086 -0.42206636 0.8493921 -0.08185249 0.39131573 0.08324753
0.11201666 0.51445246 0.039784428 0.31235242 -0.24908893 -0.21502899 -0.55163825 -0.56089765
0.31302837 -0.15264496 0.81679815 0.1047883 0.14152738 0.46482092 -0.36241373 0.29938942
00000000: 116f 273e a268 b9bf 6642 1d3f e3b2 073f
00000010: 61ac 2d3c dab9 6e3e e89e d23c aa9e 0a3f
00000020: 659b 8c3e ed33 a6be a6a1 5d3d bf69 a03e
00000030: dde7 6d3d 6c7c 38bb 42e0 963f 562c f5be
00000040: 5593 72bd b2d7 c8be 363f 7f3d 6d6b dbbe
00000050: 9dae d4be 2882 15bf e601 32bf 8299 0abf
00000060: 1a10 ed3e 25ee bdbe 40ce 09be 782c e03e
00000070: 2b6d 78bd debd 8abf 9b6d 4b3f e5d7 3d3f
00000080: 4232 b93e f9b2 2e3f 8ad5 433d 52ad 4bbe
00000090: c79d 623e 94ad 953d c206 1bbf 6677 523f
000000a0: 1f48 8b3f bf30 11be 8e29 5b3e 32f8 823f
000000b0: 7b15 c8bd 2d8d b0be a0e4 ecbe 61c9 e03e
000000c0: 0dc5 47be ee95 293e e0d6 03bf bcba 87bf
000000d0: e9e9 eebd ba9c a8be d003 29bf 1766 40bf
000000e0: 370d dabe 7928 d03e 9bbf 433f 30fe a1bf
000000f0: 2e2c 88be b1d0 493d f6c7 233f 36f8 dcbc
00000100: 81f3 833e d0db 73bf 80a9 0e3f 8407 143f
00000110: dbd1 f23c 1100 4d3f 042b 553f 9bb8 d63e
00000120: b679 c93e 4dde 99be be46 313e cd29 663e
00000130: dd8e 903e 40e5 a3be 0979 9e3e 1547 0dbf
00000140: c58d 7bbe 0c2f 083e aa17 c63e 71ce 1ebf
00000150: 6ed0 52bf 8865 26bf b920 1cbf a4a8 19bf
00000160: 6abd 0b3f 1b9a 15bf dfc3 c9be bc6b d53e
00000170: 0745 b2be 1ca4 16bf 663c 163f 70f9 2a3d
00000180: 96bb 77be 6595 c83e 650c e83e 1e87 abbe
00000190: 97ad 9e3e e1bf 973d 2abf 363e 7f7c c73e
000001a0: 8ef1 0a3f a1d1 8bbc d5a2 883e af40 363f
000001b0: 564c 9e3e 75be 94be 5b25 2f3e f1da a73e
000001c0: 7eb0 c1be a0af 7a3e c499 23bf 4438 14bf
000001d0: f845 a4be a5c8 9dbe f525 c0be 5d5e 2bbf
000001e0: 6861 493e 05ad 4c3f b2a5 1f3f d156 27bf
000001f0: 9cef 1c3e ffa2 4a3e 1a9e 50bd fe44 aebe
00000200: 00ff 84be e935 80bf 2dc5 ac3d 7d30 2b3e
00000210: 9e08 f5bd d037 dfbb 7984 173e c04c 03bf
00000220: 0ead 43be d123 d5be 72cd d6bb 2c8d cf3d
00000230: e181 84bd 77e9 7dbe 8152 873f d4f2 893c
00000240: cabb a3be 3440 41bf 58bf d33e b1ad 64bf
00000250: d461 c1bd 3ffb c5be a4f3 34bf df21 8d3c
00000260: 4d98 893e 9748 583e d384 003f 3ca8 f0bd
00000270: ed41 6dbe e6a5 57bf 8eba c13e 8d16 8f3f
00000280: 37dd b2bd 68a5 5f3f 31f9 b9be 40b9 973e
00000290: 5aa2 e43c ffe9 d1be 5a3a 68bf a30c 153d
000002a0: 45ea 823f ec4f 183e 69e3 ad3e 4ada 523f
000002b0: 4806 7ebe 17f9 0b3f dad1 0dbf bf7e 05be
000002c0: fa86 bebe 0e37 1fbe 69e9 86be cda9 8fbf
000002d0: cd21 70be 6df1 2a3e 6535 27be 4fd9 22be
000002e0: 4756 7abf 69fe a23e 6cfb f33e ed82 81bf
000002f0: 846f c7bd ced1 a5be b374 453f 513b 74bd
00000300: 623c 163e f3f4 8d3d 1723 bebe 8273 8a3f
00000310: 6855 d03e 58a6 b3bc 3e2f 863d 8911 603e
00000320: 6b97 0cbc 8ec8 f1bc 2b28 6e3e 50d3 28be
00000330: 63de 543d 1ba0 e13d 300a b9bd a866 4abe
00000340: 36da 18bf c4bd c33e 57c7 af3c e551 983e
00000350: b953 dcbe 3e46 0cbf ab63 003f 625e bebe
00000360: a761 2e3f 3531 90be 014c 15bf c14f e73d
00000370: 6c18 30bf 227b 97be 84b9 753e b172 b9be
00000380: 8e8b 913e 6358 fdbc 0218 ca3e 16bd c9be
00000390: f3d2 0f3e 85c4 083f 1bd2 993e 7d0a d83e
000003a0: 6a0b 92be 415d 92be aab1 8f3d 1519 d8be
000003b0: c371 593f 47a2 a7bd 895a c83e ae7d aa3d
000003c0: fe68 e53d 28b3 033f fff4 223d a8ec 9f3e
000003d0: 2b11 7fbe 8f30 5cbe 2a38 0dbf fd96 0fbf
000003e0: 4145 a03e f64e 1cbe af19 513f 409b d63d
000003f0: 8eec 103e 02fd ed3e 4b8e b9be 9249 993e

bias f4 [32]
0.12797098 0.0050844997 -0.2744826 -0.8171639 -0.055312946 -0.36339557 0.12162746 -0.512442
0.021776078 0.52149874 0.0006897395 -0.44376785 -0.15371831 -0.09135267 0.6504786 -0.7150639
-0.2722253 0.005237406 -0.05578306 0.626395 -0.12782615 0.15711631 -0.101566434 -0.19613709
0.1902205 -0.14986038 -0.22748566 0.38005215 0.4474314 0.28942028 0.16058488 0.34305793
00000000: d30a 033e e09b a63b fc88 8cbe a731 51bf
00000010: d48f 62bd fc0e babe d117 f93d 662f 03bf
00000020: bf63 b23c f180 053f a2cf 343a 8a35 e3be
00000030: 5568 1dbe 1c17 bbbd c485 263f 6e0e 37bf
00000040: 1d61 8bbe 8c9e ab3b c77c 64bd 6c5b 203f
00000050: dce4 02be 19e3 203e 1002 d0bd 29d8 48be
00000060: 2ac9 423e 0075 19be 00f2 68be 3296 c23e
00000070: ba15 e53e e52e 943e 5d70 243e 4aa5 af3e

weight f4 [8, 32]
-0.14224298 -0.19819762 -0.19976844 -0.113528185 -0.48303223 0.07226182 -0.13860899 -0.20772542
-0.15637356 -0.10431425 -0.008027795 0.02455318 -0.37539524 -0.32998285 0.3212732 -0.24438792
-0.016024623 0.45729053 0.19791366 0.20925589 -0.37345132 -0.18347435 -0.6400415 -0.41318706
-0.1316152 0.52403444 -0.34892276 0.017015193 -0.42735606 -0.20861869 -0.121553004 -0.15222387
-0.11277017 -0.10367799 -0.029472291 0.5540453 0.005783946 0.15433061 -0.26634702 -0.070221774
-0.01355259 -0.095799714 0.26945442 -0.11949572 -0.34487835 0.13630284 0.28456315 0.10736887
0.12323138 0.6047994 0.22524828 -0.16868763 0.1706484 -0.34311414 -0.2842415 -0.22012617
0.07339163 0.23882428 -0.21571247 0.04031603 -0.4311413 0.0300344 -0.024188321 0.022197526
-0.42174062 -0.28987858 -0.57966334 -0.7965891 -0.22666048 -0.31343818 0.20492312 -0.0061286604
-0.3794101 0.26039365 0.21003614 0.27036586 -0.1807731 -0.56021196 0.26509848 0.0046441304
-0.5141603 -1.185856 -0.14371666 -0.09615773 -0.08230319 0.008855682 -0.05726506 0.05860795
-0.35150516 -0.55159074 -0.40157798 0.80142015 -0.18710497 -0.28366873 0.2224195 0.13486283
-0.08099468 0.12727447 -0.14534572 -0.5554721 -0.140723 -0.18131733 0.4701388 -0.01476636
0.008241407 -0.09403498 -0.4146677 -0.16495904 0.044776328 -0.23502679 0.011478851 -0.2643217
-0.39475065 -0.5596016 -0.22671399 0.061379828 -0.16328186 0.08395289 0.3287842 -0.15531856
0.05081186 -0.1791075 -0.084007695 0.38852742 0.28738007 0.13765974 0.2563964 0.022558043
-0.0075355405 0.18505588 0.11637852 -0.6310599 0.12947567 -0.468196 0.45607972 -0.01577565
-0.16759238 -0.16069691 -0.25970933 -0.068807654 0.1291348 0.048244875 -0.4744282 -0.020294087
-0.20874742 -0.65676403 -0.45892662 0.049071 0.45075217 0.2629991 0.29588124 0.33436495
-0.05264195 -0.26676935 0.30998173 -0.041381504 0.40645123 -0.07312568 0.3066311 -0.20611739
0.5943814 0.5490608 0.38261002 0.49782723 0.68406475 0.22841041 -0.29897082 -0.07728252
0.6041173 -0.41906166 -0.40129578 -0.4291148 0.65082777 0.52310544 -0.3218917 -0.54302496
0.6156614 0.5721355 0.55131656 0.45870945 -0.2277859 0.6300001 0.5757653 -0.19196542
0.7235341 0.3848092 0.30320296 -0.41388756 0.3621871 0.46894097 -0.26603094 0.17013228
-0.05488794 -0.5954297 -0.074078284 0.38071036 -0.015748568 0.15864943 -0.15638182 0.009442931
-0.28181863 0.41546693 0.45690703 0.10654127 -0.14897302 -0.13963042 0.30741152 0.43271387
-0.30024287 0.5992055 0.28977898 -0.5016837 0.20139804 -0.6033315 -0.52661335 -0.013313964
-0.016278468 0.20509708 -0.3844913 -0.12441899 -0.48876238 -0.18700877 -0.27580512 -0.18456376
-0.22863048 -0.16669524 -0.20525473 -0.61507607 -0.06623283 -0.24546742 0.39350384 0.07577587
-0.22027731 0.6225259 0.046582524 0.047848344 -0.05357135 -0.27828407 -0.27868953 0.47162268
-0.7225901 -0.68348736 -0.6717584 -0.29420388 0.48263022 -0.041019112 -0.09485978 0.4478847
-0.21839654 -0.8927724 -0.18313336 0.33985028 -0.14686877 -0.18613362 0.039786667 0.033194065
00000000: 25a8 11be 51f4 4abe 1990 4cbe 7781 e8bd
00000010: 0050 f7be 01fe 933d 84ef 0dbe f9b5 54be
00000020: 6420 20be b6a2 d5bd 0387 03bc c023 c93c
00000030: ce33 c0be 83f3 a8be ec7d a43e d440 7abe
00000040: 1246 83bc fc21 ea3e e1a9 4a3e 2d47 563e
00000050: 0335 bfbe b3e0 3bbe c2d9 23bf 418d d3be
00000060: 23c6 06be 1f27 063f 01a6 b2be 7263 8b3c
00000070: 6ace dabe 23a0 55be c8f0 f8bd 93e0 1bbe
00000080: 0cf4 e6bd 2055 d4bd e06f f1bc ead5 0d3f
00000090: 4187 bd3b d808 1e3e a35e 88be 6fd0 8fbd
000000a0: af0b 5ebc a432 c4bd eef5 893e 2cba f4bd
000000b0: e593 b0be f992 0b3e 43b2 913e 36e4 db3d
000000c0: bc60 fc3d 22d4 1a3f 7ca7 663e 73bc 2cbe
000000d0: 74be 2e3e a8ac afbe 1a88 91be c168 61be
000000e0: 5a4e 963d 5a8e 743e bbe3 5cbe 6c22 253d
000000f0: 8dbe dcbe b40a f63c 9626 c6bc 96d7 b53c
00000100: 63ee d7be f76a 94be d164 14bf 43ed 4bbf
00000110: af19 68be f87a a0be 5ed7 513e eed2 c8bb
00000120: 0a42 c2be 5152 853e b713 573e 656d 8a3e
00000130: 951c 39be 0d6a 0fbf fdba 873e ca2d 983b
00000140: 02a0 03bf 21ca 97bf 762a 13be 58ee c4bd
00000150: 938e a8bd 6c17 113c c48e 6abd e40e 703d
00000160: 7cf8 b3be 0d35 0dbf a19b cdbe df29 4d3f
00000170: 7298 3fbe 073d 91be f0c1 633e 7b19 0a3e
00000180: 8ae0 a5bd 3d54 023e 82d5 14be 6b33 0ebf
00000190: b119 10be 40ab 39be 08b6 f03e 9aee 71bc
000001a0: f706 073c 6995 c0bd 534f d4be 06eb 28be
000001b0: 6267 373d ddaa 70be ca11 3c3c 2d55 87be
000001c0: c21c cabe 0d42 0fbf b627 68be 6a69 7b3d
000001d0: 5c33 27be 7eef ab3d 6756 a83e d40b 1fbe
000001e0: 1920 503d f567 37be 3a0c acbd 11ed c63e
000001f0: 7b23 933e adf6 0c3e 6446 833e a5cb b83c
00000200: b2ec f6bb 4a7f 3d3e dd57 ee3d 248d 21bf
00000210: 4595 043e 63b7 efbe 4883 e93e f03b 81bc
00000220: 569d 2bbe bb8d 24be 9ff8 84be 07eb 8cbd
00000230: ea3b 043e 6b9c 453d 41e8 f2be c93f a6bc
00000240: e2c1 55be b021 28bf 6ef8 eabe acfe 483d
00000250: fdc8 e63e d1a7 863e bf7d 973e e231 ab3e
00000260: 169f 57bd fe95 88be edb5 9e3e a77f 29bd
00000270: 601a d03e ebc2 95bd c0fe 9c3e 7010 53be
00000280: 6129 183f 408f 0c3f 76e5 c33e 36e3 fe3e
00000290: de1e 2f3f 6be4 693e b412 99be 4c46 9ebd
000002a0: 6ea7 1a3f 408f d6be a476 cdbe efb4 dbbe
000002b0: a69c 263f 3dea 053f fdce a4be af03 0bbf
000002c0: fc9b 1d3f 7977 123f 1523 0d3f f7db ea3e
000002d0: b540 69be b047 213f 5b65 133f 9592 44be
000002e0: 8839 393f b605 c53e 6b3d 9b3e 12e9 d3be
000002f0: 9670 b93e 0819 f03e 3535 88be 2837 2e3e
00000300: 2dd2 60bd 156e 18bf 5bb6 97bd 78ec c23e
00000310: 2403 81bc ff74 223e 8e22 20be 86b6 1a3c
00000320: 884a 90be 15b8 d43e b8ef e93e 4f32 da3d
00000330: 628c 18be 47fb 0ebe 0b65 9d3e ac8c dd3e
00000340: 6fb9 99be 8865 193f e95d 943e 586e 00bf
00000350: 4a3b 4e3e ef73 1abf 22d0 06bf d022 5abc
00000360: 6c5a 85bc f804 523e 0bdc c4be 62cf febd
00000370: 103f fabe 3a7f 3fbe 5436 8dbe 48fe 3cbe
00000380: 1c1e 6abe 28b2 2abe 4c2e 52be a075 1dbf
00000390: 14a5 87bd d05b 7bbe 5679 c93e 6130 9b3d
000003a0: 6090 61be db5d 1f3f 51cd 3e3d a0fc 433d
000003b0: a26d 5bbd 407b 8ebe 65b0 8ebe 8778 f13e
000003c0: aafb 38bf 07f9 2ebf 5cf8 2bbf e4a1 96be
000003d0: 4f1b f73e a803 28bd d845 c2bd 2551 e53e
000003e0: 58a3 5fbe bb8c 64bf 5087 3bbe db00 ae3e
000003f0: c464 16be d099 3ebe 58f7 223d 80f6 073d

bias f4 [8]
0.30255625 0.30825964 0.20219156 0.14489937 -0.29475212 -0.36128455 -0.18838151 -0.17122303
00000000: a7e8 9a3e 35d4 9d3e 4e0b 4f3e 8060 143e
00000010: c0e9 96be 4afa b8be 15e7 40be 1755 2fbe

weight f4 [64, 45]
-0.2041122 -0.5255405 -0.5697078 -0.11818674 -0.51200193 -0.6062349 -0.08553009 -0.67806
-0.6661173 -0.09213903 -0.60242957 -0.5141146 0.06459009 -0.5689002 -0.6774867 -0.02981288
-0.58809006 -0.62957513 0.116592854 -0.63208044 -0.69495714 0.015607109 -0.48116058 -0.53435546
0.045675147 -0.6648227 -0.4756828 0.10672068 -0.54978657 -0.47483793 -0.102556 -0.62126666
-0.49040896 -0.06049927 -0.61934316 -0.5304376 0.031126777 -0.61691254 -0.38409063 0.09122548
-0.55589074 -0.5301516 0.10832479 -0.42910898 -0.5529753 1.0391511 0.16476433 0.2734724
0.88889974 0.35184988 0.16045918 1.0839185 0.3226793 0.26010042 1.1283803 0.31186163
0.3161762 0.98343974 0.34877235 0.24555711 0.7361418 0.3831473 0.2451913 0.79732734
0.2351396 0.19545716 0.7544011 0.22040603 0.10753159 0.96473366 0.23489664 0.11806226
0.80374384 0.24247088 0.28839877 0.7922934 0.10618839 0.29882693 0.8228778 0.22619091
0.08121526 0.6987153 0.24851388 0.17879805 0.68369603 0.07585265 0.2212581 0.59581196
0.2609864 0.2853968 -0.78809816 -0.03325973 0.051569354 -0.6895469 -0.068566 0.12788096
-0.843984 0.111881964 0.12912738 -0.6586163 0.041128993 0.020458013 -0.61794317 0.091264896
0.17318238 -0.5896168 -0.090064645 0.14101397 -0.44607535 0.21241991 0.14720954 -0.32736617
0.2255965 0.19702648 -0.3140746 0.3582002 0.35361385 -0.4227922 0.115357354 0.1975043
-0.46333545 0.12345712 0.28323483 -0.33009815 0.110594206 0.31651035 -0.47995058 0.2067166
0.13426411 -0.3857059 0.18322155 0.2981095 -0.23023744 0.14082493 0.23494454 0.9234708
0.20517205 -0.025129782 0.80028075 0.10544918 0.039369706 0.8501255 0.014326668 0.10064322
0.7795799 0.11371032 0.10340772 0.8566333 -0.124616124 -0.007504294 0.6211771 0.12983036
0.050689105 0.516103 -0.2086348 -0.1317539 0.34326655 -0.28603256 -0.05164597 0.59186393
-0.09865119 -0.33092964 0.5875394 -0.23044719 -0.16441716 0.43758222 -0.21168052 -0.21209121
0.42553756 -0.31021434 -0.32692406 0.6354835 -0.16336058 -0.11345421 0.3658702 -0.21006328
-0.33023292 0.560425 -0.39403537 -0.24773718 -0.2792643 -0.5173165 -0.50296766 -0.10612706
-0.379942 -0.34684798 -0.27745607 -0.41167876 -0.28863147 -0.31472835 -0.43827036 -0.25898504
-0.17693277 -0.46400928 -0.49725857 -0.19574182 -0.44224733 -0.4693786 -0.3176839 -0.40419817
-0.27572173 -0.10425253 -0.28155044 -0.40537125 -0.30314344 -0.2997589 -0.19305539 -0.03994361
-0.16264145 -0.20365797 -0.21501848 -0.06259037 -0.08370565 -0.019879406 -0.3082242 -0.23599286
-0.028711695 -0.17373347 -0.1845103 0.02606025 -0.12849203 -0.03599676 -0.06496693 -0.08082603
-0.019774897 1.2810847 0.24476211 0.2927808 1.1838653 0.07065129 0.102699175 1.0867642
0.10897811 0.16687565 1.2944008 0.099833 0.25836423 1.3325363 0.07696738 0.072397545
1.00197 0.21230392 0.02932804 1.0138515 -0.01243803 0.19312553 1.0416061 -0.059343483
0.0032375844 0.90809953 0.10430312 -0.037948795 0.9309092 0.044880904 -0.0830686 0.7239819
00000000: ca02 51be d289 06bf 5fd8 11bf e40b f2bd
00000010: 8f12 03bf 3632 1bbf 662a afbd 5795 2dbf
00000020: aa86 2abf 63b3 bcbd d338 1abf 049d 03bf
00000030: cf47 843d 72a3 11bf c56f 2dbf 243a f4bc
00000040: 128d 16bf d62b 21bf 3cc8 ee3d 06d0 21bf
00000050: b6e8 31bf f6b4 7f3c ae5a f6be 85cb 08bf
00000060: dd15 3b3d d231 2abf b28c f3be 5f90 da3d
00000070: d0be 0cbf f51d f3be e108 d2bd 550b 1fbf
00000080: e216 fbbe 15ce 77bd 468d 1ebf c2ca 07bf
00000090: 95fd fe3c fbed 1dbf 87a7 c4be 6dd4 ba3d
000000a0: db4e 0ebf 04b8 07bf 63d9 dd3d 2cb4 dbbe
000000b0: ca8f 0dbf e702 853f fbb7 283e 9304 8c3e
000000c0: ef8e 633f ab25 b43e 694f 243e d7bd 8a3f
000000d0: 3936 a53e e22b 853e c46e 903f 54ac 9f3e
000000e0: d9e1 a13e b5c2 7b3f 4a92 b23e 5373 7b3e
000000f0: ca73 3c3f e22b c43e 6e13 7b3e a51d 4c3f
00000100: 6fc8 703e ec25 483e 6e20 413f 1eb2 613e
00000110: 8639 dc3d c9f8 763f bf88 703e a0ca f13d
00000120: 28c2 4d3f 494a 783e 01a9 933e bed3 4a3f
00000130: 4c79 d93d d8ff 983e 1fa8 523f 979e 673e
00000140: 3054 a63d 02df 323f 6c7a 7e3e d616 373e
00000150: b406 2f3f a258 9b3d 7c91 623e 2287 183f
00000160: 02a0 853e 881f 923e cdc0 49bf 5b3b 08bd
00000170: 633a 533d 2586 30bf 556c 8cbd 3af3 023e
00000180: 560f 58bf 5f22 e53d f839 043e 149b 28bf
00000190: e076 283d 9097 a73c 8631 1ebf 17e9 ba3d
000001a0: b956 313e 20f1 16bf d073 b8bd f765 103e
000001b0: fd63 e4be 9b84 593e 19be 163e 8a9c a7be
000001c0: c502 673e 4fc1 493e 63ce a0be 0466 b73e
000001d0: e00c b53e 3878 d8be 7a40 ec3d 913e 4a3e
000001e0: 4e3a edbe 16d7 fc3d 2804 913e a002 a9be
000001f0: 377f e23d a50d a23e 15bc f5be 84ad 533e
00000200: 887c 093e 3e7b c5be 6e9e 3b3e cfa1 983e
00000210: 5dc3 6bbe 6934 103e 4d95 703e 9568 6c3f
00000220: 9f18 523e f9dc cdbc 33df 4c3f bdf5 d73d
00000230: 2142 213d d3a1 593f 67ba 6a3c 081e ce3d
00000240: 8c92 473f f5e0 e83d 6dc7 d33d 524c 5b3f
00000250: bd36 ffbd 95e6 f5bb 7605 1f3f 40f2 043e
00000260: 619f 4f3d 541f 043f 5ca4 55be 7fea 06be
00000270: a2c0 af3e dc72 92be ba8a 53bd 6584 173f
00000280: a309 cabd 9c6f a9be fb68 163f 59fa 6bbe
00000290: f95c 28be c70a e03e c7c2 58be 702e 59be
000002a0: 0fe0 d93e 6ad4 9ebe 9762 a7be 0caf 223f
000002b0: ff47 27be ae5a e8bd 5753 bb3e d41a 57be
000002c0: 4a14 a9be 0378 0f3f 01bf c9be d1ae 7dbe
000002d0: bbfb 8ebe db6e 04bf 7dc2 00bf 2559 d9bd
000002e0: c287 c2be 0f96 b1be b90e 8ebe 8fc7 d2be
000002f0: 81c7 93be 1324 a1be f964 e0be b099 84be
00000300: dd2d 35be a092 edbe ad98 febe 8b70 48be
00000310: 3e6e e2be 6452 f0be 77a7 a2be 10f3 cebe
00000320: 662b 8dbe 5a82 d5bd 6127 90be d28c cfbe
00000330: 9e35 9bbe 007a 99be 50b0 45be e99b 23bd
00000340: 7b8b 26be b78b 50be ce2d 5cbe 612f 80bd
00000350: de6d abbd 23da a2bc 90cf 9dbe 1da8 71be
00000360: ca34 ebbc 30e7 31be 45f0 3cbe 4e7c d53c
00000370: 6a93 03be 5771 13bd 620d 85bd 1e88 a5bd
00000380: f7fe a1bc 95fa a33f eba2 7a3e 5de7 953e
00000390: e688 973f a0b1 903d f253 d23d 171b 8b3f
000003a0: ea2f df3d 73e1 2a3e edae a53f 3e75 cc3d
000003b0: 5148 843e 8d90 aa3f 13a1 9d3d 2a45 943d
000003c0: 8e40 803f 3366 593e 5c41 f03c e3c5 813f
000003d0: e1c8 4bbc b3c2 453e 5953 853f 2712 73bd
000003e0: a72d 543b 3679 683f e09c d53d 3270 1bbd
000003f0: 1150 6e3f 0ad5 373d df1f aabd e156 393f

bias f4 [64]
-0.12443028 -0.78812736 1.0620223 -0.9487636 -0.018822625 -0.8356128 0.6812241 0.5229592
-0.9393339 -0.7498489 -0.04845762 -0.38505372 -0.8700659 -0.46652362 0.64723176 0.26046318
1.2321782 0.47971344 -0.4031112 -0.15525422 -0.6273794 0.6452563 0.18633944 -0.7629858
-0.34124866 -0.23350233 -0.28530893 1.0259242 -0.23456696 0.8036373 -0.30829203 0.20820329
0.5277508 -0.50408703 0.94891465 -0.44506204 -0.76277995 0.31390512 -0.37892255 0.7937976
0.8402228 -0.7828626 0.45039484 0.023219088 0.41463464 -0.63425326 -0.42311117 0.9956074
-0.34144673 -0.90991646 -0.70428956 -0.62691164 0.46192637 -0.20872532 -0.041061237 0.89610726
0.46987617 1.0283806 -0.3411561 -0.047095235 0.6981929 -0.64124733 -0.65007186 0.72376996
00000000: 4dd5 febd b7c2 49bf 59f0 873f 2ce2 72bf
00000010: e831 9abc b8ea 55bf b464 2e3f a7e0 053f
00000020: 3078 70bf 19f6 3fbf 7f7b 46bd c325 c5be
00000030: a4bc 5ebf 2fdc eebe fbb0 253f 6e5b 853e
00000040: 04b8 9d3f 009d f53e 9764 cebe f6fa 1ebe
00000050: f09b 20bf 842f 253f c4cf 3e3e 0a53 43bf
00000060: 25b8 aebe 3c1b 6fbe 0314 92be 7c51 833f
00000070: 5232 70be 2dbb 4d3f 74d8 9dbe 3e33 553e
00000080: ad1a 073f d90b 01bf 12ec 723f 2cdf e3be
00000090: 8c45 43bf 2cb8 a03e 2302 c2be 5236 4b3f
000000a0: d718 573f af69 48bf 279a e63e f535 be3c
000000b0: fe4a d43e 6c5e 22bf 07a2 d8be 20e0 7e3f
000000c0: 1bd2 aebe 49f0 68bf 524c 34bf 487d 20bf
000000d0: 9d81 ec3e 17bc 55be d42f 28bd 4967 653f
000000e0: 9c93 f03e faa1 833f 03ac aebe efe6 40bd
000000f0: c5bc 323f c928 24bf 1c6b 26bf fd48 393f

weight f4 [32, 64]
0.053119972 0.19597058 -0.24125117 0.4489023 -0.18835811 0.38965684 -0.5430324 -0.12136057
0.63721675 0.61965865 -0.15999945 0.09644438 0.22082734 0.20921442 -0.21294297 0.00787436
-0.4637122 -0.2994879 0.16669446 -0.088405065 1.0003823 -0.26997676 -0.13000536 0.15700287
0.09786287 0.0036413027 0.06325928 -0.68129647 -0.02346043 -1.0860969 -0.2735923 -0.00510137
0.36320055 0.657335 -0.50855106 1.1177408 1.0500797 -0.51777196 0.2200499 0.12020647
-0.31887498 0.95063853 -0.20372309 0.07970386 -0.39268267 0.61272913 0.1415315 -0.5048076
0.03046666 0.68773824 0.4973013 1.1119787 -0.39027193 -0.09454734 -0.11708154 -0.93691546
0.2740696 -0.8753742 0.1444613 0.056284543 -0.36312187 0.09792183 0.93226355 -0.6428856
-0.17268875 -0.24397254 0.2632199 -0.41178882 0.20043737 -0.65717864 0.30532712 0.013887259
-0.43827587 -0.55397594 0.1555486 0.07432998 -0.111300565 -0.15783854 0.08302788 -0.11326541
0.2115774 0.2930817 0.0057653254 -0.026090307 -0.66615444 0.17871594 0.07474496 -0.24547353
-0.13156877 -0.0473426 0.08360498 0.5312342 0.05755154 0.53160447 0.15674242 -0.14350727
-0.3746624 -0.5522158 0.34034535 -0.77931607 -0.80931973 0.3200921 -0.40728688 -0.14318855
0.4189069 -0.7811485 0.4076103 0.04293405 0.46589008 -0.54718214 -0.07372696 0.4053922
0.16296832 -0.65527076 -0.5009648 -0.8895366 0.43464836 -0.08896668 0.2738394 0.74747807
-0.4579873 0.88927734 0.12606555 -0.02365662 0.4386052 -0.20426284 -0.57529736 0.57480836
0.035339553 0.38265464 -0.44794172 0.43267477 0.18953174 0.22973187 -0.25761375 -0.1660004
0.30588722 0.1761646 0.0057540964 0.23998286 0.045967806 0.2189876 -0.14602293 -0.013332288
-0.16000415 -0.1204946 0.15157388 0.12411857 0.3664106 -0.20338728 -0.1456055 0.42863616
0.19428606 0.007398838 0.23728167 -0.26978385 0.16736162 0.03585979 0.018482668 -0.18931626
-0.17234814 0.29055065 -0.3150519 0.3576406 0.31304538 -0.026253298 0.22003023 -0.21735358
-0.5021236 0.15551768 -0.12908573 0.09725708 -0.1391533 0.32747373 0.1469926 -0.19461288
0.31777406 0.14780582 0.31021857 0.21376835 -0.08484855 -0.10858244 -0.016296547 -0.42000115
-0.13105881 -0.25720292 0.26623634 -0.0211019 -0.07219797 0.3252848 0.25964212 -0.18684417
0.5625917 -0.17419833 0.22550398 -0.35498488 0.32238308 0.17235601 0.23682822 -0.5297855
-0.5539711 -0.26452196 0.19103561 0.43312442 -0.49898434 0.36963046 -0.21296999 -0.19858819
0.19274788 0.55361086 0.3954197 0.39123756 -0.2619116 0.43230775 -0.4170783 -0.23363128
0.5363012 0.35863122 -0.23537484 0.033207648 0.16508901 0.002894199 0.21434714 -0.28497848
0.11051921 -0.21348059 0.3293094 -0.19844376 -0.31123593 0.7519668 -0.04584556 0.16201207
0.44942194 -0.30621105 0.21844198 0.89821726 0.20859976 -0.2140561 0.59053904 0.34567556
0.36027303 -0.25717318 -0.48904222 -0.24549374 0.6073071 -0.5996739 0.26222914 0.33126727
0.16678478 0.38484615 0.48287198 0.994299 0.32512805 -0.29924798 -0.22754169 0.6884605
00000000: 5494 593d 83ac 483e 8c0a 77be 86d6 e53e
00000010: f3e0 40be 1a81 c73e 2c04 0bbf e48b f8bd
00000020: a320 233f f3a1 1e3f e5d6 23be a284 c53d
00000030: 9020 623e 4e3c 563e b90d 5abe 7603 013c
00000040: af6b edbe 7a56 99be f4b1 2a3e b70d b5bd
00000050: 870c 803f 653a 8abe 2020 05be 5cc5 203e
00000060: 546c c83d eca2 6e3b 158e 813d 7269 2ebf
00000070: 1630 c0bc 3905 8bbf 4a14 8cbe 6529 a7bb
00000080: 6cf5 b93e 1b47 283f 6730 02bf 2112 8f3f
00000090: 0369 863f b48c 04bf c354 613e cf2e f63d
000000a0: 9543 a3be 0c5d 733f c99c 50be c73b a33d
000000b0: b40d c9be d1db 1c3f a2ed 103e 123b 01bf
000000c0: 3895 f93c 9d0f 303f 479e fe3e 5155 8e3f
000000d0: b9d1 c7be 09a2 c1bd 72c8 efbd b1d9 6fbf
000000e0: da52 8c3e 8618 60bf aaed 133e 9f8a 663d
000000f0: 1ceb b9be 3e8b c83d d3a8 6e3f 2794 24bf
00000100: 52d5 30be f0d3 79be c2c4 863e fcd5 d2be
00000110: 743f 4d3e dc3c 28bf d653 9c3e 6387 633c
00000120: b265 e0be 5ed1 0dbf 2248 1f3e 513a 983d
00000130: 8df1 e3bd 6da0 21be 850a aa3d b2f7 e7bd
00000140: bfa7 583e ce0e 963e 0eeb bc3b 57bb d5bc
00000150: 1989 2abf 5001 373e e313 993d 6a5d 7bbe
00000160: f7b9 06be 50ea 41bd 1639 ab3d f7fe 073f
00000170: 2abb 6b3d 3b17 083f 1681 203e 92f3 12be
00000180: c0d3 bfbe 045e 0dbf bf41 ae3e 4281 47bf
00000190: 942f 4fbf 1de3 a33e e887 d0be 05a0 12be
000001a0: f77a d63e 59f9 47bf 4cb2 d03e 9ddb 2f3d
000001b0: 2589 ee3e 2114 0cbf 29fe 96bd 918f cf3e
000001c0: 2be1 263e d3bf 27bf 3b3f 00bf acb8 63bf
000001d0: 3b8a de3e 2a34 b6bd ae34 8c3e b95a 3f3f
000001e0: 507d eabe aea7 633f 5417 013e 87cb c1bc
000001f0: dc90 e03e 472a 51be b046 13bf a426 133f
00000200: 35c0 103d 4feb c33e 9e58 e5be 8c87 dd3e
00000210: 9c14 423e d53e 6b3e f3e5 83be 02fc 29be
00000220: 409d 9c3e 7e64 343e dc8c bc3b 11be 753e
00000230: bd48 3c3d 493e 603e 0987 15be ab6f 5abc
00000240: 21d8 23be dfc5 f6bd 2f36 1b3e e031 fe3d
00000250: 2c9a bb3e c144 50be 9c19 15be 3376 db3e
00000260: edf2 463e f471 f23b f7f9 723e 1c21 8abe
00000270: d860 2b3e b7e1 123d f768 973c 1fdc 41be
00000280: 087c 30be 0ec3 943e 7c4e a1be ab1c b73e
00000290: 7c47 a03e 2811 d7bc 9b4f 613e f091 5ebe
000002a0: 2c8b 00bf 0740 1f3e 0d2f 04be b82e c73d
000002b0: 347e 0ebe a3aa a73e 3a85 163e 9948 47be
000002c0: 48b3 a23e 695a 173e f8d4 9e3e 17e6 5a3e
000002d0: 14c5 adbd 7860 debd 5680 85bc 640a d7be
000002e0: 4834 06be 1ab0 83be 2150 883e e4dd acbc
000002f0: 87dc 93bd bb8b a63e d0ef 843e 1454 3fbe
00000300: 0206 103f 0c61 32be 84ea 663e 94c0 b5be
00000310: 650f a53e 187e 303e 1983 723e 06a0 07bf
00000320: 0dd1 0dbf 6c6f 87be d79e 433e 7cc2 dd3e
00000330: e07a ffbe 3440 bd3e ce14 5abe b45a 4bbe
00000340: b35f 453e 71b9 0d3f 7374 ca3e 4a50 c83e
00000350: 4719 86be 7157 dd3e 498b d5be 0a3d 6fbe
00000360: 094b 093f 839e b73e 1a06 71be be04 083d
00000370: 180d 293e 9aac 3d3b d17d 5b3e b3e8 91be
00000380: e557 e23d a89a 5abe 3e9b a83e d734 4bbe
00000390: 515a 9fbe e580 403f 8ec8 3bbd 7ee6 253e
000003a0: a21a e63e b2c7 9cbe 41af 5f3e 91f1 653f
000003b0: 2d9b 553e 8631 5bbe 912d 173f 63fc b03e
000003c0: b575 b83e 34ac 83be be63 fabe b662 7bbe
000003d0: 7a78 1b3f 3b84 19bf e642 863e dd9b a93e
000003e0: a1c9 2a3e 8e0a c53e ff3a f73e 618a 7e3f
000003f0: 2f77 a63e 0837 99be b000 69be f33e 303f

bias f4 [32]
-0.13591027 0.018700233 0.13314383 0.3153675 0.13552988 0.078376316 -0.1746994 0.038815346
0.37057012 0.20687994 0.048752464 -0.14887321 0.42963067 -0.31946722 -0.3993261 -0.05698821
0.009215681 -0.0043868627 0.3223364 0.08620756 -0.09550212 0.011011602 0.04074003 -0.684049
0.3161545 0.090784565 0.017770255 -0.768127 0.28078008 -0.1153863 -0.24124807 -0.17350885
00000000: 102c 0bbe 3b31 993c db56 083e d977 a13e
00000010: 58c8 0a3e c383 a03d 66e4 32be d7fc 1e3d
00000020: 5ebb bd3e 56d8 533e aab0 473d 3872 18be
00000030: 8df8 db3e 3591 a3be 7874 ccbe 786c 69bd
00000040: 5efd 163c acbf 8fbb 4709 a53e 978d b03d
00000050: 9e96 c3bd 026a 343c 05df 263d d61d 2fbf
00000060: 01df a13e 42ed b93d ed92 913c f9a3 44bf
00000070: 68c2 8f3e a74f ecbd bc09 77be 4eac 31be

weight f4 [8, 32]
0.5521162 -0.32094792 0.3411458 -0.65611064 0.0003033172 -0.30958948 0.45438364 0.60398006
-0.37746134 0.9410774 -0.56811094 0.21596624 -0.38377514 -0.8066836 -0.1356094 0.6428967
0.84448904 -0.4197712 -0.557309 0.40360487 -0.47072944 0.060168274 -1.0256801 0.6738438
0.047607813 0.7115355 -0.020232487 0.37100568 -0.43285733 0.06693407 0.23329806 -0.278052
0.6786489 -0.17158805 -0.056208227 -0.88663507 0.27024665 -0.57506025 0.5327309 0.98048615
-0.5090483 0.7601355 -0.23672849 0.41017675 -0.23193859 -0.5354854 -0.072164215 0.69952846
1.0087764 -0.46283656 -0.4894528 0.24334596 -0.04392683 -0.04223349 -1.0600636 -0.11068215
0.15335755 0.051170245 0.032076176 0.53123397 -0.48290962 0.020090215 0.5726988 0.02955489
-0.41615638 0.22318994 -0.095445216 0.2973629 -0.6945918 0.6058924 -0.06796537 -0.64914966
0.4328872 -0.59993774 -0.0707167 -0.27964535 0.56442577 0.17638397 6.5981076e-05 -0.2243116
-0.6716763 0.081654675 0.5306625 -0.5154746 0.27017978 -0.16106936 0.8149057 0.02476507
-0.21088669 0.36477444 -0.12611556 -0.2679854 0.024605228 -0.037356973 -0.67339724 0.21011886
0.37009093 -0.27220353 -0.1452904 -0.56305474 0.572776 -0.559925 0.3219972 0.38036653
-0.63909495 0.68365663 0.2798615 0.13857207 -0.59671205 -0.02573419 0.05016068 0.382613
0.69462925 -0.09426222 -0.3835866 0.45121235 -0.14249402 -0.32020026 -1.1602615 -0.3222907
-0.19834478 -0.5696552 0.52828616 0.4857255 -0.08182995 0.13995276 0.5971356 0.105974875
0.605941 -0.17899913 -0.16448781 -0.68297833 0.1928771 -0.4955784 0.42391494 0.9538812
-0.6053696 0.8056935 -0.3459749 0.57848024 -0.30476797 -0.4622331 0.0237934 0.6458614
1.0857859 -0.5466991 -0.47394586 0.10429811 -0.31797272 -0.02216777 -1.191494 0.1417921
0.04091555 0.18727447 -0.0030129997 0.4241413 -0.4108314 -0.038449068 0.711033 0.08520878
0.7595642 -0.4580915 -0.09538514 -0.9340197 0.21302469 -0.51596624 0.66342175 0.6689779
-0.39409807 0.77681607 -0.22635466 0.4167519 -0.6167252 -0.6231671 -0.33636102 0.9519139
1.0217651 -0.37927613 -0.58400166 0.5750988 -0.10296108 -0.08256342 -1.0549859 0.45989722
0.083412275 0.29467162 0.09786066 0.6508486 -0.7162854 0.24792878 0.47230268 0.027537446
-0.43394336 0.55028903 -0.44697168 0.3087311 -0.43916556 0.41171047 -0.16151972 -0.23047246
0.14009725 -0.6373308 0.033383343 -0.33639184 0.35824943 0.36833563 0.67043495 -0.2297353
-0.6942702 0.2798635 0.31449708 -0.33811986 0.6769527 0.06294995 0.5544711 -0.13148169
-0.5352888 -0.31317785 -0.11500708 -0.346546 0.11808439 -0.3968546 -0.45914415 0.49440423
0.7840365 -0.48611063 0.029648002 -0.67401695 0.017022058 -0.11010227 0.73382676 0.61951935
-0.5530282 0.6992706 -0.55936384 0.51312834 -0.27807567 -0.7452265 -0.2455129 0.9264286
0.6643352 -0.6922678 -0.27627355 0.28059095 -0.364408 0.08283842 -1.1919645 0.3807965
0.09111052 0.7678556 -0.024718713 0.70753485 -0.73175913 0.053204156 0.1391797 -0.14519015
00000000: 7d57 0d3f 4953 a4be aaaa ae3e def6 27bf
00000010: 8c06 9f39 8382 9ebe f9a4 e83e 709e 1a3f
00000020: 9d42 c1be 73ea 703f b86f 11bf 4126 5d3e
00000030: 2d7e c4be d182 4ebf 31dd 0abe e194 243f
00000040: 6f30 583f 40ec d6be cdab 0ebf 4ca5 ce3e
00000050: 7303 f1be 0273 763d 7c49 83bf 0781 2c3f
00000060: 6900 433d 3127 363f 9abe a5bc 75f4 bd3e
00000070: 7a9f ddbe bb14 893d b0e5 6e3e d55c 8ebe
00000080: efbb 2d3f c7b4 2fbe 993a 66bd 84fa 62bf
00000090: c55d 8a3e 2637 13bf 0d61 083f 2401 7b3f
000000a0: fd50 02bf 3d98 423f f468 72be b002 d23e
000000b0: 4f81 6dbe 9215 09bf d5ca 93bd 4c14 333f
000000c0: 961f 813f eaf8 ecbe 8f99 fabe af2f 793e
000000d0: 9fec 33bd 06fd 2cbd 2ab0 87bf 53ad e2bd
000000e0: c309 1d3e e497 513d 4f62 033d f3fe 073f
000000f0: ee3f f7be 3c94 a43c 639c 123f 191d f23c
00000100: 7312 d5be e78b 643e c878 c3bd f33f 983e
00000110: c5d0 31bf c41b 1b3f 6e31 8bbd ac2e 26bf
00000120: 64a3 dd3e 8595 19bf ebd3 90bd ad2d 8fbe
00000130: 357e 103f 009e 343e 525f 8a38 f1b1 65be
00000140: faf2 2bbf 913a a73d 7fd9 073f 25f6 03bf
00000150: 0155 8a3e 5eef 24be a99d 503f 1ee0 ca3c
00000160: aef2 57be b7c3 ba3e 7024 01be 6235 89be
00000170: e790 c93c a003 19bd c363 2cbf 6629 573e
00000180: 8f7c bd3e 435e 8bbe 02c7 14be 5b24 10bf
00000190: 73a1 123f 3f57 0fbf d1dc a43e 67bf c23e
000001a0: ba9b 23bf 1f04 2f3f 024a 8f3e d6e5 0d3e
000001b0: 1fc2 18bf 82d0 d2bc 4975 4d3d dae5 c33e
000001c0: 39d3 313f 8d0c c1bd 7665 c4be 4e05 e73e
000001d0: f4e9 11be 4af1 a3be 7383 94bf 4903 a5be
000001e0: e51a 4bbe ecd4 11bf c33d 073f 03b1 f83e
000001f0: 7696 a7bd c74f 0f3e e1dd 183f 5b09 d93d
00000200: f31e 1b3f 8c4b 37be 7e6f 28be abd7 2ebf
00000210: 9381 453e 74bc fdbe 610b d93e 8f31 743f
00000220: 81f9 1abf ee41 4e3f 9f23 b1be 4817 143f
00000230: 8c0a 9cbe d1a9 ecbe 60ea c23c 2c57 253f
00000240: 08fb 8a3f 79f4 0bbf 08a9 f2be 3f9a d53d
00000250: 52cd a2be 2f99 b5bc e082 98bf f331 113e
00000260: 1097 273d e1c4 3f3e bf75 45bb 0c29 d93e
00000270: 7e58 d2be c57c 1dbd 4206 363f f181 ae3d
00000280: cd72 423f f88a eabe 4959 c3bd ea1b 6fbf
00000290: 2523 5a3e 5d16 04bf 02d6 293f 2342 2b3f
000002a0: 39c7 c9be 6bdd 463f 84c9 67be 8160 d53e
000002b0: b4e1 1dbf e187 1fbf 8337 acbe a1b0 733f
000002c0: 33c9 823f 7b30 c2be 2281 15bf ad39 133f
000002d0: 42dd d2bd 0317 a9bd c709 87bf a677 eb3e
000002e0: 0ed4 aa3d 33df 963e 2b6b c83d 049e 263f
000002f0: 7b5e 37bf 0be1 7d3e a8d1 f13e 3696 e13c
00000300: d32d debe bedf 0c3f 79d9 e4be 0112 9e3e
00000310: 4fda e0be b7cb d23e 6d65 25be f900 6cbe
00000320: a775 0f3e 1c28 23bf f9bc 083d 8d3b acbe
00000330: 786c b73e 7d96 bc3e a0a1 2b3f bb3f 6bbe
00000340: b1bb 31bf 454a 8f3e c305 a13e 0c1e adbe
00000350: c64c 2d3f e7eb 803d d1f1 0d3f 23a3 06be
00000360: b008 09bf d958 a0be d588 ebbd 7a6e b1be
00000370: 3bd6 f13d 8730 cbbe f114 ebbe 8d22 fd3e
00000380: 9eb6 483f 7ee3 f8be 5ee0 f23c 608c 2cbf
00000390: d871 8b3c 4d7d e1bd 12dc 3b3f d298 1e3f
000003a0: 4293 0dbf 6603 333f 7832 0fbf 615c 033f
000003b0: ef5f 8ebe 2ac7 3ebf bc67 7bbe 6d2a 6d3f
000003c0: df11 2a3f 7638 31bf ba73 8dbe 9ea9 8f3e
000003d0: af93 babe 31a7 a93d 4b92 98bf c2f7 c23e
000003e0: 2798 ba3d 2f92 443f e67e cabc 0121 353f
000003f0: 9154 3bbf 9aec 593d 2085 0e3e baac 14be

bias f4 [8]
-0.3060374 0.11893375 0.3139267 0.025146158 0.3758136 -0.5165918 0.13300014 -0.4855595
00000000: efb0 9cbe 8a93 f33d 00bb a03e 51ff cd3c
00000010: a46a c03e 5c3f 04bf 3031 083e 419b f8be

weight f4 [32, 16]
-0.5514788 -0.48838058 0.4228773 0.33080932 0.18119313 0.38006556 -0.18656193 0.29265955
-0.55527407 -0.6820614 0.2934313 -0.065924585 -0.30547303 -0.592201 0.082277015 -0.84890646
-0.37447456 -0.2709138 0.31917858 0.20203994 0.548408 -0.03225617 -0.5016043 0.3681404
0.42460725 0.5955326 -0.7498235 0.62387264 0.47375062 0.90224665 -0.83990395 0.095177755
0.22373597 0.13223279 0.11856671 -0.14112721 0.031047171 0.39109486 -0.15232795 0.13106158
-0.23172666 -0.8689197 -0.4114345 -0.025381835 -1.0913243 -1.0358014 -0.1728399 -0.71143746
-0.34684893 0.3890718 -0.5677667 -0.38471806 -0.65975124 0.22315432 -0.15032531 -0.052095607
-0.12137337 -0.5180848 0.5360414 -1.0320837 -0.6834938 -0.44984362 0.32974288 0.10505849
-0.25671548 0.37868607 -0.33975694 -0.10244266 -0.0018838273 0.0873757 0.12901159 0.04336351
-0.6714545 -0.5318724 0.46372363 -0.45112863 -0.38902384 -1.0404896 0.0020334881 -0.8962388
-0.0773775 -0.3633102 0.116687566 0.36935687 0.08092356 -0.16597082 -0.38662645 0.17138696
-0.5897057 -0.5161704 0.114403605 0.07612159 -1.1077448 -0.35637182 0.13824238 -0.22794278
0.4209489 -0.16618389 -0.24381839 -0.11220774 -0.1737199 0.45863903 0.2324673 -0.36677918
0.4858537 0.67164165 -0.5816397 0.47121772 0.67086816 0.73403263 -0.2852851 0.5026029
-0.23468271 -0.26451886 0.23030142 0.111015104 0.035831425 0.15018842 0.029585406 0.15691262
-0.8636778 -0.7414327 -0.21819821 -0.013704092 -0.2134932 -0.88476413 0.16766894 -0.6525716
-0.015317542 -0.29511425 1.0660685 0.5582246 0.009563699 -0.29837403 -0.1869005 0.35594425
0.578764 -0.056398686 0.1447767 -0.16405393 -0.08359845 0.007009493 -0.31448835 0.3763612
-0.47661048 -0.8775475 0.7698029 0.5755959 0.74969935 -0.55048376 -0.913027 0.53066117
0.023923934 -0.03457329 0.348032 -0.32628906 0.2503869 0.026785541 -0.09776977 -0.028215725
-0.2484542 0.027303115 0.43640235 0.26794976 -0.027077163 -0.12086914 0.039299875 0.20309415
0.5269696 0.47997764 -0.38484296 0.44185457 0.7813915 0.6441694 -0.30381674 0.494829
-0.2522745 -0.36397788 0.23945336 -0.0135844825 -0.029711965 -0.11784199 -0.20954545 0.15831943
0.39885703 0.45358998 -0.35889384 0.45580035 0.59194744 1.0870609 0.061854333 0.8563632
0.3470678 0.21959944 -0.82497525 -0.17429174 -0.56852627 0.2224907 0.01976711 -0.97274274
0.16561157 0.026932886 0.25766513 0.08865885 0.09341106 -0.1616016 -0.6938613 -0.22066468
0.4838695 0.48539463 0.13379097 0.14705712 0.4524231 -0.026297355 0.011005237 -0.37928876
-0.803422 -0.6426381 0.46412864 -0.08329268 -0.4424089 -0.8315909 0.16770793 -0.7008628
-0.2305866 0.056664243 -0.038268816 -0.5146631 -0.26364928 0.79052305 0.086718805 0.11349076
0.6438191 0.033420704 -0.37842235 -0.18231213 0.4451545 0.83258176 -0.11354398 0.7012867
0.030459946 -0.14410418 -0.3619965 -0.26426524 -0.3365741 0.971193 -0.11988408 -0.5970672
-0.29917222 -0.43044275 -0.29160428 -0.40181202 -0.5287339 -0.27021998 -0.1394944 -0.54024214
00000000: b72d 0dbf 050d fabe 6083 d83e d75f a93e
00000010: b18a 393e f497 c23e 170a 3fbe 79d7 953e
00000020: 7126 0ebf 939b 2ebf a13c 963e 7803 87bd
00000030: f666 9cbe 7c9a 17bf da80 a83d ef51 59bf
00000040: 21bb bfbe 37b5 8abe 606b a33e 8fe3 4e3e
00000050: 7764 0c3f 0c1f 04bd 2469 00bf e67c bc3e
00000060: 1f66 d93e d374 183f 6ff4 3fbf 1eb6 1f3f
00000070: 718f f23e a3f9 663f f203 57bf 8eec c23d
00000080: 0b1b 653e 0868 073e 1ad3 f23d a783 10be
00000090: a356 fe3c 963d c83e dcfb 1bbe 0235 063e
000000a0: c149 6dbe 8571 5ebf 8ba7 d2be 91ed cfbc
000000b0: 84b0 8bbf 2495 84bf f1fc 30be c420 36bf
000000c0: 2f96 b1be 6b34 c73e 2959 11bf c4f9 c4be
000000d0: 75e5 28bf 9182 643e e1ee 19be 3462 55bd
000000e0: 9a92 f8bd 35a1 04bf 023a 093f 521b 84bf
000000f0: 73f9 2ebf e751 e6be 0fd4 a83e e828 d73d
00000100: 3670 83be 24e3 c13e 9ff4 adbe 75cd d1bd
00000110: c1ea f6ba 08f2 b23d 9d1b 043e f09d 313d
00000120: 71e4 2bbf ca28 08bf 2f6d ed3e 55fa e6be
00000130: 222e c7be c32e 85bf 4544 053b e86f 65bf
00000140: 1878 9ebd cb03 babe e4f9 ee3d 581c bd3e
00000150: 40bb a53d 41f4 29be e7f3 c5be 1080 2f3e
00000160: f4f6 16bf be23 04bf 704c ea3d a3e5 9b3d
00000170: 95ca 8dbf 5e76 b6be 698f 0d3e d569 69be
00000180: 9d86 d73e 1c2c 2abe 87ab 79be 2ccd e5bd
00000190: a1e3 31be bcd2 ea3e e80b 6e3e 7bca bbbe
000001a0: d1c1 f83e b5f0 2b3f 57e6 14bf 7343 f13e
000001b0: 04be 2b3f 90e9 3b3f e310 92be 95aa 003f
000001c0: aa50 70be 046f 87be 23d4 6b3e e35b e33d
000001d0: f9c3 123d feca 193e 185d f23c b4ad 203e
000001e0: fd19 5dbf 89ce 3dbf 5a6f 5fbe 2187 60bc
000001f0: f69d 5abe e77f 62bf 68b1 2b3e ef0e 27bf
00000200: 6df6 7abc 3719 97be ef74 883f cfe7 0e3f
00000210: 10b1 1c3c 7bc4 98be d862 3fbe 533e b63e
00000220: e129 143f 4f02 67bd 5840 143e c1fd 27be
00000230: aa35 abbd e4af e53b 9e04 a1be 6ab2 c03e
00000240: 4a06 f4be f4a6 60bf ce11 453f 415a 133f
00000250: 4cec 3f3f 81ec 0cbf 23bc 69bf 69d9 073f
00000260: 20fc c33c b99c 0dbd 4031 b23e 5c0f a7be
00000270: b632 803e 5a6d db3c 843b c8bd aa24 e7bc
00000280: c76a 7ebe c8aa df3c 2170 df3e b630 893e
00000290: edd0 ddbc 3d8a f7bd e8f8 203d eaf7 4f3e
000002a0: 7be7 063f a1bf f53e 230a c5be c33a e23e
000002b0: 4609 483f 49e8 243f de8d 9bbe 3a5a fd3e
000002c0: 202a 81be 4f5b babe 4333 753e 7391 5ebc
000002d0: 8266 f3bc 2457 f1bd 1593 56be 7d1e 223e
000002e0: fd36 cc3e f23c e83e efc0 b7be aa5e e93e
000002f0: de89 173f d024 8b3f f85a 7d3d 9e3a 5b3f
00000300: dfb2 b13e adde 603e 9431 53bf 8979 32be
00000310: f08a 11bf 9ad4 633e a2ee a13c ab05 79bf
00000320: 1496 293e 5ba2 dc3c afec 833e c592 b53d
00000330: 4c4e bf3d e47a 25be e5a0 31bf ecf5 61be
00000340: bebd f73e a585 f83e 8000 093e 2496 163e
00000350: 00a4 e73e 8d6d d7bc 4f4f 343c 2332 c2be
00000360: 10ad 4dbf ee83 24bf 45a2 ed3e 5a95 aabd
00000370: 6b83 e2be 24e3 54bf a1bb 2b3e bf6b 33bf
00000380: e51e 6cbe c418 683d c3bf 1cbd f6c0 03bf
00000390: 0afd 86be b85f 4a3f a199 b13d d86d e83d
000003a0: 54d1 243f 26e4 083d 93c0 c1be 08b0 3abe
000003b0: 4aeb e33e 1424 553f bf89 e8bd 8687 333f
000003c0: 2387 f93c 0c90 13be 9b57 b9be c64d 87be
000003d0: 7153 acbe 1ba0 783f c985 f5bd 65d9 18bf
000003e0: 1a2d 99be fe62 dcbe 284d 95be 4eba cdbe
000003f0: 1b5b 07bf 465a 8abe 9fd7 0ebe 4f4d 0abf

bias f4 [32]
-0.096430644 0.13361593 0.3337058 -0.40011647 -0.10988884 -0.110067725 -0.11910576 0.28630364
0.05256849 -0.13644437 -0.14405987 -0.13319357 0.064191185 -0.090065986 -0.2420028 0.23905464
0.4161716 0.026420578 0.031785138 -0.13512991 -0.14111997 0.32157114 0.037598696 -0.10032861
-0.37464178 0.44352677 -0.02236408 0.24375242 -0.3518148 -0.20380542 0.97049785 0.37694594
00000000: 6e7d c5bd 9dd2 083e 7ddb aa3e 11dc ccbe
00000010: 660d e1bd 306b e1bd b8ed f3bd 6496 923e
00000020: 0f52 573d 13b8 0bbe 6e84 13be e563 08be
00000030: ab76 833d 8474 b8bd 95cf 77be bdca 743e
00000040: 7214 d53e f86f d83c 2231 023d 7f5f 0abe
00000050: c181 10be f9a4 a43e 1701 1a3d 1679 cdbd
00000060: 0cd1 bfbe f115 e33e e034 b7bc 3c9a 793e
00000070: 1221 b4be 5eb2 50be 8c72 783f 0fff c03e
