model/MMAE_10_32_0.01.pt (torch, 108235 bytes, 24 tensors)

weight f4 [64, 60]
0	0xbe0000e0	-0.12500334
1	0x2f7741a7	2.2487844e-10
2	0xbeb3833a	-0.35061055
3	0xbde3acd2	-0.11116947
4	0xbe1f5394	-0.15559226
5	0xaf9abb0f	-2.814535e-10
6	0xbe64ddcb	-0.22350232
7	0xbe1f9005	-0.15582283
8	0xbe9ac335	-0.30227056
9	0xaf1427ef	-1.3474709e-10
10	0xbea71acf	-0.3263764
11	0xbd070c40	-0.032970667
12	0xbdac6271	-0.08417214
13	0x2e14ad33	3.3805136e-11
14	0xbc685aea	-0.014181832
15	0xbd56b27c	-0.05241631
16	0xbe3a4620	-0.18190813
17	0xafec9797	-4.303586e-10
18	0xbd9f4477	-0.077767305
19	0xbd2c9ba2	-0.04214061
20	0xbe134353	-0.14381151
21	0x2f3fcaa8	1.7443347e-10
22	0xbcf38b81	-0.029729607
23	0x3ba264d2	0.0049558664
24	0xbe11381c	-0.1418156
25	0x2eef7d68	1.0890738e-10
26	0xbe62447e	-0.2209644
27	0xbe09e6a0	-0.13466883
28	0xbcaa9141	-0.020821216
29	0x2c0594e0	1.898308e-12
30	0xbdc187d2	-0.09449734
31	0x3c006403	0.007836345
32	0xbe064c78	-0.13115108
33	0x2ee33a48	1.0333118e-10
34	0xbdbadf92	-0.09124674
35	0xbc168f1f	-0.009189396
36	0xbd00bdf7	-0.031431165
37	0xad7a8528	-1.4240421e-11
38	0xbde2251d	-0.11042235
39	0xbd843653	-0.06455674
40	0x3d0b7032	0.034042545
41	0xad041df0	-7.509979e-12
42	0xbe001fc9	-0.12512125
43	0xbd87534d	-0.06607685
44	0xbe04ec8e	-0.12980863
45	0xad9152b5	-1.652132e-11
46	0x3d452531	0.04813117
47	0xbd460b8d	-0.04835086
48	0x3a83a643	0.0010044057
49	0x2f25a8e4	1.5066665e-10
50	0x3d77c45c	0.060489997
51	0xbe3f0c5b	-0.18657057
52	0x3d0772ae	0.03306835
53	0x2f0353b2	1.1944115e-10
54	0x3da1f2c7	0.07907634
55	0xbd92e70c	-0.07172975
56	0xbdc12ff1	-0.09432972
57	0xaefb6a74	-1.14330684e-10
58	0x3d5c7672	0.053823896
59	0xbe24826a	-0.16065374
60	0xbd11cdf5	-0.035596807
61	0x2ec21764	8.8262536e-11
62	0x3d9883d3	0.074470185
63	0x3d5c1b9d	0.05373727
64	0xbd50f2dc	-0.05101286
65	0xafab2edb	-3.1138012e-10
66	0x3c88577b	0.016643276
67	0x3de089ac	0.10963759
68	0x3d7705dd	0.060308326
69	0x2eafcaa1	7.994073e-11
70	0xbd0e4a8c	-0.034739062
71	0x3d309a91	0.043116156
72	0xbc109d9a	-0.008826638
73	0xadaefc78	-1.9893628e-11
74	0x3d9d7221	0.07687784
75	0x3d4cd16b	0.050004404
76	0xbce1e065	-0.02757282
77	0x2f3ab991	1.6982528e-10
78	0x3dad6a8f	0.0846759
79	0x3d37bf8f	0.04486042
80	0x3ddf66d2	0.10908283
81	0x2e1736c5	3.438207e-11
82	0x3d9bfecc	0.07616958
83	0x3d2c0de5	0.04200544
84	0x3d03a5d6	0.032140575
85	0xae5c1b84	-5.0046647e-11
86	0xbd093055	-0.03349336
87	0x3e07510b	0.13214509
88	0x3d9f0977	0.07765477
89	0xad1e3168	-8.992231e-12
90	0x3e191311	0.1494868
91	0x3d8f6806	0.07002263
92	0x3dd1585b	0.102219306
93	0x27b28800	4.9552376e-15
94	0x3dc47688	0.095929205
95	0x3c4d285d	0.01252183
96	0x3e2af735	0.16695864
97	0xaf4da4de	-1.8703214e-10
98	0x3e663ed9	0.22484912
99	0x3d4450e2	0.0479287
100	0x3dd2d461	0.10294414
101	0xaee919a0	-1.0600165e-10
102	0x3e30ec9b	0.17277758
103	0x3d8dbfb8	0.06921333
104	0x3e1fd3ac	0.1560809
105	0xadf70a7e	-2.8085308e-11
106	0x3e6a8610	0.22902703
107	0x3d51f720	0.051261067
108	0x3da74c55	0.08168856
109	0x2ea7c243	7.6287886e-11
110	0x3e762cb4	0.2404049
111	0x3cd2d986	0.025738489
112	0x3da388a7	0.07985049
113	0xae805bef	-5.837097e-11
114	0x3dc3ccf6	0.095605776
115	0x3d39e368	0.045382887
116	0x3db4bf8c	0.08825597
117	0xae82c188	-5.9460936e-11
118	0x3dfdcbc0	0.12392378
119	0x3df0b12d	0.117525436
120	0x3e5c4625	0.21511133
121	0x2e95ef4d	6.818244e-11
122	0x3eb37c44	0.35055745
123	0x3cb983a7	0.022645785
124	0x3e842130	0.2580657
125	0xaf76e9e4	-2.2456664e-10
126	0x3ea59b9d	0.32345286
127	0x3d569569	0.052388582
128	0x3e5566ae	0.2083995
129	0x2d8f2d6d	1.6277391e-11
130	0x3ecd05b2	0.40043408
131	0x3e2e6f26	0.17034587
132	0x3dd3a679	0.103344865
133	0x2da059a7	1.8229708e-11
134	0x3e30f33c	0.17280287
135	0x3d367b97	0.04455146
136	0x3e2ee567	0.17079698
137	0xaf879bb7	-2.4667e-10
138	0x3de21282	0.11038686
139	0x3db162b1	0.08661402
140	0x3e8d0dc5	0.27549568
141	0xaf56c9ce	-1.9534882e-10
142	0x3e19ca42	0.15018561
143	0x3d08e087	0.03341725
144	0x3e0a5ac9	0.13511194
145	0x2f5f0a28	2.028534e-10
146	0x3e894587	0.26810858
147	0x3c8c28ad	0.01710924
148	0x3d53cbf1	0.051708166
149	0x2f3f5140	1.7400215e-10
150	0x3de8398b	0.113391005
151	0x3a3957a4	0.00070702494
152	0x3aa14459	0.0012303694
153	0x2fabef06	3.1274555e-10
154	0x3dc773c2	0.09738876
155	0x3df26d0a	0.11837204
156	0x3d00b286	0.031420253
157	0xaf5e1c94	-2.0200935e-10
158	0x3d52eb9b	0.051494222
159	0x3e0812fe	0.13288495
160	0x3be29a46	0.0069153635
161	0x2d832224	1.4908137e-11
162	0xbdba7644	-0.09104589
163	0x3da9ec00	0.082969666
164	0xbc19ac5b	-0.009379472
165	0x2e35a382	4.129986e-11
166	0xbd6415c7	-0.05568483
167	0x3d73cdf3	0.05952258
168	0xbd0678b7	-0.032829966
169	0x2ff610f8	4.4759196e-10
170	0x3d0f08c7	0.03492048
171	0x3d4dc050	0.05023223
172	0x3d0a5da4	0.03378071
173	0x2e13cb82	3.360468e-11
174	0x3d2f30b0	0.04277104
175	0x3e182bb5	0.14860423
176	0xb8cefce4	-9.86995e-05
177	0x2ee103f3	1.0232517e-10
178	0x3deaec50	0.11470854
179	0x3e35f18e	0.17767927
180	0x3e9141a2	0.28370386
181	0xadc77d98	-2.2679456e-11
182	0x3e916186	0.28394717
183	0x3e748f5c	0.23882812
184	0x3e303ef9	0.17211522
185	0x2f754704	2.230785e-10
186	0x3e53cf92	0.2068465
187	0x3e07d669	0.13265385
188	0x3de18b9a	0.11012955
189	0x2f7e847e	2.3148236e-10
190	0x3e5aada9	0.21355309
191	0x3dea5ab3	0.11443081
192	0x3df66c4a	0.12032373
193	0x2d2b5c23	9.740683e-12
194	0xba87a772	-0.0010349585
195	0x3e4dd6e7	0.2010151
196	0x3e0c43c4	0.13697726
197	0x2d7ebae8	1.447973e-11
198	0x3bc70cc4	0.00607452
199	0x3e29ec53	0.16594057
200	0x3da9c11e	0.08288787
201	0x2d7c0e17	1.432767e-11
202	0x3dcb1f9e	0.0991814
203	0x3e1f2be9	0.15544094
204	0x3e1b1955	0.15146382
205	0x2d9c0bb4	1.7740344e-11
206	0x3e0c10ba	0.13678256
207	0x3dc4d88a	0.09611614
208	0xbd819e9a	-0.06329079
209	0xaee0f0f1	-1.02291405e-10
210	0x3ba16893	0.0049257963
211	0x3e86ce14	0.263291
212	0xbc64451c	-0.013932493
213	0xad9c9000	-1.7799096e-11
214	0xbdfd0e4b	-0.12356242
215	0x3e83eafa	0.2576521
216	0xbd6c5b6e	-0.05770438
217	0x2e000c7d	2.9114922e-11
218	0xbdbcc90e	-0.09218036
219	0x3e81ec51	0.25375608
220	0xbe3f557b	-0.18684952
221	0xad77f721	-1.4095198e-11
222	0xbe526421	-0.20546009
223	0x3dba0656	0.0908324
224	0xbe02e944	-0.12784296
225	0xac60d8c0	-3.1952635e-12
226	0xbe58cc59	-0.21171702
227	0x3e5c0699	0.21486892
228	0xbd8bb870	-0.06822288
229	0x2e3ec46e	4.3375463e-11
230	0xbd3b1447	-0.045673635
231	0x3e6da6d8	0.23208177
232	0xbcf9964d	-0.030467177
233	0x2ee14f04	1.02458514e-10
234	0xbd88aad2	-0.066732064
235	0x3e881466	0.26578063
236	0xbd271468	-0.040790945
237	0x2f4deaf4	1.8728114e-10
238	0xbd87f9fc	-0.066394776
239	0x3e5e7cfd	0.21727367
240	0xbd968706	-0.073499724
241	0xad3aa8c4	-1.0610349e-11
242	0x3d6c4f41	0.05769277
243	0x3b102c7b	0.0021999169
244	0xbd94e6fd	-0.0727062
245	0xafc29f80	-3.5401726e-10
246	0xbb44ee13	-0.003004913
247	0x3c091945	0.008367841
248	0x3d20daec	0.03927128
249	0x2ed3819e	9.618194e-11
250	0xbd2ef474	-0.042713597
251	0xbd691560	-0.05690515
252	0xbced7f26	-0.028991293
253	0x2e873ffb	6.1504545e-11
254	0xbde03c27	-0.10948973
255	0x3d6b437b	0.0574374

bias f4 [64]
0	0x3e1e4c91	0.15458895
1	0x3d61f017	0.05516061
2	0xbe1cb7e9	-0.15304531
3	0xbe1318b2	-0.1436489
4	0xbd830187	-0.06396776
5	0x3e8e0008	0.277344
6	0xbe979cf7	-0.29611942
7	0x3e4fb651	0.20284392
8	0xbdd3792d	-0.10325847
9	0xbe8b032d	-0.2715086
10	0x3e2db882	0.16964915
11	0xbe42b1f5	-0.19013198
12	0x3e3cd1cc	0.18439406
13	0xbdea74ba	-0.11448045
14	0x3dd5a498	0.104317844
15	0xbd1cc5f5	-0.038274724
16	0x3e20fa9f	0.15720604
17	0x3e6b93ca	0.23005596
18	0x3d1635a0	0.036672235
19	0xbde08158	-0.1096217
20	0xbd82b731	-0.06382597
21	0xbe648736	-0.22317204
22	0x3e6d1010	0.23150659
23	0x3e24833d	0.16065688
24	0x3dacd5bc	0.08439204
25	0x3e10f513	0.14155988
26	0xbe85df96	-0.26147145
27	0xbe72f1aa	-0.23725
28	0x3eb2b8c6	0.34906596
29	0x3ba13143	0.0049192025
30	0xbe57abf8	-0.21061695
31	0x3e26fcf2	0.16307428
32	0xbe09ff24	-0.13476235
33	0xbdff9797	-0.12480085
34	0x3eac8ae0	0.33699703
35	0xbe03730e	-0.12836859
36	0x3df9fdd3	0.12206616
37	0x3b5c441b	0.003360993
38	0x3e130441	0.14357091
39	0xbc47ee21	-0.01220277
40	0xbdb1927d	-0.086705185
41	0xbdbd86a6	-0.09254198
42	0x3e0988f9	0.13431157
43	0x3defedd9	0.11715288
44	0x3e8da507	0.27664968
45	0x3dfe3b82	0.12413694
46	0xbd8d99a5	-0.06914071
47	0xbe502d34	-0.20329744
48	0x3e26b167	0.16278611
49	0xbd2e3cb2	-0.042538352
50	0xbe5d2639	-0.21596612
51	0x3e19859b	0.14992373
52	0x3e4a4df4	0.197563
53	0xbe882cb3	-0.26596603
54	0x3c2ed8bd	0.010671792
55	0xbe257f37	-0.1616181
56	0xbe5428ad	-0.20718642
57	0xbdecec10	-0.11568463
58	0x3e33962a	0.17537752
59	0xbe4ce8e5	-0.20010717
60	0xbd260843	-0.040535223
61	0x3c33face	0.0109850895
62	0xbded7675	-0.115948595
63	0xbe44df3b	-0.1922578

weight f4 [32, 64]
0	0xbd36a85e	-0.04459416
1	0x3dceda4b	0.1010023
2	0x3ad88fdd	0.0016522367
3	0x3e1b1afd	0.15147014
4	0x3df002f9	0.11719317
5	0xbdd8fe33	-0.1059536
6	0x3e829472	0.2550388
7	0x3c6aa7d1	0.014322237
8	0x3e3ad6e4	0.18246037
9	0x3e79212e	0.24329063
10	0xbe35eba1	-0.17765667
11	0x3de12da4	0.109950334
12	0xbe07e3fc	-0.13270563
13	0x3e13b586	0.14424714
14	0xbd8bb2d4	-0.06821218
15	0xbe09add4	-0.13445216
16	0xbea0fb6a	-0.31441814
17	0xbe3a965b	-0.18221419
18	0xbd497277	-0.049181428
19	0x3e9627bd	0.29327193
20	0xbc7f51db	-0.015583481
21	0x3e328b9a	0.17436066
22	0xbe2d096e	-0.16898128
23	0xbe174de7	-0.14775811
24	0xbdaf8a89	-0.08571345
25	0xbd8613ee	-0.0654677
26	0x3dbde3f3	0.092719935
27	0x3e920154	0.28516638
28	0xbda9f8c2	-0.082994
29	0x3e649636	0.22322926
30	0x3e263545	0.16231258
31	0xbd86dfaf	-0.06585633
32	0x3c91a9a1	0.01778108
33	0x3b20bfb6	0.002452833
34	0xbdcb7001	-0.099334724
35	0x3e7b842e	0.24562141
36	0xbdc9373e	-0.0982499
37	0xbdd776c8	-0.105207026
38	0xbe2821f4	-0.16419202
39	0x3d3f202e	0.04666155
40	0x3d91fb73	0.07128038
41	0x3d4dd14d	0.050248433
42	0xbd055ece	-0.032561116
43	0xbd9ca2cd	-0.07648239
44	0xbe5d03e1	-0.21583511
45	0x3c9decb5	0.01927791
46	0xbdba8ca4	-0.09108856
47	0x3e7150d1	0.23565985
48	0xbdb2dc38	-0.0873341
49	0x3db8e6e0	0.09028411
50	0x3e81bb04	0.25337994
51	0xbddb1c9b	-0.106988154
52	0xbde8e669	-0.11372072
53	0x3dc01b85	0.09380249
54	0xbd79ace8	-0.060955912
55	0x3e13207b	0.14367859
56	0xbd0d5a4b	-0.03450994
57	0x3e187610	0.14888787
58	0xbd91b9b6	-0.071155
59	0x3cd49c10	0.025953323
60	0x3d541f4d	0.051787663
61	0x3da10614	0.078624874
62	0xbc9f1f20	-0.019424021
63	0x3e167384	0.14692503
64	0xbd824570	-0.063609004
65	0xbd8ba9df	-0.0681951
66	0xbd175c0b	-0.036953013
67	0x3e33b1f3	0.17548351
68	0x3e02445e	0.12721393
69	0xbc959e98	-0.0182641
70	0x3e35680e	0.17715475
71	0xbdc48233	-0.09595146
72	0x3e3cae7c	0.18425936
73	0x3e5181f6	0.20459732
74	0xbe447669	-0.19185795
75	0x3e72390d	0.23654576
76	0xbd9a8b01	-0.07546044
77	0xbd544782	-0.051826008
78	0xbd4ab3e4	-0.049487963
79	0xbd3f3dd1	-0.046689812
80	0xbea4808f	-0.32129332
81	0xbe7e0ec5	-0.24810322
82	0xbd0a7e42	-0.033811815
83	0x3ea2faf7	0.31832096
84	0xbe133dae	-0.14378998
85	0x3df6ce9b	0.120511256
86	0xbdf4024f	-0.11914503
87	0xbe31b42a	-0.17353883
88	0xbe2ad4c1	-0.16682722
89	0xbd2a6864	-0.04160346
90	0x3cf72ef5	0.030173758
91	0x3e1254fe	0.14290234
92	0xbe5efb0b	-0.21775453
93	0x3e2a7eec	0.1664998
94	0xbceaef88	-0.02867867
95	0xbd271118	-0.040787786
96	0x3e498060	0.19677877
97	0x3cb31785	0.0218618
98	0xbe0aaf4f	-0.13543437
99	0x3da731c5	0.0816379
100	0xbd803758	-0.06260556
101	0xbd71c48b	-0.05902533
102	0xbde647e0	-0.11244178
103	0xbde7c9a9	-0.113177605
104	0xbb9bce0b	-0.004754787
105	0xbca579b6	-0.020199638
106	0xbd33e4ad	-0.043919254
107	0xbe948130	-0.29004812
108	0xbe329a78	-0.17441738
109	0x3d46c669	0.048529062
110	0xbd51eb58	-0.051249832
111	0x3e65b7a3	0.22433333
112	0xbe75be37	-0.23998342
113	0x3e1acd6e	0.15117428
114	0x3e5ec5cc	0.21755141
115	0xbdacb625	-0.08433179
116	0xbd6d09f7	-0.05787083
117	0xbc98dc56	-0.018659752
118	0xbdb0a151	-0.08624519
119	0xbb4465b6	-0.002996785
120	0x3df8cc70	0.12148368
121	0x3d2d2c5d	0.042278636
122	0xbdab6cd7	-0.08370369
123	0xbd73e1bd	-0.059541453
124	0xbcdc5406	-0.026895534
125	0x3d33e70b	0.04392151
126	0x3e3c976e	0.18417141
127	0x3e239397	0.1597427
128	0xbe154333	-0.14576416
129	0xbd313ca5	-0.043270726
130	0xbd0d5456	-0.034504257
131	0xbdfeebbb	-0.12447306
132	0x3db6edfa	0.08932109
133	0x3d724a51	0.059152905
134	0xbe18c0c8	-0.1491729
135	0x3e51dacd	0.20493622
136	0xbda3aae2	-0.07991578
137	0xbcdd2516	-0.026995223
138	0x3e2d9502	0.16951373
139	0xbdcfd68b	-0.10148343
140	0xbd1c9704	-0.038229957
141	0x3d888b5b	0.06667205
142	0x3dc5aa2e	0.096516
143	0x3e548b03	0.20756154
144	0x3c84491c	0.016148143
145	0x3dfc468d	0.12318144
146	0x3e4165f0	0.18886542
147	0xbe3422bc	-0.17591375
148	0x3e4e9003	0.20172124
149	0xbe553648	-0.20821488
150	0xbd945f0e	-0.07244693
151	0xbc93c283	-0.018037086
152	0x3e322d60	0.17400122
153	0xbda69302	-0.08133508
154	0x3cbc5ef9	0.022994505
155	0xbe82da70	-0.2555728
156	0x3e67433d	0.22584243
157	0x3d27948f	0.04091316
158	0xbe329e15	-0.17443116
159	0x3b596020	0.0033168867
160	0xbd4ca517	-0.04996213
161	0x3d06a0d1	0.03286821
162	0x3e445fa7	0.19177113
163	0xbd15f374	-0.036609128
164	0x3ddd43f0	0.10803974
165	0x3e3ec541	0.18629934
166	0x3e05d09b	0.13067858
167	0xbd290c43	-0.04127146
168	0xbdd098f5	-0.10185424
169	0xbe123af7	-0.14280306
170	0xbb288618	-0.0025714692
171	0xbc2e389d	-0.010633615
172	0x3cab811d	0.02093559
173	0xbe086efe	-0.1332359
174	0x3d80e697	0.062939815
175	0xbe226b0c	-0.15861148
176	0xbce91cf5	-0.02845619
177	0xbd4752ea	-0.048663057
178	0xbe274a59	-0.16336955
179	0x3e16d335	0.14729007
180	0xbcb54e11	-0.022131952
181	0xbccdca02	-0.025120739
182	0x3d1ac926	0.037789486
183	0xbe3e4b0e	-0.18583319
184	0xbdc02d2c	-0.09383616
185	0xbe315365	-0.17316969
186	0xbbaac018	-0.0052108876
187	0xbdc870f6	-0.097871706
188	0x3da498a0	0.080369234
189	0xbdcb04aa	-0.09912999
190	0x3c20acaf	0.009806796
191	0xbd1550ad	-0.03645389
192	0xbe04d213	-0.12970762
193	0xbd8db142	-0.06918575
194	0x3caf8d6e	0.021429744
195	0x3cb8fa39	0.022580253
196	0x3d952862	0.07283093
197	0xbca70b09	-0.020391004
198	0x3e4ecd6d	0.20195551
199	0xbd127c2a	-0.035762943
200	0x3dca9d65	0.09893302
201	0x3e839188	0.2569697
202	0xbe06b3d7	-0.13154541
203	0x3e3bdb39	0.18345346
204	0x3cc21b3a	0.023694623
205	0xbd8a16ae	-0.06742607
206	0xbd40279c	-0.046912774
207	0xbd96719e	-0.073458895
208	0xbe831b5d	-0.25606814
209	0xbe6fe491	-0.23427035
210	0xbcdbe458	-0.026842281
211	0x3e7c696f	0.24649595
212	0xbda447ce	-0.08021508
213	0x3e0a20dc	0.13489097
214	0xbe7df747	-0.2480136
215	0xbdb68987	-0.0891295
216	0xbde4cd8d	-0.11172018
217	0xbd5cf1df	-0.053941604
218	0x3e145c00	0.1448822
219	0x3e8f83d6	0.2803027
220	0xbe2cfcab	-0.1689326
221	0x3e9b6c3a	0.30356008
222	0xbdb86cdc	-0.09005138
223	0xbdec59a6	-0.115405366
224	0x3dec5051	0.11538757
225	0x3c3d40d6	0.011551103
226	0xbde66cf1	-0.11251248
227	0x3e3112f7	0.17292391
228	0x3ce587c3	0.028018838
229	0xbdabc1bf	-0.083865635
230	0xbdee61f6	-0.11639778
231	0xbcb9591d	-0.0226255
232	0x3dc8a3d1	0.097968705
233	0xbd8b26e6	-0.06794529
234	0x3dc8c722	0.098036066
235	0xbe7a36dc	-0.2443499
236	0xbd5e724d	-0.054308224
237	0x3cbfe65a	0.02342527
238	0xbdbb3f7e	-0.091429695
239	0x3e506472	0.20350817
240	0xbe582a0e	-0.21109793
241	0x3dbe5a5d	0.09294579
242	0x3e4a74e3	0.19771151
243	0xbbc5f2cd	-0.006040907
244	0xbe377cca	-0.17918697
245	0x3ce5e55a	0.028063465
246	0xbe5f843a	-0.21827784
247	0x3de39f45	0.111143626
248	0x3c6fb274	0.014629949
249	0x3ddf1dc1	0.10894347
250	0xbba1bb6f	-0.004935674
251	0x3c0e708f	0.008693828
252	0xbc99e87c	-0.018787615
253	0xbde8233f	-0.11334848
254	0x3e3ab6ea	0.18233839
255	0x3e23b59e	0.1598725

bias f4 [32]
0	0x3c1abb69	0.009444096
1	0xbd8fdeae	-0.07024895
2	0xbe148024	-0.14502007
3	0xbda6b34c	-0.08139667
4	0xbe1980ef	-0.1499059
5	0x3d9d5a0b	0.0768319
6	0xbe00da27	-0.12583219
7	0x3d7e2422	0.062046178
8	0x3dab64e5	0.083688535
9	0xbe0c3787	-0.13693057
10	0xbcddf82e	-0.02709588
11	0x3d9fe1a8	0.078067124
12	0xbdee03ef	-0.11621844
13	0xbe307fe4	-0.17236286
14	0x3e555f2b	0.20837085
15	0x3e100b90	0.1406691
16	0xbdb21ccf	-0.08696901
17	0xbe091030	-0.13385081
18	0x3df181f3	0.11792364
19	0xbcdf9656	-0.027293365
20	0x3d13072d	0.035895515
21	0xbd95187a	-0.07280059
22	0x3e2984dd	0.1655459
23	0x3deeedf4	0.1166648
24	0xbda98c3d	-0.082787015
25	0xbcf9214e	-0.030411389
26	0x3c864734	0.016391374
27	0x3d825df6	0.06365578
28	0x3cc77056	0.024345558
29	0x3dcef3b8	0.101050794
30	0xbdd26782	-0.10273649
31	0xbe2f00b2	-0.17090109

weight f4 [8, 32]
0	0xbc396bcc	-0.011317205
1	0x3cfbd177	0.030739529
2	0x3e1bf67b	0.15230744
3	0xbbb2fd32	-0.005462312
4	0xbdda873c	-0.10670325
5	0xbe10d533	-0.14143829
6	0x3d656a2e	0.056009464
7	0x3a66ecd4	0.0008809094
8	0x3eb0a5d0	0.34501505
9	0x3db523fb	0.08844753
10	0xbdf4f1bb	-0.11960169
11	0xbc1f8b7c	-0.0097378455
12	0x3d441d2b	0.04787938
13	0x3e0b336b	0.13593833
14	0xbd262d12	-0.040570326
15	0xbe89845d	-0.26858798
16	0x3e43d851	0.19125487
17	0x3d8957e3	0.06706216
18	0xbbc3cbc6	-0.0059752194
19	0xbde70946	-0.11281066
20	0xbdbdd821	-0.09269739
21	0xbc6f5e35	-0.014609863
22	0x3e2d583f	0.16928194
23	0xbce43f98	-0.027862355
24	0xbd12389c	-0.03569852
25	0x3d5efb76	0.05443903
26	0xbd752794	-0.059852198
27	0xbd2b21c1	-0.041780237
28	0xbddcfad8	-0.10790032
29	0x3e05d4b7	0.13069426
30	0x3eaebf51	0.34130338
31	0x3e184c3a	0.14872828
32	0xbdcaf703	-0.09910395
33	0xbe6266a5	-0.22109468
34	0x3e6e8a94	0.23295051
35	0xbe682b31	-0.22672726
36	0xbd48ea84	-0.049051777
37	0x3e59f0db	0.21283285
38	0xbdc72906	-0.097246215
39	0xbdd8c228	-0.10583907
40	0x3d86dbf9	0.06584925
41	0xbd9fd03f	-0.07803392
42	0xbdf4a280	-0.11945057
43	0x3e83642a	0.25662357
44	0x3d818350	0.06323874
45	0x3e1ed933	0.15512542
46	0x3e405300	0.18781662
47	0xbd9a1114	-0.07522789
48	0x3e392eae	0.18084213
49	0xbe4dae14	-0.20085937
50	0x3d2200bd	0.039551485
51	0xbda24f0e	-0.07925235
52	0xbc62aa8d	-0.013834608
53	0xbe0e7df7	-0.1391524
54	0x3e3552bf	0.17707346
55	0x3e4c10af	0.1992824
56	0xbe0dab6e	-0.13834926
57	0x3e76b889	0.24093832
58	0xbe15ebdd	-0.14640756
59	0x3e8c7f90	0.27441072
60	0x3d67b105	0.056565303
61	0x3d0c8f19	0.034316156
62	0x3d609a34	0.05483456
63	0xbdb30d37	-0.08742755
64	0x3ea495b3	0.3214546
65	0x3e27f66f	0.164026
66	0xbdfa78b9	-0.12230057
67	0x3e61dcf5	0.22056945
68	0x3e928b57	0.28621933
69	0xbe9646fe	-0.29351038
70	0x3d8a8955	0.06764475
71	0x3e82043e	0.25393862
72	0xbe2c027d	-0.16797824
73	0x3d618526	0.05505862
74	0x3de27ef2	0.11059369
75	0xbe8d7a20	-0.27632236
76	0xbcfecfb9	-0.03110491
77	0xbe0e34ba	-0.13887301
78	0xbdd08e21	-0.10183359
79	0xbd4c3c9f	-0.0498625
80	0xbde73c20	-0.11290765
81	0x3e233ab7	0.15940367
82	0xbe81a9f9	-0.2532499
83	0x3e05ee91	0.13079287
84	0x3e93e20e	0.28883404
85	0x3e22351e	0.15840575
86	0xbe6f8a91	-0.23392703
87	0xbe6eaa3c	-0.23307127
88	0x3e42b63b	0.19014828
89	0xbe1e85ce	-0.1548073
90	0xbcf43f0b	-0.029815217
91	0xbe01cb18	-0.1267513
92	0x3e27d9ab	0.16391627
93	0x3de2bfa6	0.1107171
94	0x3d3b8af8	0.045786828
95	0x3dc6bc67	0.09703904
96	0x3dee6b21	0.11641527
97	0x3d984c6d	0.07436452
98	0xbd9986ae	-0.07496391
99	0xbe1605a6	-0.14650592
100	0x3da3f6a2	0.08006026
101	0x3dae2dd7	0.08504837
102	0x3ea35f62	0.3190871
103	0x3e2e8f21	0.17046787
104	0xbe594778	-0.2121867
105	0x3e343765	0.17599256
106	0x3e826c45	0.25473228
107	0x3c20e871	0.009821043
108	0xbe5d617e	-0.21619222
109	0xbe0a28ae	-0.1349208
110	0xbdf92823	-0.121658586
111	0x3e804165	0.25049892
112	0xbcabe96c	-0.020985328
113	0xbd67f7e1	-0.05663288
114	0xbc8af946	-0.016964566
115	0x3e03fdb6	0.12889752
116	0xbd3d9942	-0.046288736
117	0xbb607b84	-0.0034253309
118	0x3de82d7c	0.113368005
119	0x3d13dd1a	0.03609953
120	0xbb0f8d66	-0.0021904348
121	0xbdca2aa5	-0.09871415
122	0x3c06285c	0.008188333
123	0xbd92ca93	-0.07167544
124	0x3e58ac0b	0.21159379
125	0x3e104b4f	0.14091228
126	0xbe6da9ef	-0.23209356
127	0xbdd35e65	-0.10320739
128	0x3e19f912	0.15036419
129	0x3dfa7d6e	0.12230955
130	0x3d0aee74	0.033918813
131	0x3e50cf2d	0.20391531
132	0x3dda6235	0.10663263
133	0xbe1c951b	-0.15291254
134	0xbe07ecfa	-0.13273993
135	0xbe5f91f4	-0.2183302
136	0x3e58b1b5	0.2116154
137	0xbd394c24	-0.04523863
138	0x3da0c82d	0.078506805
139	0xbde33498	-0.11094016
140	0x3e35d52b	0.17757098
141	0x3e83ccaf	0.257421
142	0xbbd7a48d	-0.0065808953
143	0xbda5ecc9	-0.08101804
144	0x3e76ac8b	0.24089257
145	0x3df0fff8	0.11767572
146	0x3e277cac	0.16356152
147	0x3d7f6679	0.062353585
148	0x3d8cdcc5	0.06878046
149	0x3e063fa7	0.13110219
150	0xbce3aabe	-0.027791377
151	0x3dae235b	0.08502837
152	0x3e1fe28a	0.15613762
153	0xbe021968	-0.12705004
154	0x3e69eda9	0.22844566
155	0x3d54ad8c	0.05192332
156	0xbda2b653	-0.07944932
157	0x3d8a50fc	0.06753728
158	0x3d560633	0.052252006
159	0x3db14b96	0.08656995
160	0x3c72f5c3	0.014829102
161	0x3dbefc39	0.093254514
162	0xbd503a38	-0.05083677
163	0x3bd5b1cb	0.0065214387
164	0x3d1796ba	0.03700898
165	0xbe63b49c	-0.22236866
166	0x3d8bf978	0.06834692
167	0xbb69ff0b	-0.0035704996
168	0xbe9feb3d	-0.3123416
169	0x3d816bf1	0.06319416
170	0xbc7e6b5a	-0.015528524
171	0xbe6c2192	-0.23059681
172	0xbe998bf9	-0.29989603
173	0xbcbe1610	-0.02320388
174	0xbd656279	-0.056002114
175	0x3e9ab6f1	0.30217698
176	0xbcc98f89	-0.024604576
177	0x3df76515	0.12079827
178	0xbd3d605d	-0.046234477
179	0x3d14a3c0	0.036288977
180	0x3e21ae50	0.15789151
181	0x3da41613	0.08012023
182	0x3d9999ab	0.07500013
183	0xbdb44bba	-0.08803506
184	0x3d935188	0.07193285
185	0xbe433d97	-0.19066463
186	0x3dd40b3e	0.10353707
187	0xbe572fb1	-0.21014287
188	0x3e483d59	0.19554652
189	0x3db74df9	0.08950419
190	0xbde05d20	-0.10955262
191	0xbdc65878	-0.09684843
192	0xbdcad15f	-0.099032156
193	0xbdc6919a	-0.0969574
194	0xbadec07b	-0.001699462
195	0xbdaeb9dd	-0.08531544
196	0xbdf91c95	-0.12163655
197	0x3d50cac8	0.050974637
198	0x3e4a8365	0.19776686
199	0x3e5bbbeb	0.21458404
200	0xbe287a7d	-0.16452976
201	0x3e1631ad	0.14667387
202	0x3e225684	0.15853316
203	0xbe0dce0b	-0.1384813
204	0xbe72f611	-0.2372668
205	0xbde5960f	-0.11210262
206	0xbcabf852	-0.020992432
207	0x3e7cc04f	0.24682735
208	0x3daeedc7	0.08541446
209	0x3d129ad1	0.035792176
210	0x3c9a11e1	0.018807353
211	0x3dbc916d	0.09207425
212	0x3d54c0fd	0.05194186
213	0x3d03934b	0.03212289
214	0x3dd98760	0.10621524
215	0xbe1bf2cb	-0.15229337
216	0x3e2b3f8d	0.16723461
217	0xbe562940	-0.20914173
218	0x3dc2336f	0.094824664
219	0x3daf645a	0.085640624
220	0x3d9ff2e4	0.078099996
221	0xbd9a1960	-0.07524371
222	0xbe99c1c2	-0.30030638
223	0xbd8d517e	-0.06900309
224	0xbe119470	-0.1421678
225	0xbc9bb59b	-0.019007495
226	0x3dbbdd1d	0.091730334
227	0x3ae1eca7	0.0017236666
228	0xbd1a4020	-0.03765881
229	0x3ca787a3	0.020450419
230	0xbe15a713	-0.14614515
231	0xbd7a9a11	-0.061182085
232	0x3c5cecc1	0.013484181
233	0xbe6b5f97	-0.22985683
234	0xbde09221	-0.10965372
235	0x3e382862	0.17984155
236	0xbdaaa405	-0.083320655
237	0x3de9713a	0.113985494
238	0x3e54fe95	0.2080024
239	0xbe243674	-0.16036397
240	0xbc2f4428	-0.010697402
241	0x3dae5647	0.0851255
242	0xbc9debb4	-0.019277431
243	0xbe6a1199	-0.22858275
244	0xbdfa5714	-0.1222364
245	0xbccac84e	-0.024753716
246	0x3e3b6aa5	0.183024
247	0x3e3e8d10	0.18608499
248	0x3cf68ba4	0.030095883
249	0x3da61cac	0.081109375
250	0xbdcdce1d	-0.100490786
251	0x3d864049	0.0655523
252	0xbcbb73a7	-0.022882296
253	0xbda4cf7d	-0.08047388
254	0xbcbb4b9d	-0.022863204
255	0xbe4f9512	-0.2027171

bias f4 [8]
0	0xbe55d5b9	-0.2088231
1	0xbe476c0f	-0.19474815
2	0x3e0c81e1	0.1372142
3	0x3e86428b	0.26222643
4	0xbe0bcda8	-0.1365267
5	0x3daf6734	0.08564606
6	0x3e598433	0.21241836
7	0xbe301959	-0.1719717

weight f4 [64, 45]
0	0xbda843bb	-0.082160436
1	0x3e0a4f7d	0.13506885
2	0x3db87aed	0.09007821
3	0x3bdf6489	0.0068174046
4	0x3cab2693	0.020892417
5	0x3d19ae77	0.0375199
6	0x3cfeaa40	0.03108704
7	0x3d8818e2	0.06645371
8	0x3d1a6468	0.03769341
9	0xbdbc8b0a	-0.09206207
10	0x3c075ae2	0.008261414
11	0xba9c1c9e	-0.0011910384
12	0x3c4b7609	0.0124182785
13	0xbd84363f	-0.06455659
14	0x3daa4e60	0.0831573
15	0xbd6d13f1	-0.057880346
16	0x3de89aee	0.113576755
17	0xbd2f7e27	-0.042844918
18	0x3d849477	0.0647363
19	0x3dae6ea7	0.08517199
20	0xbdb41ce2	-0.087945715
21	0xbd83d2f6	-0.06436722
22	0xbd17ee4d	-0.037092496
23	0xbd9f09ce	-0.07765542
24	0xbc308dc2	-0.010775985
25	0xbd8b168d	-0.067914106
26	0x3da11176	0.078646585
27	0xbe470964	-0.19437176
28	0x3d739ef1	0.05947775
29	0xbd10437a	-0.0352206
30	0xbdcd2b8a	-0.1001807
31	0x3daaefbd	0.08346508
32	0x3d5c3801	0.053764347
33	0xbd93db2e	-0.072195396
34	0xbd2137a7	-0.039359715
35	0xbd1332c7	-0.035937097
36	0xbe812202	-0.25221258
37	0xbdf03176	-0.11728184
38	0xbd76dc3e	-0.060268633
39	0xbe6786b7	-0.22609983
40	0x3db07e3d	0.08617828
41	0x3ddafb88	0.10692507
42	0xbd107dcd	-0.035276223
43	0xbdce9923	-0.10087802
44	0x3d487ac6	0.04894521
45	0xbec6ca64	-0.38826287
46	0xbd8ed50a	-0.06974228
47	0xbdfcc0e6	-0.1234148
48	0xbea9d684	-0.33171475
49	0xbd917dcc	-0.07104072
50	0xbe097292	-0.13422611
51	0xbee1aea4	-0.44078553
52	0xbe781d2a	-0.24229875
53	0xbe67f7d9	-0.2265314
54	0xbec5ad35	-0.3860871
55	0xbe6d7f47	-0.23193084
56	0xbe5dd7d1	-0.21664359
57	0xbeaa8964	-0.33307946
58	0xbe0780b2	-0.13232687
59	0xbce65e94	-0.02812127
60	0xbe36f8b7	-0.17868315
61	0xbd25c4a2	-0.040470727
62	0xbe4fcb03	-0.20292287
63	0xbd87801d	-0.066162325
64	0xbe425271	-0.18976761
65	0xbe35f808	-0.17770398
66	0xbdf3efa8	-0.11910945
67	0xbdca2ec2	-0.098721996
68	0xbe331158	-0.17487085
69	0xbe64ba3f	-0.22336672
70	0xbe2d3ab4	-0.16916925
71	0xbd7531c3	-0.05986191
72	0x3c233f22	0.0099637825
73	0xbe1842ec	-0.14869279
74	0xbe0a3f9e	-0.1350083
75	0xbe259a5b	-0.16172163
76	0xbc51988a	-0.012792716
77	0xbe090953	-0.13382463
78	0xbca6c3fc	-0.020357125
79	0xbe72a5f1	-0.23696114
80	0xbe2231fe	-0.15839383
81	0xbcd0640e	-0.025438335
82	0xbe3e4f66	-0.18584976
83	0xbe6c204f	-0.230592
84	0xbcf99295	-0.030465404
85	0xbe03f304	-0.12885672
86	0xbd8adb07	-0.067800574
87	0xbdd8ed7a	-0.1059217
88	0xbdbe885b	-0.093033515
89	0xbd0331a9	-0.03202978
90	0x3e87811e	0.26465696
91	0x3d897d2d	0.067133285
92	0x3d8e2e82	0.069424644
93	0x3e759cf6	0.23985657
94	0xbcd83eb6	-0.02639709
95	0x3d47adb2	0.048749633
96	0x3e7d09dc	0.24710792
97	0x3dc40ead	0.09573112
98	0xbd8f11d9	-0.06985826
99	0x3eb897b0	0.36053228
100	0xbcfc0fd3	-0.030769264
101	0x3dc0aab5	0.0940756
102	0x3e351bda	0.17686406
103	0xbbb80677	-0.005616005
104	0xbaf0bf0d	-0.0018367484
105	0x3eb12bf2	0.3460384
106	0x3d7fad2f	0.06242102
107	0x3d0aa7fb	0.033851605
108	0xbde55352	-0.11197533
109	0x3ccc6761	0.024951639
110	0xbda7ed56	-0.08199565
111	0xbdd81b54	-0.105520874
112	0x3ce1e0f6	0.02757309
113	0x3c05e342	0.008171858
114	0xbe22c879	-0.15896787
115	0x3d8b64d8	0.06806344
116	0x3d268e98	0.04066333
117	0xbe14734c	-0.14497107
118	0xbe024e43	-0.12725167
119	0x3c97d54d	0.018534327
120	0xbe21abe1	-0.15788223
121	0xbdabb177	-0.08383458
122	0xbddec17c	-0.10876748
123	0xbdfff8c9	-0.12498624
124	0xbd866d27	-0.06563788
125	0xbe0a6724	-0.13515908
126	0xbd678ebe	-0.056532614
127	0xbd64f7fd	-0.055900563
128	0xbd36dad9	-0.044642303
129	0xbdcddb4d	-0.10051594
130	0xbde58f66	-0.11208992
131	0xbe08d886	-0.13363847
132	0xbe5c250b	-0.21498506
133	0xbe2334bf	-0.1593809
134	0x3d9a19df	0.07524466
135	0xbe19981f	-0.14999436
136	0xbe618ccd	-0.22026367
137	0xbe6906fa	-0.22756568
138	0xbe144731	-0.14480282
139	0xbe56b97b	-0.20969193
140	0xbe6076ec	-0.21920365
141	0xbda59caa	-0.08086522
142	0x3c38a2ec	0.011269312
143	0xbcd43764	-0.025905319
144	0xbd84b136	-0.06479113
145	0xbc1c9b7e	-0.009558557
146	0xbe149b19	-0.1451229
147	0xbe249385	-0.16071899
148	0xbe60ecc6	-0.21965322
149	0xbc261fbf	-0.010139405
150	0xbd89710d	-0.06711016
151	0xbd7ae3e0	-0.061252475
152	0xbd4f760b	-0.050649684
153	0xbdecc3a5	-0.11560754
154	0xbd3c6eea	-0.046004213
155	0xbe2dbb0f	-0.16965888
156	0xbe6b4c25	-0.22978266
157	0xbe60d966	-0.21957931
158	0xbe6bdb73	-0.23032932
159	0xbe2ce41e	-0.16883895
160	0xbe09a8a9	-0.13443245
161	0xbe2ebbb1	-0.17063786
162	0x3dbcaa12	0.09212126
163	0xbdd74f30	-0.10513151
164	0xbe53122d	-0.20612402
165	0x3dcde9da	0.10054369
166	0xbe41e73b	-0.18935864
167	0xbd84355d	-0.06455491
168	0x3d127969	0.035760317
169	0x3c140a6e	0.00903569
170	0xbd903a64	-0.07042387
171	0xbd441d15	-0.047879297
172	0x3cb8a077	0.022537453
173	0xbe5d43c7	-0.21607886
174	0xbd9eda83	-0.077565216
175	0xbe51843d	-0.20460601
176	0xbc6012ed	-0.013676387
177	0x3de41529	0.111368485
178	0xbb93ff6a	-0.0045165317
179	0x3c3f3ac6	0.0116717275
180	0x3eeb7883	0.4599038
181	0x3dcf2448	0.10114342
182	0xbbf7236e	-0.0075420653
183	0x3ee50906	0.44733447
184	0x3b90596c	0.004405191
185	0xbd11c783	-0.03559066
186	0x3f0224f4	0.50837636
187	0x3d565540	0.052327394
188	0x3d7208ae	0.05909031
189	0x3ec54c3d	0.38534728
190	0x3db3253b	0.087473355
191	0x3e01fa7d	0.1269321
192	0x3f09cfbf	0.5383262
193	0x3df48798	0.11939925
194	0x3b3bf780	0.0028681457
195	0x3e90200f	0.2814946
196	0x3db37b59	0.08763761
197	0x3d3dc13e	0.04632687
198	0xbcc575d5	-0.024104038
199	0xbd810e97	-0.06301611
200	0x3dcf6b31	0.10127867
201	0x3cc51d38	0.024061784
202	0xbda39877	-0.07988065
203	0xbcbf9bab	-0.023389658
204	0x3d8b0ccc	0.0678955
205	0x3d1179ff	0.035516735
206	0xbd10dbba	-0.035365798
207	0xbc9af59a	-0.01891594
208	0x3da99d2b	0.082819305
209	0xbd2f52fd	-0.042803753
210	0xbd0ccbbc	-0.034373984
211	0xbdb4be4b	-0.08825358
212	0x3da70389	0.08154971
213	0xbd1a1c5b	-0.037624698
214	0x3aa28225	0.0012398405
215	0x3cdb22e0	0.026750028
216	0xbe371dda	-0.17882481
217	0x3d980e68	0.07424623
218	0x3da62d96	0.081141636
219	0xbda561c1	-0.08075286
220	0x3d38135a	0.04494033
221	0x3db544c3	0.08851006
222	0xbdc7a169	-0.097475834
223	0x3d749326	0.059710644
224	0xbd3604f6	-0.044438325
225	0x3eb9f3f6	0.3631894
226	0x3e6a23fc	0.2286529
227	0x3e78a1f5	0.24280532
228	0x3f02c47c	0.5108106
229	0x3d2f8a04	0.04285623
230	0x3d441279	0.04786918
231	0x3f1087ee	0.5645741
232	0x3da32968	0.07966882
233	0x3e44dc55	0.19224675
234	0x3f06b358	0.52617407
235	0x3e07f5d4	0.1327737
236	0x3df56f47	0.11984115
237	0x3ed5fbfb	0.41793808
238	0x3d4ec438	0.050480098
239	0x3e1db4d5	0.15401013
240	0x3eb55c84	0.35422146
241	0x3df9edd0	0.12203562
242	0x3dc2dcb5	0.09514753
243	0x3d51f8ee	0.05126279
244	0x3d270a68	0.04078141
245	0x3dfc6e8d	0.123257734
246	0x3d1d1431	0.038349334
247	0x3e6388d9	0.22220172
248	0x3e5455a4	0.20735794
249	0x3bce5768	0.0062970407
250	0x3db96649	0.090527125
251	0x3e82d6a5	0.25554386
252	0xbd20ed82	-0.039289005
253	0x3d7c81aa	0.061647095
254	0x3e82040d	0.25393716
255	0x3d03cadf	0.032175895

bias f4 [64]
0	0xbe3523c6	-0.17689428
1	0xbc1ee991	-0.009699241
2	0xbe970a12	-0.2949987
3	0x3e0341ca	0.12818065
4	0xbe7716f6	-0.24129853
5	0xbf0007c2	-0.5001184
6	0x3e6e3c75	0.2326525
7	0x3de0298b	0.10945424
8	0xbe3d45bb	-0.18483631
9	0xbe09c31c	-0.13453335
10	0xbc8f122d	-0.017464722
11	0x3c8e1e57	0.017348452
12	0x3e4fe3f2	0.20301798
13	0xbe91584d	-0.2838768
14	0x3d66dbb1	0.056361858
15	0x3ee5dabd	0.44893447
16	0x3e0ebf64	0.13940197
17	0x3d5cd8ad	0.053917576
18	0xbd936914	-0.071977764
19	0xbc6382e2	-0.013886185
20	0x3dbe221b	0.09283849
21	0xbe41a592	-0.18910816
22	0xbe3e7cda	-0.18602315
23	0xbe632ac4	-0.22184283
24	0xbe1ddf41	-0.15417196
25	0x3dae916d	0.085238315
26	0xbe11cc1c	-0.14238018
27	0xbe5da36e	-0.21644375
28	0x3e2f512a	0.17120805
29	0xbdcf10cb	-0.10110625
30	0xbdcddb1e	-0.10051559
31	0x3e97aef8	0.29625678
32	0x3d717aef	0.05895513
33	0x3dd7fa0a	0.10545738
34	0xbdcb89df	-0.09938406
35	0x3c73fe33	0.014892149
36	0x3eac85d1	0.33695844
37	0xbdd4a434	-0.10382882
38	0xbd0143ab	-0.031558674
39	0x3f180821	0.59387404
40	0x3e7188e0	0.2358737
41	0xbe27ad86	-0.16374788
42	0xbe8292ef	-0.25502726
43	0xbe80396f	-0.25043818
44	0xbd9254e3	-0.07145097
45	0xbe367b97	-0.17820583
46	0x3d282423	0.041050088
47	0xbe866092	-0.26245552
48	0xbd841cd5	-0.06450812
49	0xbe63829b	-0.22217791
50	0x3da8ae9b	0.08236428
51	0xbe9f2457	-0.31082413
52	0x3bd82e1b	0.006597293
53	0xbe81cfb4	-0.25353777
54	0xbe760b8f	-0.24027847
55	0xbdd6737f	-0.10471248
56	0xbeadf577	-0.33976337
57	0x3e8b4666	0.27202147
58	0x3e48bb8a	0.1960279
59	0x3e660a14	0.22464782
60	0xbe05b271	-0.13056351
61	0x3e76e4c1	0.241107
62	0xbe39940b	-0.1812288
63	0x3eabcbf4	0.3355404

weight f4 [32, 64]
0	0xbd8147be	-0.06312512
1	0x3d9af107	0.075655036
2	0x3decc5b1	0.11561144
3	0xbd3adcca	-0.045620717
4	0xbc2d7097	-0.010585926
5	0x3e328b59	0.1743597
6	0xbe2db57b	-0.1696376
7	0xbc79ff56	-0.015258631
8	0xbd9178d2	-0.07103123
9	0x3e463191	0.19354846
10	0x3e2ef74e	0.17086527
11	0xbe33f913	-0.17575483
12	0xbdb799e2	-0.08964898
13	0x3d32e0d5	0.043671448
14	0x3d20f361	0.039294604
15	0xbe3d4faa	-0.1848742
16	0xbe40cebc	-0.18828863
17	0xbe216bca	-0.15763775
18	0xbd178c75	-0.036999185
19	0x3c4bee89	0.012447008
20	0xbbe8b11b	-0.0071011907
21	0xbd00cb67	-0.03144398
22	0x3c590bee	0.013247473
23	0x3d8304b0	0.063973784
24	0xbdf6a902	-0.120439544
25	0xbddf2720	-0.108961344
26	0x3e44b8e3	0.19211154
27	0x3d577d09	0.052609477
28	0x3b469d92	0.0030306322
29	0x3e434685	0.1906987
30	0x3dd6c439	0.10486645
31	0xbe28fc14	-0.1650241
32	0xbb517fd6	-0.0031967065
33	0xbda3851e	-0.079843745
34	0x3b961d98	0.0045811646
35	0x3d0fb644	0.03508593
36	0xbe121d90	-0.1426909
37	0xbc87784b	-0.016536852
38	0xbdb5c9a3	-0.0887635
39	0xbe3715ec	-0.17879456
40	0xbdad95c5	-0.08475832
41	0x3d0b1b2b	0.033961456
42	0x3e2a07d5	0.1660455
43	0x3bff7875	0.007796342
44	0x3de7c366	0.11316566
45	0x3cb1d4bf	0.02170789
46	0x3d985d8e	0.07439719
47	0x3d00b228	0.031419903
48	0xbc9f4720	-0.019443095
49	0x3dbb5190	0.09146416
50	0xbe54b8c4	-0.20773607
51	0x3e7cb518	0.24678457
52	0x3a9a99c3	0.0011795092
53	0x3d9ed810	0.077560544
54	0x3db68c00	0.08913422
55	0x3c9f9a06	0.019482624
56	0xbb490d9a	-0.0030678273
57	0x3dde7891	0.1086284
58	0xbc23c2b0	-0.009995148
59	0xbd5d5cea	-0.054043688
60	0x3dc7b4d6	0.097512886
61	0xbdc253cf	-0.094886415
62	0x3d9704e9	0.073739834
63	0xbddaa77a	-0.10676475
64	0xbd514707	-0.051093128
65	0xbe3f9aab	-0.18711345
66	0x3e768a03	0.24076085
67	0x3d7b264d	0.061315823
68	0x3d99b6b2	0.075055495
69	0x3e1ddaa3	0.15415435
70	0xbe19282e	-0.14956734
71	0xbe189ad1	-0.14902808
72	0xbe69edcd	-0.2284462
73	0x3e52a163	0.20569377
74	0x3df2da43	0.11858036
75	0xbe91a3cc	-0.2844528
76	0xbe76ca5e	-0.24100634
77	0xbe999ce3	-0.30002508
78	0xbe8a3419	-0.26992872
79	0xbe0537b8	-0.13009536
80	0xbe3c470e	-0.1838648
81	0xbe80705c	-0.25085723
82	0x3d17900a	0.0370026
83	0x3d5a279f	0.053260442
84	0xbdbb9ff5	-0.09161369
85	0xbe2d22b6	-0.16907772
86	0xbde88d61	-0.11355091
87	0x3e9e0dfd	0.30870047
88	0xbe0d83ee	-0.13819858
89	0xbd807d4c	-0.062738985
90	0x3e545666	0.20736083
91	0x3e34fdb4	0.17674905
92	0xbe883dd9	-0.26609686
93	0x3e351a56	0.17685828
94	0x3c933f7d	0.01797461
95	0xbca6e856	-0.020374458
96	0x3e1355c0	0.1438818
97	0xbe766a20	-0.24063921
98	0xbe1d2803	-0.15347295
99	0x3d54f8a7	0.051994946
100	0xbdb151b5	-0.086581625
101	0x3e516364	0.20448071
102	0xbe14e33c	-0.14539808
103	0xbe1d8598	-0.15382993
104	0xbe755338	-0.23957527
105	0x3ea50156	0.32227582
106	0x3e507882	0.2035847
107	0x3e636ad3	0.22208719
108	0x3e81b9e4	0.25337136
109	0x3ea56ca3	0.32309446
110	0xbe52523d	-0.20539184
111	0x3e492bb6	0.1964558
112	0x3df6945f	0.12040018
113	0x3cda5dc2	0.026656035
114	0xbe8ac9c6	-0.27107066
115	0x3e84b6dd	0.25920764
116	0xbe3a351f	-0.18184327
117	0x3ddd2dc2	0.10799743
118	0x3e35153b	0.1768388
119	0x3e6e573d	0.23275466
120	0xbd00fb6c	-0.031489775
121	0x3dbc7eba	0.09203859
122	0xbd934bfa	-0.07192226
123	0xbda077ba	-0.07835336
124	0x3e7ef9f2	0.24900034
125	0xbdc73941	-0.09727717
126	0xbe8ab915	-0.2709433
127	0xbd9db8e3	-0.0770128
128	0xbb8cac4c	-0.0042930003
129	0xbc370629	-0.011170902
130	0xbe244b82	-0.16044429
131	0xbb0e1960	-0.0021682605
132	0xbd2bc7fd	-0.04193877
133	0xbd136081	-0.035980705
134	0x3e0d19ba	0.13779345
135	0xbb31eb56	-0.0027148328
136	0x3bd568d0	0.0065127388
137	0xbe08c06b	-0.13354652
138	0xbe271e46	-0.16320142
139	0x3e3d26d5	0.18471844
140	0x3e26ed8f	0.16301559
141	0xbd282230	-0.04104823
142	0x3e03754c	0.12837714
143	0x3cc97275	0.02459071
144	0x3e0aba36	0.13547596
145	0x3dca43e7	0.098762326
146	0xbd780546	-0.060551904
147	0xbdb3723b	-0.08762022
148	0x3e467574	0.19380742
149	0x3ca2a22a	0.019852716
150	0x3d5a0a3b	0.053232413
151	0xbc0901c8	-0.008362241
152	0x3d465106	0.048417114
153	0x3dce00bb	0.10058733
154	0x3a2c1a6c	0.00065652165
155	0xbd837748	-0.064192355
156	0x3e377326	0.1791502
157	0xbe5f43d3	-0.21803217
158	0xbdbf1811	-0.09330762
159	0x3d9e9a96	0.07744329
160	0x3de9a3ba	0.114081815
161	0x3d8b382d	0.06797824
162	0xbd7498cd	-0.059716035
163	0x3e379b07	0.17930232
164	0x3e15e40e	0.14637777
165	0xbe03f302	-0.12885669
166	0xbce431af	-0.027855722
167	0xbdd26b14	-0.1027433
168	0x3bcb2792	0.0061997855
169	0xbd401540	-0.046895266
170	0xbe234c6f	-0.15947126
171	0xbddccf7b	-0.10781761
172	0xbe1802d6	-0.14844832
173	0xbd03e23c	-0.032198176
174	0x3d7a1064	0.061050788
175	0xbd6e8450	-0.05823165
176	0x3dde304d	0.108490564
177	0xbb55eddb	-0.0032642994
178	0x3d677023	0.056503426
179	0xbcfb9071	-0.030708523
180	0x3d938712	0.07203497
181	0xbc8a8b01	-0.016911985
182	0x3c950566	0.01819105
183	0xbd82a7a7	-0.063796334
184	0xbe0674af	-0.13130449
185	0xbd05007e	-0.032471173
186	0x3e140879	0.14456357
187	0x3dfa11df	0.1221044
188	0x3d43881a	0.04773722
189	0xbc6ec341	-0.014572919
190	0xbdbad73a	-0.091230825
191	0x3e2960e9	0.16540875
192	0x3d3dd72a	0.046347775
193	0xbc3d1c66	-0.011542415
194	0xbdcd9187	-0.10037523
195	0xbd0cb6cb	-0.034354012
196	0xbe348e9a	-0.17632523
197	0xbed5b743	-0.4174138
198	0x3e7940fa	0.24341193
199	0xbd69304f	-0.056930836
200	0x3c908525	0.017641613
201	0xbea7985e	-0.32733434
202	0xbe806a35	-0.2508103
203	0x3e325fcd	0.17419358
204	0x3e35b93c	0.17746443
205	0x3ceba692	0.02876595
206	0x3e051059	0.12994517
207	0x3ea29034	0.31750643
208	0x3e640448	0.22267258
209	0x3e8eeba7	0.27914163
210	0xbd9e6824	-0.07734707
211	0xbe3ce332	-0.18446043
212	0xbadb09ef	-0.0016711334
213	0xbdafa014	-0.08575454
214	0xbd9ef744	-0.07762006
215	0xbdebd3af	-0.11514985
216	0x3d81e0bc	0.06341693
217	0x3c7ec3c0	0.0155496
218	0xbe838020	-0.2568369
219	0xbde6748c	-0.11252698
220	0x3e3c2a2c	0.18375462
221	0xbe45a11f	-0.19299744
222	0xbdf47205	-0.1193581
223	0x3e88f305	0.2674791
224	0xbd14b676	-0.03630682
225	0xbce936a6	-0.028468441
226	0x3d9de047	0.07708793
227	0xbced9243	-0.029000407
228	0x3dfbe637	0.12299769
229	0xbe7f9175	-0.24957831
230	0x3e3cfe72	0.18456438
231	0x3e65ba82	0.22434428
232	0xbd2eca4a	-0.042673387
233	0xbe3ea039	-0.18615808
234	0xbdd0faf9	-0.10204119
235	0xbe627915	-0.22116502
236	0x3da2229c	0.079167575
237	0xbecac3fe	-0.39602655
238	0x3d834ea3	0.06411483
239	0xbd683726	-0.05669322
240	0xbd42bf44	-0.047545686
241	0xbe34438e	-0.17603895
242	0x3d561524	0.052266255
243	0xbe796b7a	-0.24357405
244	0x3e11d0c2	0.14239791
245	0xbdaa7191	-0.08322442
246	0xbe5fb805	-0.21847542
247	0xbe2d6ece	-0.169368
248	0xbe3a414b	-0.1818897
249	0xbdbf4a3d	-0.09340332
250	0x3e644685	0.22292526
251	0x3e43c801	0.19119264
252	0xbe7bd8b8	-0.2459439
253	0x3db29a03	0.08720782
254	0x3d34beab	0.044127148
255	0x3e4580ed	0.19287463

bias f4 [32]
0	0xbc9b20ea	-0.018936593
1	0x3d12b92f	0.035821136
2	0xbe6008a4	-0.21878296
3	0x3da87414	0.08225265
4	0x3d4b419c	0.049623117
5	0x3c4b833a	0.012421424
6	0xbe0395c1	-0.12850095
7	0x3e64dcc4	0.2234984
8	0x3ca14ba0	0.019689381
9	0xbd265bd9	-0.040614937
10	0x3e243c41	0.1603861
11	0xbcee0c39	-0.029058563
12	0xbe251d9e	-0.1612458
13	0x3cf059dc	0.029339723
14	0xbd583fbc	-0.052795157
15	0xbd53b393	-0.051684927
16	0xbc1c5118	-0.009540819
17	0x3e1dfc5f	0.15428303
18	0x3d9da513	0.07697501
19	0xbca90f9a	-0.020637322
20	0xbdfcac63	-0.12337568
21	0x3ed02089	0.40649822
22	0x3d06ff84	0.032958522
23	0x3b85feda	0.0040892186
24	0xbb8c683a	-0.0042848857
25	0xbe537e42	-0.20653632
26	0x3d99d1e9	0.0751074
27	0xbcf42974	-0.029804923
28	0x3e9b8725	0.30376545
29	0x3d317bb1	0.043330852
30	0x3e538f0d	0.20660038
31	0xbd5e61b6	-0.054292403

weight f4 [8, 32]
0	0x3c858fac	0.01630386
1	0x3e2f18f8	0.17099369
2	0xbc714a23	-0.014727148
3	0xbdabeb3f	-0.08394479
4	0x3e0c21ae	0.13684723
5	0x3e38d0a3	0.18048339
6	0xbcedd0d7	-0.029030247
7	0xbd95df18	-0.073179424
8	0xbd18d4e3	-0.0373124
9	0xbe06849e	-0.13136527
10	0xbd139a8e	-0.036036067
11	0x3e0b4308	0.13599789
12	0x3e53df92	0.20690754
13	0x3c9b925a	0.018990684
14	0xbd1a44c1	-0.037663225
15	0xbabbfb34	-0.0014341832
16	0xbdc3b1bc	-0.095553845
17	0x3dbc994f	0.09208929
18	0x3e0b29a6	0.13590106
19	0x3d9b6bd8	0.07588929
20	0xbe2bb8b9	-0.16769685
21	0x3e00fae9	0.12595715
22	0x3df1cf2e	0.118070945
23	0x3c89c77b	0.016818753
24	0x3e7267ad	0.23672362
25	0x3e28a9df	0.1647105
26	0xbe40c42d	-0.18824835
27	0xbe5b6a37	-0.21427236
28	0xbc97c38d	-0.018525863
29	0x3d87e532	0.066355124
30	0x3d2c8c7e	0.04212617
31	0x3e0fc0cc	0.1403839
32	0x3ce0fcb7	0.027464254
33	0x3d8ece2e	0.069729194
34	0xbc959101	-0.01825762
35	0xbd852f23	-0.06503131
36	0x3b59b3d4	0.0033218758
37	0x3d4b8f27	0.049697068
38	0x3dda96f7	0.106733255
39	0x3d9ceb09	0.07662017
40	0x3db9e852	0.09077515
41	0x3dee90e2	0.11648728
42	0xbd3cdffc	-0.046112046
43	0x3e2f651e	0.17128417
44	0x3d0ab4b7	0.03386375
45	0x3dea0d59	0.11428327
46	0x3db0a58d	0.08625326
47	0xbe196f7e	-0.14983937
48	0xbe0e9b5c	-0.13926452
49	0x3d11d7ad	0.035606075
50	0x3e02a076	0.12756523
51	0x3e11b42c	0.14228886
52	0x3ca5c899	0.020237254
53	0xbce72d1a	-0.028219748
54	0x3e715303	0.23566823
55	0x3ce12322	0.027482573
56	0x3c58d3a1	0.01323405
57	0x3c4a017b	0.0123294545
58	0x3cd8dc67	0.026472284
59	0xbd1b24e0	-0.037876964
60	0xbe01b9da	-0.12668553
61	0x3b1de646	0.0024093552
62	0x3cf79448	0.030222073
63	0xbe9836b4	-0.29729235
64	0x3e0e7844	0.13913065
65	0x3d08b02a	0.03337113
66	0xbcb8934d	-0.022531176
67	0xbdeddfa0	-0.11614919
68	0x3d5700af	0.052490886
69	0xbe4a6a33	-0.19767074
70	0x3e5c2ecf	0.21502231
71	0xbdc5d4c2	-0.09659721
72	0x3d2cc893	0.04218347
73	0xbd1939fb	-0.03740881
74	0xbc295e67	-0.010337449
75	0xbddb36ec	-0.10703835
76	0x3d1a1b7a	0.03762386
77	0xbd996c10	-0.074913144
78	0xbd3104b1	-0.043217365
79	0x3e0428b7	0.12906156
80	0xbd6b0f8b	-0.05738787
81	0xbdc55549	-0.096354075
82	0x3c01c937	0.0079215085
83	0x3dddef2c	0.10836634
84	0xbdc7de54	-0.097592026
85	0xbc8bf35c	-0.017083816
86	0xbd808e58	-0.0627715
87	0xbdda3fc8	-0.106566966
88	0x3dde5857	0.10856693
89	0xbce36a20	-0.027760565
90	0x3d686eb1	0.05674619
91	0x3dc21149	0.09475953
92	0x3e0906c5	0.13381489
93	0x3dab9812	0.083786145
94	0x3d892329	0.066961594
95	0x3df8309c	0.121186465
96	0xbc97a8b6	-0.018513065
97	0x3c1c3806	0.009534841
98	0xbe1d4304	-0.15357596
99	0xbe2314d3	-0.15925913
100	0x3ddb7c98	0.10717124
101	0x3c04cdfb	0.00810575
102	0xbe0d78d7	-0.13815628
103	0xbe214f2b	-0.15752856
104	0xbe0e6835	-0.1390694
105	0xbb5239f9	-0.0032078011
106	0xbccb49e0	-0.0248155
107	0x3dd6b03d	0.104828335
108	0x3d5e3682	0.0542512
109	0x3c885e83	0.01664663
110	0xbdebcf53	-0.11514153
111	0xbe193dab	-0.1496493
112	0x3dec5ba5	0.11540917
113	0x3db6a688	0.08918482
114	0xbd4cc9fa	-0.049997307
115	0x3c19c590	0.0093854815
116	0xbc453b56	-0.012038073
117	0x3dfb92f5	0.12283889
118	0xbcf8b1d9	-0.030358242
119	0x3d1902ac	0.037356064
120	0xbe153ddd	-0.1457438
121	0x3cd4441f	0.025911389
122	0x3de51ef5	0.11187545
123	0xbe69f160	-0.22845984
124	0xbcd2e34f	-0.025743155
125	0x3e3764ed	0.17909594
126	0xbdc3548a	-0.09537609
127	0x3e2d3825	0.16915949
128	0x3e8b2b64	0.27181542
129	0x3da0135e	0.07816194
130	0x3cac100b	0.021003744
131	0xbd77d763	-0.060508143
132	0x3dc1c2a2	0.094609514
133	0x3d91f5d1	0.07126964
134	0x3d3f7663	0.04674376
135	0xbdc97054	-0.09835878
136	0xbe317651	-0.1733029
137	0xbe0bf78d	-0.13668652
138	0xbe2b777b	-0.16744797
139	0x3c9f1a04	0.019421585
140	0x3cd8806e	0.026428428
141	0x3ce72866	0.028217506
142	0x3e5f8377	0.21827494
143	0xbd6aa4bc	-0.05728601
144	0x3d735dab	0.0594155
145	0xbd56b471	-0.052418176
146	0xbdc7bb3a	-0.097525075
147	0xbe4dc33a	-0.20094004
148	0x3d0c1332	0.034197994
149	0xbd954f5d	-0.07290528
150	0xbe3022bf	-0.17200755
151	0xbacc2697	-0.0015575466
152	0x3da5b68a	0.08091457
153	0x3e763787	0.2404462
154	0x3da789d2	0.08180584
155	0xbe8dc0e3	-0.27686223
156	0xbe0532c6	-0.1300765
157	0x3e0b63cc	0.13612288
158	0xbe19903d	-0.14996429
159	0x3e65419e	0.22388312
160	0x3da6816c	0.08130154
161	0x3d022616	0.031774603
162	0x3ccc777b	0.024959316
163	0xbd852c2b	-0.06502565
164	0xbb978848	-0.0046244003
165	0xbd57590e	-0.052575164
166	0xbe5f9d70	-0.21837401
167	0xbe8a033f	-0.26955602
168	0xbe22eb80	-0.15910149
169	0xbe02a96e	-0.12759945
170	0x3e484174	0.19556218
171	0xbbd91e1c	-0.006625904
172	0x3df919ba	0.1216311
173	0xbd50e55a	-0.050999977
174	0x3e87334d	0.26406327
175	0xbd16f8ac	-0.036858246
176	0x3de068ad	0.10957465
177	0x3e4dbc6d	0.2009141
178	0xbe9149fc	-0.28376758
179	0xbe3ff21d	-0.18744703
180	0x3bf6b2f5	0.0075286576
181	0x3dfb6556	0.12275188
182	0xbb104c56	-0.0022018156
183	0x3d9ba138	0.075991094
184	0x3c949c28	0.018140867
185	0x3e86d06e	0.26330894
186	0xbd2cb6df	-0.042166587
187	0xbd133d31	-0.03594703
188	0xbd56f05a	-0.05247531
189	0x3c58aaa7	0.01322428
190	0xbe244b25	-0.1604429
191	0x3e16a15a	0.14709988
192	0x3d3da725	0.04630198
193	0x3dba81eb	0.09106811
194	0x3dbedb12	0.09319128
195	0x3e7f1762	0.24911264
196	0xbdee53b8	-0.11637062
197	0x3dea51a8	0.11441356
198	0xbe12f42a	-0.14350954
199	0x3db407a3	0.08790519
200	0x3d58edd6	0.052961193
201	0x3ddec3ae	0.10877167
202	0x3e45ed27	0.19328748
203	0x3df60227	0.12012129
204	0x3dee1238	0.11624569
205	0xbd9f50aa	-0.07779057
206	0xbe1a99df	-0.1509776
207	0xbc9b487c	-0.018955462
208	0xbe25c991	-0.16190173
209	0x3e199084	0.14996535
210	0x3e0467f2	0.12930277
211	0x3c3a3543	0.011365238
212	0x3dac973b	0.084272824
213	0x3e425766	0.18978652
214	0x3e036714	0.1283229
215	0x3d79c80e	0.060981803
216	0xbe373fa2	-0.17895368
217	0xbdfc5780	-0.12321377
218	0x3e2d6e06	0.16936502
219	0xbda87cc0	-0.08226919
220	0x3db867c3	0.09004166
221	0xbce06c8e	-0.027395513
222	0x3e12341b	0.14277689
223	0xbcd118f4	-0.025524594
224	0xbe0c5b5e	-0.13706729
225	0x3dbe6198	0.09295958
226	0x3dc3708b	0.0954295
227	0x3ea045b7	0.31303188
228	0xbae392bf	-0.0017362459
229	0xbdbbc11b	-0.09167691
230	0x3d8b5911	0.068040974
231	0x3ea016df	0.3126745
232	0x3e3c1704	0.18368155
233	0x3e5b154f	0.21394847
234	0xbc250601	-0.010072232
235	0x3db5b584	0.08872512
236	0xbe88377d	-0.26604834
237	0x3e9cf90c	0.30658758
238	0xbe934ccf	-0.28769538
239	0xbd5b9cad	-0.053616215
240	0xbe6d44a9	-0.23170723
241	0x3d1898bd	0.037255038
242	0x3e4a0d3c	0.19731611
243	0x3e97e38c	0.29665792
244	0x3e12a414	0.14320403
245	0x3e386018	0.18005407
246	0x3e82bfe0	0.25537014
247	0x3e2542fb	0.16138832
248	0xbdda0620	-0.106456995
249	0xbea96cd3	-0.3309084
250	0x3e1c45aa	0.1526095
251	0x3e97e837	0.29669353
252	0x3e9e49b8	0.30915618
253	0xbdc3cd11	-0.09560598
254	0x3eb1b4b8	0.3470819
255	0xbd9ca7ff	-0.0764923

bias f4 [8]
0	0xbe206340	-0.15662861
1	0xbe33cdbd	-0.17558952
2	0x3d45a69a	0.048254587
3	0x3d123077	0.03569075
4	0x3e9db780	0.30804062
5	0x3c8d932d	0.017282093
6	0x3dce8a38	0.10084957
7	0xbe8120f5	-0.25220457
