model/MMAE_10_32_0.01.pt (torch, 108235 bytes, 24 tensors)

weight f4 [64, 60]
-0.033632934 -0.3138736 -0.15680735 -0.0074999738 -0.010470594 -0.09671837 -0.3690069 -0.076469794
-0.15861048 0.15886003 -0.13665822 -0.0109234275 -0.16327827 -0.06791344 -0.29719323 -0.04743575
-0.17361026 0.103239305 -0.17192078 0.00045322385 -0.0021544849 -0.050117675 0.07749702 -0.021201704
0.00143735 -0.14930926 -0.06929629 -0.05561624 -0.19142991 -0.07894876 -0.32033473 -0.113611504
-0.13721141 0.0887929 -0.27789345 -0.123209916 -0.08343071 -0.0009518518 0.14973602 -0.08895307
0.021487635 0.23531522 -0.035223346 -0.13779433 -0.028737199 0.14738962 -0.20005868 -0.13168108
-0.050804537 0.4308732 -0.13837396 -0.004547703 -0.05009258 0.34644514 -0.17541757 0.017911578
-0.1484961 0.4682499 0.03305708 -0.115341105 0.36983263 0.5113318 -0.23712589 0.14769045
0.37142217 0.27710095 0.041994177 0.2048221 0.25170374 -0.22183377 0.60160255 0.5451325
0.24408078 0.12540351 0.19119748 0.10544661 0.17009497 -8.409843e-07 0.68894863 0.045034148
0.19843866 0.24816908 -0.030564621 0.055574503 0.167202 0.019535432 0.08356493 -0.029305734
0.23711933 0.15629278 0.52750295 0.23394519 0.14298761 -0.27180392 0.25213057 0.38682112
0.18718275 -0.45664605 0.16277714 0.25856072 0.2292049 -0.16080171 0.09830388 0.10238443
0.18610655 0.26561335 -0.0025215705 0.5414318 0.26022583 0.43876424 0.5332758 0.3313055
0.1891446 0.5205306 0.2604761 -0.12842634 0.11247784 0.21350828 0.058253147 0.041648813
-0.098701656 0.00057807437 -0.73537475 -0.12595381 -0.050063852 -0.15993899 -0.5843263 0.04469002
-0.10366851 -0.14543769 -0.4371245 -8.669175e-05 -0.0006470689 -0.303206 -0.5631515 -0.06049125
-0.006445786 -0.18578292 -0.093892515 0.050527167 -0.16384843 -0.22248231 -0.41058862 -0.17196894
-0.07281764 -0.32264972 -0.23742035 -0.131299 -0.18433677 -0.121130586 -0.4869716 -0.026065478
-0.078971244 -0.029759392 -0.32310495 -0.061446905 -0.06004139 -0.046082053 -0.27647468 -0.08332669
-0.06820447 0.3080849 -0.46530014 -0.24888024 -0.16119835 0.50111544 -0.5618315 -0.09862199
-0.044954456 0.559575 -0.48281053 -0.10573627 -0.1403636 0.42728388 -0.25747126 -0.26663685
-0.16008347 0.53106576 -0.20682934 -0.25174078 -0.24977331 0.105749376 -0.038863976 -0.3107988
-0.26869917 0.25492325 -0.07663547 -0.23544317 -0.34656554 0.40378022 -0.27415466 -0.31146
-0.35722566 0.23420706 -0.2613138 -0.25505736 -0.24704659 0.24044998 -0.36954585 -0.28971824
-0.31577614 0.2379927 0.21940885 -0.12406571 -0.34041268 0.07885751 0.10705016 -0.3647304
-0.2307459 0.18181716 -0.32942155 -0.30625433 -0.32854337 0.08410192 -0.6204256 -0.32850575
-0.3045211 0.020806938 -0.098187625 -0.2998304 -0.34357026 -0.08727088 0.07292823 -0.372485
-0.3904771 -0.150138 0.20338526 -0.4581903 -0.21214184 -0.26902547 0.0125803705 -0.37765947
-0.35416442 -0.37381688 -0.2485849 -0.26191282 -0.36376017 -0.29617152 -0.051022936 -0.2764291
-0.043749966 -0.33677205 -0.37762305 -0.063886546 -0.17128032 -0.024675991 -0.47817484 0.092914835
-0.1744496 -0.015057045 -0.16022962 -0.010472711 -0.17672253 -0.39587787 -0.5391438 -0.14586015
00000000: b0c2 09bd 0ab4 a0be 1b92 20be 57c2 f5bb
00000010: db8c 2bbc 4814 c6bd 79ee bcbe 329c 9cbd
00000020: c96a 22be 34ac 223e 22f0 0bbe 2df8 32bc
00000030: 6b32 27be 3416 8bbd b629 98be fd4b 42bd
00000040: e3c6 31be 216f d33d 000c 30be ad9e ed39
00000050: 4232 0dbb 3148 4dbd c2b6 9e3d 32af adbc
00000060: 7665 bc3a 87e4 18be 37eb 8dbd dbcd 63bd
00000070: 3406 44be e3af a1bd ea02 a4be 26ad e8bd
00000080: 2681 0cbe 0dd9 b53d 0d48 8ebe 7b55 fcbd
00000090: b8dd aabd b185 79ba 6654 193e 072d b6bd
000000a0: d606 b03c 79f6 703e 5b46 10bd f519 0dbe
000000b0: 466a ebbc 4eed 163e 2fdc 4cbe 68d7 06be
000000c0: 6b18 50bd 699b dc3e e7b1 0dbe e604 95bb
000000d0: e12d 4dbd 4261 b13e aaa0 33be 4dbb 923c
000000e0: 5d0f 18be 73be ef3e dc66 073d f537 ecbd
000000f0: b45a bd3e a4e6 023f 21d1 72be 2a3c 173e
00000100: 0c2b be3e 2de0 8d3e 1602 2c3d e2bc 513e
00000110: 50df 803e 6428 63be a002 1a3f ce8d 0b3f
00000120: 50f0 793e c769 003e 46c9 433e 64f4 d73d
00000130: 602d 2e3e 00c0 61b5 f05e 303f ba75 383d
00000140: 8133 4b3e 0920 7e3e a862 fabc 17a2 633d
00000150: 0037 2b3e c508 a03c 1724 ab3d 9412 f0bc
00000160: 69cf 723e 370b 203e 6f0a 073f 548f 6f3e
00000170: 586b 123e e229 8bbe 4217 813e 6b0d c63e
00000180: d6ac 3f3e 83cd e9be 0daf 263e 1262 843e
00000190: b0b4 6a3e 34a9 24be 8b53 c93d eeae d13d
000001a0: b792 3e3e 79fe 873e ef40 25bb 469b 0a3f
000001b0: 523c 853e b5a5 e03e c384 083f e0a0 a93e
000001c0: 1faf 413e 7e41 053f 205d 853e 3282 03be
000001d0: c85a e63d eaa1 5a3e da9a 6e3d f297 2a3d
000001e0: 1824 cabd ea89 173a 8541 3cbf 09fa 00be
000001f0: c10f 4dbd 0cc7 23be 6996 15bf e20c 373d
00000200: 2850 d4bd 9eed 14be c8ce dfbe 47ce b5b8
00000210: 0fa0 29ba d13d 9bbe b22a 10bf acc5 77bd
00000220: 2c37 d3bb e13d 3ebe b84a c0bd 93f5 4e3d
00000230: e2c7 27be 67d2 63be ac38 d2be a018 30be
00000240: 6a21 95bd 5832 a5be 521e 73be 3f73 06be
00000250: c7c2 3cbe 5013 f8bd 5754 f9be 4587 d5bc
00000260: adbb a1bd f8c9 f3bc 036e a5be c0af 7bbd
00000270: f6ed 75bd 89c0 3cbd 178e 8dbe 2fa7 aabd
00000280: c9ae 8bbd 4ebd 9d3e d23b eebe 76da 7ebe
00000290: 2e11 25be 1a49 003f 30d4 0fbf 53fa c9bd
000002a0: 2a22 38bd 4f40 0f3f f132 f7be 428c d8bd
000002b0: 7abb 0fbe f4c4 da3e 46d3 83be a084 88be
000002c0: ecec 23be edf3 073f 12cb 53be 2be4 80be
000002d0: 93c4 7fbe 2193 d83d d52f 1fbd 0521 9fbe
000002e0: f092 89be 4d85 823e 0ff3 9cbd 0418 71be
000002f0: 0a71 b1be 48bc ce3e 005e 8cbe af77 9fbe
00000300: 48e6 b6be fad3 6f3e ecca 85be e196 82be
00000310: c8f9 7cbe 8538 763e 1d35 bdbe f355 94be
00000320: 69ad a1be 5cb4 733e b7ac 603e 2a16 febd
00000330: 924a aebe 0c80 a13d 1d3d db3d f1bd babe
00000340: a748 6cbe 472e 3a3e f1a9 a8be 5ecd 9cbe
00000350: d636 a8be a13d ac3d 36d4 1ebf e831 a8be
00000360: 31ea 9bbe 5073 aa3c 9816 c9bd 5f83 99be
00000370: 71e8 afbe 13bb b2bd 655b 953d 5bb6 bebe
00000380: 9dec c7be c7bd 19be 3a44 503e eb97 eabe
00000390: b63b 59be b5bd 89be e61d 4e3c 955c c1be
000003a0: 0a55 b5be ed64 bfbe 0a8d 7ebe 7019 86be
000003b0: c63e babe cba3 97be 6dfd 50bd 1d88 8dbe
000003c0: 2a33 33bd 636d acbe cf57 c1be f3d6 82bd
000003d0: 1c64 2fbe 4e25 cabc 55d3 f4be 224a be3d
000003e0: eaa2 32be d3b1 76bc 3c13 24be bc95 2bbc
000003f0: c0f6 34be 81b0 cabe 5405 0abf 5d5c 15be

bias f4 [64]
0.3507798 -0.2676617 0.055051 0.7116042 0.3161263 -0.4255027 0.4649086 -0.4879007
-0.27869207 0.42426333 0.1162168 -0.41844165 0.25772482 0.5713677 0.31903726 0.4570803
0.13037819 -0.36535126 0.44912654 -0.2734374 0.39889458 0.3366758 -0.3326632 -0.09874331
0.17251322 0.14387992 -0.4513448 0.5511952 -0.56200844 0.4865077 -0.5601149 -0.62009174
0.20132436 -0.2728147 0.08528429 0.38449728 0.09321594 -0.4774333 -0.36814648 -0.455736
0.4243712 -0.39662042 -0.21607266 0.3080213 -0.23561299 0.5289709 -0.71299654 -0.67870724
0.6845682 -0.34979156 0.2754777 -0.73780966 0.0022209743 0.29950103 -0.3008913 0.257452
-0.100819334 0.25678173 -0.46599722 -0.37064826 0.19663727 -0.15809618 0.16723952 0.41562
00000000: 6999 b33e f40a 89be 287d 613d b12b 363f
00000010: 4edb a13e 7ddb d9be 8008 ee3e 1fce f9be
00000020: bab0 8ebe 0b39 d93e 1303 ee3d fc3d d6be
00000030: 82f4 833e 2745 123f da58 a33e 6e06 ea3e
00000040: dc81 053e 520f bbbe eaf3 e53e fdff 8bbe
00000050: e93b cc3e c560 ac3e d552 aabe ef39 cabd
00000060: 4ea7 303e 4255 133e aa16 e7be 211b 0d3f
00000070: c9df 0fbf 8a17 f93e b163 0fbf 55be 1ebf
00000080: f927 4e3e 5eae 8bbe 88a9 ae3d d4dc c43e
00000090: 00e8 be3d 2372 f4be b27d bcbe 3b56 e9be
000000a0: 2f47 d93e d511 cbbe 2742 5dbe f8b4 9d3e
000000b0: 8844 71be a36a 073f f186 36bf c2bf 2dbf
000000c0: dd3f 2f3f e117 b3be 6a0b 8d3e 18e1 3cbf
000000d0: c48d 113b 3358 993e 6d0e 9abe c0d0 833e
000000e0: 5e7a cebd e578 833e 3097 eebe 9cc5 bdbe
000000f0: 485b 493e f7e3 21be d640 2b3e 25cc d43e

weight f4 [32, 64]
0.20203866 0.16190925 -0.027308127 -0.09787235 0.08960151 -0.32673392 -0.29123825 -0.0954974
0.06383576 -0.15755245 -0.3958355 -0.24691957 0.17543995 -0.37983006 0.44554642 0.30836117
0.3749638 0.07531721 0.29812428 -0.4170496 0.0127614755 -0.24369578 0.32565653 0.02048723
0.5368966 0.3472317 -0.28542516 -0.3483879 0.25926328 0.12003368 -0.108100526 0.23152673
0.14417298 0.043069497 0.38671744 -0.38828716 0.52197576 -0.3912278 0.35273123 -0.18530132
0.061721016 0.13212903 -0.19252944 -0.044677265 0.3340165 0.13077706 0.14424518 0.20166911
-0.29826662 0.44907248 0.3047661 -0.2705062 -0.041187383 0.35929453 0.41458893 0.33437836
0.37330478 -0.15856664 0.06881551 -0.49865505 -0.030070608 0.21737468 0.43247923 -0.11751732
-0.037655912 0.5717795 -0.04466785 -0.32729828 -0.16376403 0.089689046 -0.03454751 0.09560134
-0.06889179 -0.13180639 -0.15731446 0.03295636 -0.20563756 -0.46423668 -0.11636705 -0.018617457
0.067328595 0.24460101 -0.22612947 0.05237059 -0.09447609 -0.54098314 0.48594502 0.17451452
0.027621282 -0.04404366 0.29210854 -0.50962496 0.18097648 -0.18185075 0.122083195 0.24417649
0.1431028 -0.15350534 0.10804024 -0.53633636 0.3607007 0.066019036 0.43564603 0.40141207
-0.23400545 0.30869856 0.18190858 -0.09179829 0.40811044 -0.10039269 0.2154518 0.26922247
-0.41201034 0.16858791 -0.3000931 0.44581515 -0.15454404 -0.11973251 0.62307423 -0.14110334
0.3794164 -0.0982175 0.28342244 0.24893184 -0.014274005 0.43171653 0.04260175 -0.2421352
0.3399806 -0.14834405 0.3782898 0.0992609 0.26873952 0.11913326 0.31490996 -0.046462364
-0.15961713 0.38964283 0.13911982 -0.14992236 0.3156901 0.16868973 -0.17285013 -0.040470757
0.15311892 -0.36005723 -0.10299716 -0.003149002 0.38641495 0.14175476 -0.050741464 -0.21550351
-0.09000372 0.3950939 0.10591418 0.13830341 -0.25216487 0.3100451 -0.3350477 -0.4514075
0.016375097 -0.215565 -0.042867262 0.020363946 -0.13726637 0.050441947 -0.08920832 0.13752821
0.34911308 -0.2557147 0.1674779 0.3357297 -0.42454427 0.43443984 -0.333308 -0.38378993
0.2627773 -0.33987993 -0.087025635 0.068895936 0.19085844 0.0021802117 -0.10295612 -0.0849272
-0.06281559 0.63944435 -0.0967152 0.08024397 0.46446252 -0.21391718 -0.16870824 0.1308112
0.03478428 -0.30475575 -0.0439118 0.5373839 0.2218746 0.11732765 0.103339605 0.063017815
-0.097386055 -0.012909432 0.5717125 0.1279868 0.12507845 0.3948478 -0.41911754 -0.29721278
-0.064409874 -0.2507901 0.3069219 0.36880773 0.0052487217 0.32310095 -0.27059814 -0.13093604
-0.43039194 0.15081723 0.17615445 0.40195417 -0.34684882 0.15122716 -0.11334091 -0.28287703
-0.16273718 -0.016310167 -0.016988473 0.26189536 -0.23210034 0.36390585 -0.4085809 0.1579894
0.48354828 -0.59654 0.37330106 0.23980138 -0.43613183 0.0956461 -0.7452847 -0.24959102
0.42977428 -0.5006963 0.15595934 0.10487862 0.040119894 -0.07427812 -0.38421947 0.23627503
-0.31115422 -0.05718763 -0.3283021 0.34413993 0.15868664 -0.4002029 -0.31697267 0.45030376
00000000: 39e3 4e3e 8acb 253e 4bb5 dfbc 4c71 c8bd
00000010: ff80 b73d ab49 a7be 2e1d 95be 2494 c3bd
00000020: 53bc 823d 6e55 21be f3aa cabe 7cd8 7cbe
00000030: 88a6 333e 1679 c2be a91e e43e 84e1 9d3e
00000040: 41fb bf3e e93f 9a3d bfa3 983e 8687 d5be
00000050: 8215 513c 638b 79be 74bc a63e d6d4 a73c
00000060: 0e72 093f 5ac8 b13e 3f23 92be e65f b2be
00000070: 28be 843e 38d4 f53d cf63 ddbd 5815 6d3e
00000080: 15a2 133e a469 303d d4ff c53e 93cd c6be
00000090: 34a0 053f 034f c8be 3099 b43e a1bf 3dbe
000000a0: 2dcf 7c3d d54c 073e 7026 45be 82ff 36bd
000000b0: 3604 ab3e 6cea 053e 02b5 133e 5982 4e3e
000000c0: 67b6 98be d4ec e53e 4d0a 9c3e ca7f 8abe
000000d0: 1ab4 28bd 74f5 b73e 0045 d43e a433 ab3e
000000e0: ce21 bf3e 4b5f 22be 25ef 8c3d b74f ffbe
000000f0: a356 f6bc 7897 5e3e eb6d dd3e ecac f0bd
00000100: 163d 1abd 2460 123f a3f5 36bd a493 a7be
00000110: c2b1 27be e4ae b73d b181 0dbd a3ca c33d
00000120: 2417 8dbd 41f8 06be 0b17 21be 40fd 063d
00000130: a792 52be 6eb0 edbe d951 eebd a383 98bc
00000140: 93e3 893d b078 7a3e 7c8e 67be 8b82 563d
00000150: ae7c c1bd df7d 0abf c9cd f83e efb3 323e
00000160: 0746 e23c 2067 34bd 408f 953e c876 02bf
00000170: e651 393e 1537 3abe c106 fa3d 6709 7a3e
00000180: 8a89 123e 8130 1dbe 3444 dd3d 574d 09bf
00000190: c3ad b83e fd34 873d ff0c df3e e285 cd3e
000001a0: 209f 6fbe bd0d 9e3e 3e46 3a3e be00 bcbd
000001b0: daf3 d03e af9a cdbd 669f 5c3e 87d7 893e
000001c0: 05f3 d2be 4fa2 2c3e cea5 99be e241 e43e
000001d0: cb40 1ebe 5136 f5bd cb81 1f3f 657d 10be
000001e0: de42 c23e 4226 c9bd bf1c 913e fde7 7e3e
000001f0: 84dd 69bc f309 dd3e 2c7f 2e3d 4af2 77be
00000200: f011 ae3e 81e7 17be 33af c13e 4c49 cb3d
00000210: 3a98 893e 23fc f33d e13b a13e 524f 3ebd
00000220: ac72 23be 447f c73e 6d75 0e3e 3f85 19be
00000230: 22a2 a13e 00bd 2c3e a0ff 30be aac4 25bd
00000240: 35cb 1c3e 6c59 b8be 2df0 d2bd 7d5f 4ebb
00000250: 2ed8 c53e 2928 113e 48d6 4fbd f4ac 5cbe
00000260: df53 b8bd bf49 ca3e 89e9 d83d 699f 0d3e
00000270: c11b 81be 3bbe 9e3e 5f8b abbe e21e e7be
00000280: 1125 863c 12bd 5cbe 9595 2fbd 4ad2 a63c
00000290: 8e8f 0cbe 379c 4e3d dab2 b6bd 32d4 0c3e
000002a0: f3be b23e 0aed 82be 547f 2b3e c3e4 ab3e
000002b0: de5d d9be e66e de3e 59a7 aabe 1d80 c4be
000002c0: bf8a 863e be04 aebe 7f3a b2bd 5019 8d3d
000002d0: 6570 433e e2e1 0e3b a9da d2bd 50ee adbd
000002e0: 76a5 80bd a0b2 233f 9e12 c6bd f356 a43d
000002f0: 08ce ed3e 1b0d 5bbe dac1 2cbe 5ff3 053e
00000300: f679 0e3d f208 9cbe dcdc 33bd fe91 093f
00000310: 1833 633e 7b49 f03d b7a3 d33d 7c0f 813d
00000320: 5772 c7bd 1582 53bc c05b 123f f90e 033e
00000330: 9114 003e 7e29 ca3e 9396 d6be 462c 98be
00000340: 53e9 83bd 8f67 80be de24 9d3e 5ed4 bc3e
00000350: 78fd ab3b 7d6d a53e d78b 8abe 1914 06be
00000360: 555c dcbe d56f 1a3e d561 343e f0cc cd3e
00000370: 2b96 b1be 4bdb 1a3e 471f e8bd 42d5 90be
00000380: 93a4 26be e69c 85bc 692b 8bbc 2617 863e
00000390: b6ab 6dbe de51 ba3e 8431 d1be f9c7 213e
000003a0: a493 f73e d8b6 18bf 5121 bf3e 7e8e 753e
000003b0: ac4c dfbe 1ae2 c33d faca 3ebf ca94 7fbe
000003c0: 600b dc3e a22d 00bf ceb3 1f3e 9aca d63d
000003d0: c254 243d 211f 98bd 6ab8 c4be 15f2 713e
000003e0: 9b4f 9fbe 943d 6abd 3617 a8be 1c33 b03e
000003f0: c07e 223e 65e7 ccbe 3e4a a2be 378e e63e

bias f4 [32]
-0.7279353 -0.44045267 0.5014291 -0.049694385 0.30995566 0.2778501 0.058331963 -0.13705651
0.004244569 0.4901401 0.03646138 0.31412792 -0.28664038 -0.25126034 0.12161326 -0.26112264
0.096943624 -0.3672562 -0.43561617 0.08920366 0.37880933 0.097051345 0.55563647 -0.024872253
0.20973283 0.38306406 0.010843118 -0.16465028 -0.018700875 -0.3459853 -0.3517596 0.29952037
00000000: f859 3abf 0383 e1be a85d 003f 578c 4bbd
00000010: 82b2 9e3e 5e42 8e3e 7fed 6e3d 8b58 0cbe
00000020: 0716 8b3b a5f3 fa3e 8758 153d 60d5 a03e
00000030: 87c2 92be 32a5 80be 5f10 f93d deb1 85be
00000040: 618a c63d 0109 bcbe 1509 dfbe 69b0 b63d
00000050: 4cf3 c13e dbc2 c63d 313e 0e3f e5c0 cbbc
00000060: 34c4 563e f920 c43e 55a7 313c 159a 28be
00000070: 9432 99bc fc24 b1be d619 b4be bc5a 993e

weight f4 [8, 32]
-0.0369882 -0.006053534 0.16925949 0.099631354 -0.11206999 0.21230988 0.17057131 -0.4316268
-0.02733815 0.28239703 0.1766154 0.03400461 -0.083448544 0.12713471 0.12920313 0.12728792
0.17600673 -0.029242145 0.007142761 0.113722004 0.04235528 -0.051905885 -0.044981267 -0.010220892
-0.06963864 0.011291436 -0.19484754 0.05059478 0.22492795 0.07282879 0.1221453 -0.049908224
0.026014585 0.23865989 0.15255454 -0.096168354 -0.0779869 0.14993684 -0.15494046 -0.46775752
-0.13770883 0.14657354 0.0782526 -0.00091741094 -0.0731002 0.25841406 -0.2820676 0.026489047
0.17377406 -0.08343803 0.106463894 0.17983612 -0.049635895 -0.020633286 -0.124278836 -0.36128455
0.2842653 -0.34441844 -0.14370915 0.16157019 0.045634277 0.0023441932 0.06690779 0.021557441
0.12538557 0.13847978 -0.31321022 -0.1175729 0.18588568 -0.1888715 -0.21013305 -0.11616886
0.09272659 0.10080412 0.1935913 -0.26778668 0.32865748 0.13599357 0.047250338 -0.263673
-0.020534169 0.13931972 -0.030525899 0.09065484 0.09606154 -0.29230133 -0.021522118 0.05127314
-0.16872467 -0.03375629 0.2694132 0.17552471 0.06517266 -0.10227215 -0.13670024 0.009684811
0.05647146 0.23937565 0.21863246 -0.05424708 -0.16997968 0.298324 0.0764894 -0.1866187
-0.2172098 0.041820016 0.08835744 0.05757865 -0.022969186 -0.12067722 -0.12930185 -0.12193405
-0.118432604 -0.0010655524 0.1362677 0.011592546 0.08016222 0.26752067 0.16711599 -0.27722338
0.003942131 0.122631215 -0.25429717 0.24475789 -0.031931844 0.3671709 0.02942933 -0.09786206
0.06402042 0.1601808 0.16623783 -0.11418737 0.027282147 0.21551307 0.20379733 -0.042104363
-0.074221626 -0.027100846 0.0035838252 0.07756451 -0.14762719 0.18667728 0.060023732 0.09590759
-0.011808328 -0.029546402 0.23940508 0.05440578 -0.020920597 0.27780342 0.09765966 -0.17510109
0.20899802 -0.07060536 -0.09915087 -0.010072215 0.07432061 0.15048891 0.16746168 -0.30051282
0.01198484 0.24311523 0.1498855 -0.19158146 0.15480639 0.06863759 -0.17229421 -0.786273
-0.094906345 0.051800955 0.25920627 -0.22871272 0.04117053 0.43711084 -0.37525436 -0.21744838
0.23966326 -0.08050339 0.12002548 0.51039916 -0.11140861 -0.0875774 -0.008302916 -0.29424477
0.39707178 -0.39464903 0.032602105 0.20511276 -0.0632618 0.15656939 0.1509828 -0.093965635
0.19523373 0.020049209 -0.18753126 0.013133533 -0.13183363 -0.023423292 0.24257419 0.21091054
0.32781366 -0.46542454 -0.19891824 -0.39979428 0.27204847 -0.060310777 -0.35125533 0.2311602
-0.27356055 0.118034355 0.29548952 -0.5124659 -0.3068902 0.37238878 0.0141992215 -0.008756344
0.4888983 -0.43114585 0.2580886 0.45429596 -0.4273998 -0.0102695925 0.33433253 -0.70974123
0.23843926 0.08222419 0.03631412 -0.25674918 0.014270581 0.13507806 -0.3622241 -0.26133502
0.034157917 -0.021826953 0.23458827 -0.2004763 0.040297963 0.21552445 -0.20842211 -0.17580542
0.24078426 0.093698785 -0.04001885 0.15857394 -0.29491714 0.019904574 0.0044319867 -0.106470376
0.2856242 -0.27597854 0.28377673 0.2403973 0.038854197 -0.1285277 0.08414092 -0.25586385
00000000: f080 17bd b95c c6bb 5c52 2d3e 860b cc3d
00000010: f384 e5bd c367 593e 3faa 2e3e 30fe dcbe
00000020: 42f4 dfbc 5896 903e abda 343e 6b48 0b3d
00000030: 12e7 aabd 9a2f 023e d34d 043e c457 023e
00000040: 1c3b 343e 398d efbc d20d ea3b 15e7 e83d
00000050: bb7c 2d3d 449b 54bd 473e 38bd 8775 27bc
00000060: b49e 8ebd b7ff 383c 1d86 47be 793c 4f3d
00000070: 8353 663e 4327 953d 5127 fa3d 916c 4cbd
00000080: 8a1c d53c 4263 743e 4237 1c3e eaf3 c4bd
00000090: 99b7 9fbd 0b89 193e b6a8 1ebe ea7d efbe
000000a0: 8b03 0dbe 6017 163e e642 a03d 687e 70ba
000000b0: 8fb5 95bd d94e 843e 2a6b 90be 8fff d83c
000000c0: d4f1 313e 8fe1 aabd be09 da3d f626 383e
000000d0: 024f 4bbd 2307 a9bc e785 febd 4afa b8be
000000e0: 398b 913e 9d57 b0be 7e28 13be a872 253e
000000f0: 02eb 3a3d 09a1 193b f406 893d 3b99 b03c
00000100: 1365 003e a5cd 0d3e 175d a0be 10ca f0bd
00000110: d158 3e3e 8867 41be 1e2d 57be f0e9 edbd
00000120: 70e7 bd3d 6472 ce3d cc3c 463e 561b 89be
00000130: cb45 a83e e641 0b3e 9289 413d 2600 87be
00000140: 4637 a8bc d4a9 0e3e 7311 fabc 3fa9 b93d
00000150: eabb c43d 85a8 95be 274f b0bc c903 523d
00000160: 29c6 2cbe 0944 0abd 87f0 893e c0bc 333e
00000170: 3e79 853d 1074 d1bd 26fb 0bbe 0bad 1e3c
00000180: 9e4e 673d e41e 753e 30e1 5f3e 3032 5ebd
00000190: 270f 2ebe ecbd 983e 79a6 9c3d f918 3fbe
000001a0: 3f6c 5ebe 774b 2b3d bff4 b43d 97d7 6b3d
000001b0: e029 bcbc 9e25 f7bd b467 04be 8fb8 f9bd
000001c0: cb8c f2bd 01aa 8bba c389 0b3e a9ee 3d3c
000001d0: 172c a43d 78f8 883e 7420 2b3e 39f0 8dbe
000001e0: fe2c 813b 1326 fb3d 3d33 82be d0a1 7a3e
000001f0: f7ca 02bd d3fd bb3e c715 f13c e76b c8bd
00000200: 231d 833d 7006 243e 403a 2a3e 11db e9bd
00000210: cf7e df3c 75af 5c3e 3fb0 503e a075 2cbd
00000220: 8201 98bd 9802 debc 9cde 6a3b 24da 9e3d
00000230: 952b 17be 5428 3f3e 72db 753d 336b c43d
00000240: b877 41bc 4c0b f2bc 9b26 753e 98d8 5e3d
00000250: ac61 abbc 403c 8e3e ca01 c83d b34d 33be
00000260: 9403 563e 8b99 90bd 9d0f cbbd ef05 25bc
00000270: 6735 983d c419 1a3e 137b 2b3e d1dc 99be
00000280: 105c 443c 33f3 783e 967b 193e ee2d 44be
00000290: 9185 1e3e dd91 8c3d e56d 30be 3049 49bf
000002a0: 425e c2bd 3d2d 543d afb6 843e ab33 6abe
000002b0: 6ea2 283d fecc df3e 5721 c0be caaa 5ebe
000002c0: 496a 753e f6de a4bd ebcf f53d 85a9 023f
000002d0: 332a e4bd c85b b3bd f408 08bc 40a7 96be
000002e0: fe4c cb3e 700f cabe c989 053d 1409 523e
000002f0: 678f 81bd ba53 203e 3c9b 1a3e 0e71 c0bd
00000300: 5aeb 473e 3d3e a43c 3208 40be 082e 573c
00000310: 65ff 06be 34e2 bfbc 5e65 783e eff8 573e
00000320: 31d7 a73e 204c eebe 39b1 4bbe d6b1 ccbe
00000330: f049 8b3e 6f08 77bd bdd7 b3be 42b5 6c3e
00000340: 2110 8cbe ffbb f13d 674a 973e f730 03bf
00000350: b620 9dbe bea9 be3e daa3 683c c576 0fbc
00000360: e150 fa3e 26bf dcbe 3024 843e 7b99 e83e
00000370: 26d4 dabe cb41 28bc a22d ab3e 9ab1 35bf
00000380: 6c29 743e 2865 a83d 1dbe 143d a174 83be
00000390: 28cf 693c e751 0a3e 7075 b9be b4cd 85be
000003a0: 2ce9 0b3d 70ce b2bc e837 703e a949 4dbe
000003b0: 7a0f 253d 71b2 5c3e 9b6c 55be 5606 34be
000003c0: 2690 763e 26e5 bf3d ceea 23bd 3561 223e
000003d0: 61ff 96be eb0e a33c 333a 913b 240d dabd
000003e0: 563d 923e 0f4d 8dbe 2f4b 913e b62a 763e
000003f0: 9425 1f3d c49c 03be 1352 ac3d 9600 83be

bias f4 [8]
0.54530495 0.5636428 -0.4583593 0.48566094 0.55221635 0.7139174 0.120949246 0.10469567
00000000: 1b99 0b3f e54a 103f 12ae eabe 8da8 f83e
00000010: 0d5e 0d3f 4ac3 363f 3db4 f73d af6a d63d

weight f4 [64, 45]
0.24736725 0.7977452 0.83635867 0.1099147 0.63356966 0.8252567 0.0077041807 0.66937274
0.6423886 -0.119426005 0.65339196 0.7766817 -0.27299866 0.61901987 0.5297844 -0.27866217
0.5040974 0.6360521 -0.31425643 0.57356983 0.5308254 -0.25357872 0.53209597 0.48612174
-0.2053029 0.2594494 0.36333978 -0.342394 0.33745107 0.2671891 -0.35878652 0.19842112
0.14861895 -0.43024993 0.470185 0.4079377 -0.36170322 0.26888585 0.276302 -0.3184841
0.25712734 0.21779871 -0.38137132 0.06274095 0.059529487 -0.38545483 -0.26515207 -0.15870312
-0.54350334 -0.23826018 -0.27162862 -0.35549417 -0.5630811 -0.5253732 -0.54505396 -0.4668108
-0.28169483 -0.5951227 -0.32544136 -0.16015184 -0.5840207 -0.41985643 -0.3263528 -0.50957936
-0.13685857 -0.3374289 -0.47640538 -0.35111508 -0.3622828 -0.33329692 -0.19150575 -0.31721982
-0.53943 -0.37056795 -0.34477454 -0.2711392 -0.33892003 -0.27000508 -0.18936406 -0.28287366
-0.3383689 -0.2758574 -0.3010728 -0.3213952 0.13149185 -0.2593988 -0.36685756 0.10322199
-0.28700462 -0.41047123 -0.3563842 -0.45992005 -0.5245451 -0.40677676 -0.4390585 -0.50822324
-0.24607757 -0.7398718 -0.7776218 -0.29627705 -0.5801497 -0.53099835 -0.48719603 -0.3304971
-0.4378166 -0.33921078 -0.52060735 -0.45272335 -0.4980626 -0.2947808 -0.42294848 -0.41037774
-0.39521328 -0.40993908 -0.33026376 -0.46679574 -0.25859195 -0.37277132 -0.24807432 -0.31490633
-0.18189162 -0.29092526 -0.2723635 -0.19706212 -0.409622 -0.4196394 -0.16049397 -0.34426188
-0.23150031 0.13067067 -0.39831606 -0.40298775 0.23071733 -0.40002584 -0.33904663 -0.22993398
-0.68607914 -0.7496982 0.005186621 -0.5215698 -0.7153967 0.06423174 -0.5509332 -0.50263464
0.06776652 -0.60855204 -0.44767782 0.0994367 -0.38245797 -0.50690854 0.033624467 -0.39672798
-0.5234073 -0.083427094 -0.5210306 -0.43622637 0.026506653 -0.43078676 -0.44743314 0.05368784
-0.40549257 -0.2882653 0.1881972 -0.4252933 -0.23180386 0.21952632 -0.23854233 -0.25992018
0.2506793 -0.3987719 -0.28857946 0.11366627 -0.3950528 -0.37152547 0.46774924 -0.24552819
-0.36201188 0.4179318 -0.21617605 -0.23306514 -0.1764632 -0.5186717 -0.53559744 -0.19016019
-0.4747707 -0.44879436 0.087979354 -0.43694502 -0.4368056 0.080077276 -0.3946289 -0.2905222
0.16905235 -0.29007328 -0.32043317 0.39460927 -0.2918467 -0.32395428 0.15335393 -0.3177285
-0.27408978 0.23967908 -0.22748551 -0.1330965 0.40640646 -0.07116059 -0.1262529 0.424695
-0.07088082 -0.044463504 0.43410525 0.15262267 0.0730342 0.5078967 -0.06454911 -0.06867673
0.39372084 -0.038251705 0.047303334 0.4176642 0.047086723 0.11758016 0.60255146 0.11664236
0.15465611 -0.19483615 0.16012211 0.15142186 -0.16967021 0.27880877 0.23423478 -0.15802994
0.42399362 0.3937166 -0.27356678 0.4385039 0.45198792 -0.11342087 0.34071454 0.4554062
-0.20094997 0.4273204 0.3077433 -0.22329648 0.15949702 0.21136421 -0.3201074 0.19503872
0.1363521 -0.34874085 0.0007568125 0.07302415 -0.43638197 0.06654074 0.12739883 -0.4362594
00000000: d74d 7d3e 0839 4c3f 9a1b 563f f51a e13d
00000010: 9f31 223f 0644 533f 5a73 fc3b 035c 2b3f
00000020: 9473 243f 9f95 f4bd b244 273f 9dd4 463f
00000030: 7bc6 8bbe 1678 1e3f f39f 073f cfac 8ebe
00000040: 870c 013f 4fd4 223f 38e6 a0be 79d5 123f
00000050: 2ce4 073f 12d5 81be 7137 083f f3e4 f83e
00000060: ec3a 52be 8dd6 843e ac07 ba3e 444e afbe
00000070: 63c6 ac3e 02cd 883e deb2 b7be e82e 4b3e
00000080: 912f 183e b849 dcbe 17bc f03e 36dd d03e
00000090: 2a31 b9be 68ab 893e 7577 8d3e 5910 a3be
000000a0: 32a6 833e a006 5f3e 1a43 c3be 547e 803d
000000b0: 31d5 733d 565a c5be 03c2 87be 1283 22be
000000c0: 0923 0bbf 7afa 73be e812 8bbe 5503 b6be
000000d0: 1526 10bf dc7e 06bf a888 0bbf d301 efbe
000000e0: 4e3a 90be f659 18bf 40a0 a6be d8fe 23be
000000f0: 6182 15bf 6cf7 d6be b717 a7be cb73 02bf
00000100: a724 0cbe 7bc3 acbe 68eb f3be 5bc5 b3be
00000110: 227d b9be e5a5 aabe 151a 44be a36a a2be
00000120: 1618 0abf 15bb bdbe 4a86 b0be c2d2 8abe
00000130: ed86 adbe 1b3e 8abe a7e8 41be d1d4 90be
00000140: b03e adbe 2e3d 8dbe 3726 9abe e98d a4be
00000150: cda5 063e ebcf 84be c1d4 bbbe 0d66 d33d
00000160: 45f2 92be 4929 d2be fd77 b6be a47a ebbe
00000170: 9648 06bf 0b45 d0be 47cc e0be eb1a 02bf
00000180: c2fb 7bbe 3d68 3dbf 3912 47bf a0b1 97be
00000190: b184 14bf 82ef 07bf c271 f9be ea36 a9be
000001a0: 7f29 e0be 09ad adbe 8646 05bf 5bcb e7be
000001b0: 1002 ffbe 82ed 96be b48c d8be 081d d2be
000001c0: 6559 cabe 89e3 d1be 5518 a9be daff eebe
000001d0: 2a66 84be e2db bebe 3207 7ebe 673b a1be
000001e0: cc41 3abe 28f4 94be 3b73 8bbe a7ca 49be
000001f0: fab9 d1be fada d6be 8858 24be 1843 b0be
00000200: 6b0e 6dbe 88ce 053e 15f0 cbbe 6954 cebe
00000210: 2a41 6c3e 30d0 ccbe 8597 adbe d073 6bbe
00000220: e2a2 2fbf 39ec 3fbf 88f4 a93b 9985 05bf
00000230: 3d24 37bf ee8b 833d f509 0dbf aaac 00bf
00000240: 2cc9 8a3d 11ca 1bbf 0736 e5be 78a5 cb3d
00000250: 88d1 c3be c2c4 01bf cfb9 093d ee1f cbbe
00000260: 05fe 05bf d3db aabd 4362 05bf 1059 dfbe
00000270: 7b24 d93c 1590 dcbe f515 e5be c8e7 5b3d
00000280: b99c cfbe 8297 93be c4b6 403e 0bc0 d9be
00000290: fe5d 6dbe 82cb 603e 7144 74be 4214 85be
000002a0: 0a59 803e d52b ccbe b0c0 93be ddc9 e83d
000002b0: 5c44 cabe 9638 bebe d47c ef3e be6b 7bbe
000002c0: 9f59 b9be 28fb d53e 415d 5dbe a1a8 6ebe
000002d0: c5b2 34be abc7 04bf ea1c 09bf 5ab9 42be
000002e0: 2515 f3be 60c8 e5be 852e b43d 42b7 dfbe
000002f0: fca4 dfbe 8eff a33d cd0c cabe 53bf 94be
00000300: 0f1c 2d3e 7c84 94be d10f a4be 3a0a ca3e
00000310: ee6c 95be 56dd a5be d008 1d3e 4fad a2be
00000320: 7f55 8cbe 6f6e 753e f6f1 68be 734a 08be
00000330: 8214 d03e a5bc 91bd 7148 01be 9f71 d93e
00000340: f729 91bd 5d1f 36bd 0b43 de3e 1e49 1c3e
00000350: f492 953d 8505 023f 5332 84bd 63a6 8cbd
00000360: c795 c93e d2ad 1cbd 24c1 413d 15d8 d53e
00000370: 02de 403d decd f03d d040 1a3f 31e2 ee3d
00000380: 2c5e 1e3e 2183 47be 0df7 233e 550e 1b3e
00000390: 07be 2dbe 06c0 8e3e 3edb 6f3e 9ad2 21be
000003a0: b115 d93e 3995 c93e f210 8cbe 9583 e03e
000003b0: f66a e73e 3349 e8bd 2372 ae3e 002b e93e
000003c0: d4c5 4dbe bdc9 da3e 8890 9d3e d5a7 64be
000003d0: 3053 233e dc6f 583e 1ee5 a3be 3bb8 473e
000003e0: e39f 0b3e 298e b2be d464 463a b08d 953d
000003f0: 756d dfbe 8346 883d d774 023e 645d dfbe

bias f4 [64]
-0.61133456 0.66301936 1.0125409 0.1442922 0.3997173 -0.56338906 -0.49292144 -0.4830366
0.37673032 -0.9124652 -0.83888656 0.95907146 -0.9492206 0.48399884 -0.96374005 -0.81868684
-0.29698047 0.762268 -0.5248645 -0.85442066 -0.7973025 -0.7827558 -0.2880342 0.75406235
0.475683 -0.8417586 -0.52101755 -0.47264853 -0.5091572 0.3122083 -0.83304906 0.7515359
-0.38189483 1.0285491 -0.25630504 -0.846621 -0.7878692 -1.0040749 0.8043065 0.78762084
-0.59181195 -0.4309911 -0.76375276 0.33788848 0.7870988 0.7509277 -0.46854398 0.76418453
0.2760389 0.56047815 0.24720247 -0.86666155 1.0032426 -0.21485716 0.17288959 0.41159934
-0.7193128 0.6646214 -0.6356613 -0.45987478 0.0047836774 -0.77133584 0.84610707 -0.90827376
00000000: 6c80 1cbf a3bb 293f f19a 813f 56c1 133e
00000010: bfa7 cc3e 443a 10bf 3360 fcbe 9350 f7be
00000020: cce2 c03e 5297 69bf 45c1 56bf b585 753f
00000030: 1f00 73bf b2ce f73e abb7 76bf 7695 51bf
00000040: d30d 98be ff23 433f 855d 06bf 50bb 5abf
00000050: 041c 4cbf af62 48bf 3879 93be 3b0a 413f
00000060: b98c f33e 7e7d 57bf 6861 05bf fdfe f1be
00000070: 2058 02bf c4d9 9f3e b442 55bf a864 403f
00000080: b887 c3be 7fa7 833f 6a3a 83be 27bc 58bf
00000090: ccb1 49bf 8785 80bf 08e7 4d3f 85a1 493f
000000a0: fd80 17bf deaa dcbe 4d85 43bf b8ff ac3e
000000b0: 4f7f 493f cc3c 403f ffe4 efbe 99a1 433f
000000c0: f854 8d3e 7f7b 0f3f a522 7d3e 88dd 5dbf
000000d0: 416a 803f 8403 5cbe f809 313e 26bd d23e
000000e0: e224 38bf a124 2a3f b3ba 22bf b574 ebbe
000000f0: 65c0 9c3b 4476 45bf 799a 583f a184 68bf

weight f4 [32, 64]
-0.054815255 0.11372013 0.0015661744 -0.006212579 -0.16512005 -0.20583871 -0.029529518 0.55132395
-0.61689687 -0.020934828 -0.10473996 0.11683086 -0.007255959 0.011836403 0.041491017 -0.23927593
0.5441803 0.15867297 -0.20035523 -0.110095486 0.33919427 0.12290306 0.26695788 0.096028574
0.12952195 -0.1628043 0.3041235 0.32504532 0.4997639 -0.019077845 -0.20778668 -0.17715207
0.5046268 0.17340627 0.3391022 0.040999148 -0.27056217 -0.03297051 0.13413452 0.058631517
0.5077808 0.71005124 0.27138096 -0.25992167 0.061036907 -0.04478056 0.019911386 -0.24530156
-0.2486544 -0.3884189 -0.24460569 0.19230735 -0.029658886 0.58001256 -0.02401924 -0.25915316
-0.08644571 -0.43028858 0.15774027 0.50902694 -0.13540483 -0.051587127 -0.1613017 -0.25596085
-0.41728348 -0.113620125 -0.074251056 0.40446243 0.5267555 0.08630033 0.41551143 -0.2659802
0.14145678 0.58788973 0.56312054 -0.56952244 0.24507138 -0.5715476 0.47135246 -0.24675676
-0.08065027 -0.29385194 -0.005242158 -0.30277312 0.5523371 0.5428028 0.079232134 -0.11179876
-0.029464962 0.18362248 -0.4189858 -0.3119768 -0.30375564 -0.5178346 0.67892504 -0.60160404
-0.30402982 -0.34606373 -0.24519339 0.5817088 0.01865455 0.51715934 -0.2775078 -0.18388097
-0.19626242 -0.018877776 0.73636454 0.43232033 -0.35627243 -0.116820976 -0.5825658 -0.6798235
0.3773998 0.35778642 0.42149988 0.76135564 -0.5827139 0.33126414 -0.33438283 0.35706162
-0.029768655 0.44777682 0.2377383 -0.20731176 0.5420865 0.7791006 -0.7854983 0.14350867
0.05919328 -0.3351465 -0.7142029 -0.14237636 0.19565538 0.18740548 0.13426961 0.21786247
-0.21088956 0.39448223 0.49064884 -0.26818317 0.577717 -0.47952607 0.52563775 0.49268267
0.47137716 -0.62934625 0.5829774 0.014912804 0.42971107 0.53117424 0.47724402 -0.28616253
-0.4585208 0.34080344 -0.06629286 0.27233517 0.1688567 -0.62820697 0.31289122 -0.59936064
0.22046576 -0.15218721 0.39231634 0.476523 0.3525108 0.21714427 -0.6378018 -0.62751853
0.18706909 0.27031025 0.66591996 0.1765774 -0.6671615 -0.5123287 0.13283688 -0.5795301
-0.0046064807 -0.34177333 0.0058921217 0.6389306 -0.24206644 0.8381974 -0.62153316 0.068085074
0.37321687 -0.04261488 0.5253145 0.3937677 0.28202936 0.17179684 -0.36741722 0.41259968
-0.3201902 -0.10566858 -0.17624584 0.20425452 0.087158866 -0.04759807 0.041115727 -1.0108435
0.76186293 -0.0026982483 0.07328874 -0.20361403 -0.18134795 0.35448337 -0.21340501 0.2459241
-0.84897816 0.09856082 0.22944008 -0.42799178 -0.35629594 -0.1921452 -0.29225707 -0.13526429
-0.1767087 0.21768954 -0.055372864 -0.81566113 -0.25554296 -0.057357155 -0.04146551 0.10146144
-0.7457941 0.054167144 -0.45970464 -0.16573633 0.114819184 0.10414495 -0.1326653 -0.1375906
-0.7734521 -1.0940672 -0.30688483 -0.08704945 0.06640883 0.2896672 -0.38458085 0.27199095
0.25160825 0.65501446 -0.12745565 -0.20939286 0.17795165 -0.6236903 0.2031854 0.10416724
0.15023646 0.74945176 -0.30943993 -0.76335156 -0.1262231 0.07983242 0.11529804 0.1401732
00000000: f685 60bd 19e6 e83d 1848 cd3a e492 cbbb
00000010: 3b15 29be 62c7 52be e3e7 f1bc 9123 0d3f
00000020: f4ec 1dbf 847f abbc e781 d6bd 0545 ef3d
00000030: 65c3 edbb 79ed 413c 7cf2 293d c004 75be
00000040: 664f 0b3f 2b7b 223e ec29 4dbe be79 e1bd
00000050: dfaa ad3e 99b4 fb3d b4ae 883e a1aa c43d
00000060: 67a1 043e 2cb6 26be 13b6 9b3e 576c a63e
00000070: 0ee1 ff3e 2449 9cbc 08c6 54be 5a67 35be
00000080: 392f 013f 6a91 313e ce9e ad3e b9ee 273d
00000090: 2087 8abe 160c 07bd 8f5a 093e 9a27 703d
000000a0: ecfd 013f ebc5 353f 72f2 8a3e 7414 85be
000000b0: d601 7a3d d26b 37bd 341d a33c 5530 7bbe
000000c0: 429f 7ebe d8de c6be ea79 7abe 38ec 443e
000000d0: 31f7 f2bc b47b 143f ffc3 c4bc b9af 84be
000000e0: 730a b1bd c94e dcbe aa86 213e 974f 023f
000000f0: 90a7 0abe 064d 53bd 462c 25be 4d0d 83be
00000100: 2ea6 d5be abb1 e8bd f010 98bd b315 cf3e
00000110: 73d9 063f 3abe b03d eabd d43e 8f2e 88be
00000120: 0cda 103e f17f 163f ab28 103f 39cc 11bf
00000130: fef3 7a3e f250 12bf 1c55 f13e cead 7cbe
00000140: f82b a5bd c373 96be 69c6 abbb 1405 9bbe
00000150: f765 0d3f 20f5 0a3f 7544 a23d c0f6 e4bd
00000160: 8160 f1bc 8807 3c3e 4f85 d6be 6cbb 9fbe
00000170: dc85 9bbe cf90 04bf 08ce 2d3f b902 1abf
00000180: cca9 9bbe 442f b1be fa13 7bbe deea 143f
00000190: 6dd1 983c 8e64 043f 8115 8ebe 4b4b 3cbe
000001a0: 04f9 48be 91a5 9abc 6382 3c3f 1759 dd3e
000001b0: 5769 b6be d63f efbd 0823 15bf ea08 2ebf
000001c0: 8c3a c13e c82f b73e d5ce d73e 34e8 423f
000001d0: bd2c 15bf 749b a93e 3a34 abbe c8d0 b63e
000001e0: 65dd f3bc 0143 e53e ab71 733e 8949 54be
000001f0: 2ec6 0a3f 2373 473f 6b16 49bf f0f3 123e
00000200: a774 723d 5298 abbe 00d6 36bf 1ccb 11be
00000210: e259 483e 39e7 3f3e f97d 093e 5717 5f3e
00000220: 6ff3 57be 93f9 c93e 5336 fb3e 4e4f 89be
00000230: 43e5 133f 7184 f5be 3290 063f e740 fc3e
00000240: 5958 f13e d61c 21bf 023e 153f d554 743c
00000250: 1703 dc3e 09fb 073f 5459 f43e e583 92be
00000260: 3dc3 eabe ca7d ae3e 8dc4 87bd 846f 8b3e
00000270: c5e8 2c3e 2cd2 20bf 4733 a03e b36f 19bf
00000280: c7c1 613e f7d6 1bbe b0dd c83e d3fa f33e
00000290: 4c7c b43e 115b 5e3e fb46 23bf 0ea5 20bf
000002a0: 0a8f 3f3e 1b66 8a3e bb79 2a3f b5d0 343e
000002b0: 19cb 2abf f927 03bf 6406 083e 165c 14bf
000002c0: f6f1 96bb eafc aebe b312 c13b f590 233f
000002d0: 44e0 77be 1b94 563f cc1c 1fbf 3070 8b3d
000002e0: 4816 bf3e f18c 2ebd 037b 063f ec9b c93e
000002f0: 2766 903e 83eb 2f3e 1c1e bcbe 4440 d33e
00000300: f8ef a3be c568 d8bd ca79 34be 1928 513e
00000310: 5980 b23d 32f6 42bd f768 283d 5263 81bf
00000320: 7309 433f 18d5 30bb 6818 963d 3280 50be
00000330: 47b3 39be d87e b53e d886 5abe 87d3 7b3e
00000340: a256 59bf 41da c93d 57f2 6a3e bd21 dbbe
00000350: 6c6c b6be b6c1 44be b8a2 95be b982 0abe
00000360: 20f3 34be 02ea 5e3e a8ce 62bd 2bcf 50bf
00000370: 87d6 82be 56ef 6abd bdd7 29bd 04cb cf3d
00000380: 5dec 3ebf 5ede 5d3d 685e ebbe c9b6 29be
00000390: 5226 eb3d f349 d53d 6ad9 07be 8de4 0cbe
000003a0: f500 46bf 650a 8cbf 0220 9dbe fb46 b2bd
000003b0: 5a01 883d 424f 943e c8e7 c4be 6642 8b3e
000003c0: ccd2 803e 07af 273f bc83 02be 156b 56be
000003d0: f538 363e 2baa 1fbf d50f 503e a255 d53d
000003e0: 96d7 193e 12dc 3f3f e96e 9ebe 026b 43bf
000003f0: a140 01be 2e7f a33d 6121 ec3d 9089 0f3e

bias f4 [32]
0.021454047 0.276268 0.30869526 -0.06958947 0.10896264 -0.43604115 -0.27755523 -0.29635105
0.46144453 0.22666453 -0.115706444 -0.18251683 0.33243504 -0.45801374 0.07247749 0.24969357
-0.16328084 0.098375164 -0.19325252 -0.17024803 -0.16026172 -0.0048632068 -0.5343381 -0.31669492
-0.31526446 -0.13072641 -0.1263698 0.08466555 -0.07692412 0.06916155 0.12788843 -0.15960117
00000000: 66c0 af3c 0073 8d3e 4e0d 9e3e ed84 8ebd
00000010: ce27 df3d c940 dfbe b81b 8ebe 53bb 97be
00000020: 7542 ec3e bf1a 683e 80f7 ecbd b1e5 3abe
00000030: ed34 aa3e c780 eabe 146f 943d acaf 7f3e
00000040: 1833 27be eb78 c93d fde3 45be 8055 2ebe
00000050: a61b 24be 895b 9fbb 62ca 08bf d625 a2be
00000060: 586a a1be 25dd 05be 1667 01be 2265 ad3d
00000070: 658a 9dbd 92a4 8d3d 2ff5 023e 7d6e 23be

weight f4 [8, 32]
0.40504134 0.37712112 0.98962617 -0.19455312 1.1139039 1.0518514 -1.0335544 1.0425891
1.0650198 -0.88338006 -1.025565 0.69619995 -0.85601 0.25958848 0.9743641 0.34241748
-0.55739194 1.1307455 1.2895967 -0.0781676 -0.51842743 0.27860677 1.0802463 0.30391097
-0.34775856 -0.83258134 -0.7033093 1.0522192 -0.3689855 -1.062892 0.7853448 0.92371905
-0.22950889 -0.5389573 -0.5331083 0.39413065 -0.96999025 -0.938533 0.7235104 -0.41707844
-0.6860945 0.5375187 0.541946 -0.3906961 0.44208157 -0.29401407 -0.49612287 -0.17755382
0.21821192 -1.0312487 -0.8197088 0.17741498 0.3156336 -0.19843096 -0.8515306 -0.41669464
0.30593494 0.6245881 0.43029964 -0.6801637 0.30140597 1.0576216 -0.55451375 -0.73252326
-0.07310279 -0.1014521 0.26066935 0.014913991 -0.028831754 -0.027153729 -0.07138819 -0.0480403
0.21453519 -0.056519978 -0.13182542 0.055288166 0.13628908 -0.14565231 -0.10401185 0.045029607
-0.16378725 -0.10733751 0.22490247 -0.07433739 0.07095442 -0.06125773 -0.073813185 -0.014137796
-0.04481641 0.049246587 0.33654746 0.22489613 0.1881725 0.221804 -0.021951057 0.045144886
-0.35978648 -0.17600645 -0.47186917 0.26412764 -0.21020949 -0.26800695 0.48862666 -0.65316653
-0.2700433 0.60490173 0.26094288 -0.19040132 0.4405248 -0.29963276 -0.5186201 -0.14984483
0.39146143 -0.3066452 -0.56068647 0.059718743 0.22204478 0.08669264 -0.23673059 -0.18156256
0.25376377 0.24473777 0.13292702 -0.42096576 0.087535016 0.21785948 -0.3107612 0.03842383
-0.6485398 -0.27909306 -0.79136467 0.47886294 -0.5525725 -0.584647 0.7204416 -0.47998038
-0.8854337 0.68814594 0.24693441 -0.62937105 0.5527651 -0.32559723 -0.83239853 -0.49774837
0.7102128 -0.8426955 -0.91135436 -0.0031641857 0.022885751 -0.034991976 -0.32531887 -0.6618714
0.16314349 0.5309511 0.156458 -0.5101547 0.25513747 0.46586177 -0.7383684 -0.20234601
0.5391985 0.41836932 0.80633056 -0.5282542 0.5905476 0.50156444 -0.6069461 0.7568263
0.83060443 -0.70524937 -0.24214736 0.48751894 -0.5426452 0.26812306 0.7716689 0.57014656
-0.6084358 0.7008026 0.93242913 -0.05817086 -0.09700154 0.06501129 0.28811777 0.4764665
-0.18634288 -0.61587673 -0.28314212 0.72674114 -0.38043422 -0.41176784 0.64976597 0.17665195
0.11855915 0.07547001 0.22507437 -0.22516713 0.377029 0.0062234886 -0.26416418 0.17220417
0.5186747 -0.16256799 -0.09838326 0.47038746 -0.01706032 -0.13395593 0.1987317 -0.017462015
-0.17016794 0.17502575 0.43372193 -0.15698338 0.23115379 0.013529057 0.145497 0.22217534
-0.01912285 -0.28440958 0.12974261 0.18276753 0.114432305 -0.01354689 0.4276331 -0.059110057
0.09514164 0.15160367 -0.08817122 -0.20804547 0.14020734 0.28707826 0.13442054 0.013305409
0.069345504 -0.00038790732 0.0027072378 -0.14485393 0.16602135 0.25862345 -0.12460203 0.1972566
-0.03175749 0.48285618 -0.1522296 0.0037386108 -0.10094128 0.06314635 0.45165977 0.04645275
0.20116568 -0.022689285 -0.1233803 -0.010669214 -0.30250946 -0.27126986 0.11420933 0.06426885
00000000: 9461 cf3e 0516 c13e 2458 7d3f ef38 47be
00000010: 6794 8e3f 11a3 863f 834b 84bf 8f73 853f
00000020: 9252 883f 3225 62bf b745 83bf 293a 323f
00000030: 7923 5bbf c8e8 843e ed6f 793f 5851 af3e
00000040: 3db1 0ebf 45bc 903f 8111 a53f 5616 a0bd
00000050: a9b7 04bf 8ca5 8e3e 8345 8a3f 389a 9b3e
00000060: 690d b2be 0d24 55bf 140c 34bf 1eaf 863f
00000070: abeb bcbe d80c 88bf 5b0c 493f da78 6c3f
00000080: 6104 6bbe 1bf9 09bf c979 08bf 7ecb c93e
00000090: 4851 78bf b343 70bf fa37 393f 4e8b d5be
000000a0: e4a3 2fbf d39a 093f f9bc 0a3f 5209 c8be
000000b0: 8458 e23e 0389 96be d103 febe abd0 35be
000000c0: f272 5f3e f5ff 83bf 70d8 51bf 46ac 353e
000000d0: ba9a a13e 7c31 4bbe e9fd 59bf 0059 d5be
000000e0: 81a3 9c3e 01e5 1f3f 3c50 dc3e 351f 2ebf
000000f0: e251 9a3e 2560 873f 9df4 0dbf a586 3bbf
00000100: eab6 95bd 1ec6 cfbd 7476 853e d059 743c
00000110: 9230 ecbc 7f71 debc f933 92bd e8c5 44bd
00000120: 1daf 5b3e 7e81 67bd 3efd 06be d875 623d
00000130: 5d8f 0b3e e125 15be 2a04 d5bd f770 383d
00000140: d8b7 27be c5d3 dbbd d54c 663e 343e 98bd
00000150: 8d50 913d 63e9 7abd 5e2b 97bd 37a2 67bc
00000160: 6991 37bd cab6 493d f34f ac3e 2c4b 663e
00000170: 4bb0 403e 9620 633e b4d2 b3bc d8e9 383d
00000180: ef35 b8be 093b 34be d698 f1be bd3b 873e
00000190: 2841 57be 3538 89be 462d fa3e ec35 27bf
000001a0: 1e43 8abe d7da 1a3f 4e9a 853e 90f8 42be
000001b0: 778c e13e 7769 99be 49c4 04bf ec70 19be
000001c0: a26d c83e 9a00 9dbe 2689 0fbf a49b 743d
000001d0: b55f 633e e98b b13d 8169 72be 89eb 39be
000001e0: 53ed 813e 8a9c 7a3e 051e 083e d388 d7be
000001f0: 8f45 b33d 8e16 5f3e 181c 9fbe 4e62 1d3d
00000200: b406 26bf 49e5 8ebe e096 4abf 862d f53e
00000210: 6475 0dbf 6dab 15bf dc6e 383f fdbf f5be
00000220: c8ab 62bf 552a 303f 60dc 7c3e 761e 21bf
00000230: 0382 0d3f aeb4 a6be 1218 55bf e0d8 febe
00000240: 82d0 353f e4ba 57bf 854e 69bf 3a5e 4fbb
00000250: e67a bb3c bf53 0fbd 3290 a6be 6770 29bf
00000260: 160f 273e 69ec 073f 8736 203e 8099 02bf
00000270: 61a1 823e 6f85 ee3e b605 3dbf cb33 4fbe
00000280: ea08 0a3f 8134 d63e ae6b 4e3f ab3b 07bf
00000290: 212e 173f 8766 003f d260 1bbf 5ebf 413f
000002a0: 7ea2 543f 398b 34bf 7af5 77be 159c f93e
000002b0: ccea 0abf 6d47 893e 188c 453f 20f5 113f
000002c0: 73c2 1bbf cd67 333f adb3 6e3f 9144 6ebd
000002d0: bea8 c6bd a424 853d 2c84 933e 6bf3 f33e
000002e0: abd0 3ebe 19aa 1dbf 01f8 90be b50b 3a3f
000002f0: 46c8 c2be 3cd3 d2be 1057 263f 40e4 343e
00000300: 24cf f23d 0590 9a3d e579 663e 3692 66be
00000310: f209 c13e 68ee cb3b 8740 87be 4a56 303e
00000320: ddc7 043f 3978 26be 2a7d c9bd a0d6 f03e
00000330: 16c2 8bbc be2b 09be 5380 4b3e 800c 8fbc
00000340: 8140 2ebe f339 333e cd10 de3e 40c0 20be
00000350: 94b3 6c3e faa8 5d3c 2afd 143e ef81 633e
00000360: 86a7 9cbc 229e 91be 3fdb 043e 6927 3b3e
00000370: 7c5b ea3d c6f3 5dbc baf2 da3e 631d 72bd
00000380: 9fd9 c23d fe3d 1b3e 1d93 b4bd df09 55be
00000390: 8392 0f3e ecfb 923e 8aa5 093e eefe 593c
000003a0: 0405 8e3d 0a60 cbb9 ea6b 313b 9754 14be
000003b0: 8001 2a3e 4b6a 843e 592f ffbd a2fd 493e
000003c0: 2414 02bd ed38 f73e 14e2 1bbe 7b03 753b
000003d0: 4dba cebd e052 813d f33f e73e 3d45 3e3d
000003e0: 60fe 4d3e e1de b9bc d0ae fcbd edcd 2ebc
000003f0: 85e2 9abe e2e3 8abe 95e6 e93d 639f 833d

bias f4 [8]
0.17420103 0.07282679 0.325667 -0.53396297 0.1113875 0.07695538 -0.0016118585 -0.5957609
00000000: c161 323e 3626 953d d3bd a63e ccb1 08bf
00000010: 211f e43d c89a 9d3d ff44 d3ba c983 18bf

weight f4 [32, 16]
0.012965281 0.33883518 -0.43832484 0.075500496 0.4385996 0.04706726 0.16438428 -0.1119024
0.031782076 0.012032266 0.2995703 -0.36026302 -0.5993138 0.6296071 0.34669226 -0.10883481
-0.28756258 -0.2939949 -0.14956552 -0.0292543 -0.22568417 -0.12190574 -0.2717817 -0.14593638
-0.52848303 0.5507688 0.21667673 -0.038312715 0.34000358 -0.3641905 0.15805963 -0.03564997
0.10284293 0.18208323 0.08106999 0.18682545 0.14055653 0.29953954 -0.009459804 -0.10964503
0.37406337 -0.60438514 -0.18841906 0.010166658 -0.39936167 0.2816924 0.16638392 -0.072999716
-0.08322586 -0.041266557 0.28567684 -0.0599233 -0.037129562 0.122846045 -0.34642708 -0.1683092
-0.20350099 0.39730984 0.220036 0.34527332 0.54714566 -0.49425685 0.00064500066 -0.009756975
-0.046185795 -0.17848909 0.016520008 -0.10777353 -0.19562964 0.026565878 0.020606754 -0.33820817
0.3365937 -0.7931879 0.557927 -0.41781026 -0.5728931 0.7665288 0.6004587 -0.01790002
-0.17361587 -0.2716878 0.16910496 -0.24360803 -0.24545409 -0.07491166 0.011739339 0.11294898
-0.42969334 0.22544311 -0.01749856 0.24556406 0.86323947 -0.60640323 0.2526342 0.06440443
-0.0358361 -0.07394544 -0.11969541 -0.052109882 -0.2792659 -0.04965894 0.1302637 -0.093403265
-0.45158854 0.26122877 0.08996547 0.24853072 0.39612654 -0.7203608 -0.36925495 0.2430804
-0.090532176 -0.03607558 -0.14977778 0.081805594 0.0022897932 0.19354647 0.27494225 0.043799855
-0.33984354 0.35843438 -0.317798 0.31722093 0.7265742 -0.68699706 -0.23581217 0.295739
0.3906194 0.34950352 -0.31202465 0.073289275 0.231181 0.12824054 -0.35877118 -0.38764682
-0.59009063 0.36919093 -0.21500884 0.04303164 0.18928137 -0.21218006 -0.22300683 0.03934346
0.15405275 -0.0648563 -0.03656601 -0.06476228 0.055887096 0.018498868 0.24292341 -0.3638458
-0.49363202 0.9274939 -0.19616808 0.054987356 0.23029907 -0.37272307 -0.1177216 -0.03966008
0.25937143 0.5996046 0.08416218 0.2639563 0.15776558 0.91084343 -0.08523995 0.4360871
-0.07151668 0.39756992 0.010249914 0.3567874 -0.03786454 -0.25316563 -0.1933408 0.053802975
-0.31794536 -0.3076285 0.20241296 -0.37262508 -0.16856097 -0.6201182 0.16795938 0.054794617
0.5521602 -0.24451399 0.03515424 -0.45184624 -0.71259314 0.52066106 0.60074663 0.25065494
-0.58434343 -0.006739373 0.2106189 -0.09090412 0.14495194 -0.8711439 0.5190825 0.23219487
-0.40862364 0.23883453 0.104284555 0.03892582 0.3900561 -0.3436415 -0.107116945 -0.12167053
-0.034349073 -0.3266349 0.0047714813 -0.38132545 0.034503978 -0.19132586 0.40632623 0.19383606
0.33253536 0.09273987 0.4135767 -0.085668124 -0.59711707 0.6568538 0.36769354 -0.15999624
-0.005674816 -0.24134669 0.15043256 -0.15257996 -0.094799206 -0.052701958 0.07818407 0.027168574
-0.40498006 0.3888083 -0.098894164 0.111095734 0.64915377 -0.4829485 -0.39981696 -0.11233252
0.11204552 0.022862002 -0.07721831 0.16014446 0.3091945 0.2960397 0.003925225 -0.06711897
0.588565 -0.44175342 -0.23225796 -0.47231272 -0.3093177 0.47406426 -0.17089167 0.012242403
00000000: 546c 543c ce7b ad3e 1d6c e0be 01a0 9a3d
00000010: 2090 e03e 99c9 403d 5a54 283e 162d e5bd
00000020: ec2d 023d fb22 453c 4761 993e 6574 b8be
00000030: a16c 19bf ee2d 213f a681 b13e c9e4 debd
00000040: 673b 93be 8086 96be b427 19be b7a6 efbc
00000050: c019 67be b7a9 f9bd f926 8bbe 5970 15be
00000060: aa4a 07bf 2fff 0c3f 81e0 5d3e cbed 1cbd
00000070: f314 ae3e 2d77 babe 62da 213e b405 12bd
00000080: 509f d23d 0774 3a3e 0608 a63d 2c4f 3f3e
00000090: 0dee 0f3e 3f5d 993e 4bfd 1abc 938d e0bd
000000a0: 3c85 bf3e fcb8 1abf edf0 40be 0e92 263c
000000b0: 2279 ccbe fc39 903e 8c60 2a3e e080 95bd
000000c0: 5272 aabd 1f07 29bd 3c44 923e 2272 75bd
000000d0: 2b15 18bd b596 fb3d e45e b1be 3f59 2cbe
000000e0: 9062 50be 326c cb3e 1e51 613e aac7 b03e
000000f0: bd11 0c3f 3c0f fdbe 4315 293a b8db 1fbc
00000100: 512d 3dbd d8c5 36be f854 873c 5eb8 dcbd
00000110: 2353 48be afa0 d93c 7fcf a83c 9f29 adbe
00000120: 0256 ac3e 5d0e 4bbf 4ed4 0e3f 3aeb d5be
00000130: 1fa9 12bf 3b3b 443f a9b7 193f 10a3 92bc
00000140: 5cc8 31be aa1a 8bbe da29 2d3e 6274 79be
00000150: 5158 7bbe 496b 99bd 5b56 403c cb51 e73d
00000160: c400 dcbe 8fda 663e 2459 8fbc 2575 7b3e
00000170: 43fd 5c3f 3e3d 1bbf 4559 813e 78e6 833d
00000180: e0c8 12bd b570 97bd de22 f5bd 2c71 55bd
00000190: f1fb 8ebe 2c67 4bbd d963 053e 364a bfbd
000001a0: 9d36 e7be c7bf 853e d13f b83d d67e 7e3e
000001b0: 19d1 ca3e 9169 38bf fc0e bdbe 12ea 783e
000001c0: ef68 b9bd fdc3 13bd 595f 19be b189 a73d
000001d0: 5b10 163b 0c31 463e 3bc5 8c3e 7a67 333d
000001e0: f9ff adbe b684 b73e 6bb6 a2be c86a a23e
000001f0: c400 3a3f 0adf 2fbf bf78 71be 1a6b 973e
00000200: 44ff c73e 20f2 b23e b2c1 9fbe b018 963d
00000210: b6ba 6c3e 7d51 033e dbb0 b7be a579 c6be
00000220: 2e10 17bf 9806 bd3e 472b 5cbe f241 303d
00000230: fad2 413e bb45 59be e75b 64be 9c26 213d
00000240: 01c0 1d3e 61d3 84bd 3ec6 15bd 16a2 84bd
00000250: dee9 643d f08a 973c eac0 783e ff49 babe
00000260: 56bd fcbe 3d70 6d3f 49e0 48be 6c3a 613d
00000270: 85d3 6b3e 8fd5 bebe 0618 f1bd 9c72 22bd
00000280: 55cc 843e b07f 193f 395d ac3d 4825 873e
00000290: 4d8d 213e 092d 693f 4892 aebd cf46 df3e
000002a0: 5677 92bd 498e cb3e 41ef 273c d7ac b63e
000002b0: d917 1bbd ed9e 81be 21fb 45be 8260 5c3d
000002c0: bcc9 a2be 7c81 9dbe 5845 4f3e b7c8 bebe
000002d0: 3f9b 2cbe 11c0 1ebf 8bfd 2b3e 5270 603d
000002e0: 5f5a 0d3f e061 7abe e4fd 0f3d 6458 e7be
000002f0: 816c 36bf 0b4a 053f 88ca 193f d855 803e
00000300: 8897 15bf f5d5 dcbb 7bac 573e f02b babd
00000310: 486e 143e 4903 5fbf 97e2 043f 7ec4 6d3e
00000320: 1e37 d1be 0a91 743e 2493 d53d ae70 1f3d
00000330: 6fb5 c73e c7f1 afbe 2160 dbbd 662e f9bd
00000340: 9db1 0cbd b13c a7be 165a 9c3b 173d c3be
00000350: 0b54 0d3d edea 43be fe09 d03e f67c 463e
00000360: 1342 aa3e 67ee bd3d 53c0 d33e c572 afbd
00000370: aadc 18bf 9227 283f 5442 bc3e 0ed6 23be
00000380: cff3 b9bb 9623 77be fe0a 1a3e ec3d 1cbe
00000390: 1626 c2bd 02de 57bd f81e a03d a190 de3c
000003a0: 8c59 cfbe e211 c73e 0689 cabd 2986 e33d
000003b0: f12e 263f 0745 f7be cfb4 ccbe 980e e6bd
000003c0: 1f78 e53d 1849 bb3c a224 9ebd e9fc 233e
000003d0: be4e 9e3e 8492 973e 2d9f 803b ac75 89bd
000003e0: 32ac 163f 812d e2be 08d5 6dbe f9d2 f1be
000003f0: e45e 9ebe 8db8 f23e 3afe 2ebe 5c94 483c

bias f4 [32]
0.39912605 -0.4168493 0.244426 0.046757754 -0.17001909 -0.33681282 -0.0380107 0.003096096
0.5643887 -0.09615324 0.04629358 -0.79544497 0.037048936 -0.48436785 -0.24551424 0.07942395
-0.12414978 0.3728375 0.09655208 0.27925256 0.757224 -0.71776706 0.016486816 -0.42549342
0.29934233 0.046500944 -0.5796961 -0.5446505 0.4552158 0.675245 0.36957225 -0.11771256
00000000: 405a cc3e 456d d5be cf4a 7a3e 0f85 3f3d
00000010: 7c19 2ebe bb72 acbe 1cb1 1bbd dfe7 4a3b
00000020: c77b 103f fdeb c4bd 569e 3d3d 48a2 4bbf
00000030: a0c0 173d 10ff f7be 1668 7bbe 06a9 a23d
00000040: 3d42 febd 8fe4 be3e 19bd c53d 31fa 8e3e
00000050: 6fd9 413f 95bf 37bf 5c0f 873c 46da d9be
00000060: 6643 993e c677 3e3d f766 14bf 376e 0bbf
00000070: 0c12 e93e dbdc 2c3f 9338 bd3e 4813 f1bd
