model/MMAE_10_32_0.01.pt (torch, 115979 bytes, 24 tensors)

weight f4 [64, 60]
0	0x3c20c208	0.009811886
1	0x3570eb3a	8.9749267e-07
2	0xb3d0d5c6	-9.72464e-08
3	0x3540a58f	7.1766493e-07
4	0xbe5b9835	-0.21444781
5	0xb47dbbb5	-2.3630749e-07
6	0xb3e1afd4	-1.0509362e-07
7	0x3487c4fe	2.528904e-07
8	0xbdda5996	-0.106616184
9	0xb34939b4	-4.685144e-08
10	0x3509f3bf	5.1391174e-07
11	0x3480a43b	2.396135e-07
12	0xbd17bff1	-0.037048284
13	0xb363c8f8	-5.3035336e-08
14	0x34230acc	1.5184486e-07
15	0xb4dd50cf	-4.1223254e-07
16	0xbd0e47ed	-0.034736563
17	0x35585cae	8.0601137e-07
18	0xb4de9260	-4.1457224e-07
19	0xb52701e9	-6.221513e-07
20	0xbd9adfaf	-0.075621955
21	0x33a5e53d	7.7251094e-08
22	0x3244e4a4	1.1460688e-08
23	0x346b5787	2.1917923e-07
24	0xbe1653a2	-0.14680341
25	0xb4640b8c	-2.1238355e-07
26	0x34ec419f	4.400617e-07
27	0xb3dac1a0	-1.0186636e-07
28	0xbd2690c6	-0.04066541
29	0xb55c6255	-8.209948e-07
30	0xb4ee6606	-4.4405186e-07
31	0x34807564	2.392727e-07
32	0x3c409b1d	0.011755732
33	0x3451f645	1.9554234e-07
34	0x349a7d74	2.8776014e-07
35	0xb4b29841	-3.3265863e-07
36	0xbd8714e2	-0.0659578
37	0x3542d9c2	7.258751e-07
38	0x350f72b8	5.343859e-07
39	0x3541cfab	7.22003e-07
40	0x3caec259	0.021332907
41	0x346e6760	2.2203085e-07
42	0x349733dc	2.8163674e-07
43	0x338d21e6	6.57199e-08
44	0xbd1581d9	-0.036500785
45	0x3380e440	6.001983e-08
46	0xb53033c6	-6.564045e-07
47	0xb4329156	-1.6630415e-07
48	0xbe02607d	-0.1273212
49	0x33c87030	9.3336325e-08
50	0xb4d9554d	-4.0481464e-07
51	0x35319d79	6.616679e-07
52	0xbe0ae6d4	-0.13564616
53	0x32303c6a	1.0258285e-08
54	0x34ac4bbe	3.2092606e-07
55	0x3577967c	9.2233654e-07
56	0xbd0b1361	-0.033954028
57	0xb50306df	-4.88113e-07
58	0x33e06f22	1.0451028e-07
59	0xb4068ef2	-1.2531726e-07
60	0xbe566198	-0.20935667
61	0x34329bdb	1.6634242e-07
62	0x35011e3e	4.8100253e-07
63	0x3514a39c	5.537238e-07
64	0xbd32619a	-0.04355011
65	0x34fa3712	4.6606198e-07
66	0xb5765ec7	-9.178006e-07
67	0xb5837e80	-9.797077e-07
68	0xbdce35de	-0.10068868
69	0x33cae2b2	9.4475936e-08
70	0xb3d05e4a	-9.702906e-08
71	0x34e22e30	4.2129386e-07
72	0xbd8bb06a	-0.06820758
73	0xb4c617db	-3.689773e-07
74	0x33f5f4d2	1.1453234e-07
75	0xb5379829	-6.8394235e-07
76	0xbdd09e52	-0.10186447
77	0xb4d94dd4	-4.0476027e-07
78	0x3439e5f9	1.7313131e-07
79	0x352b743e	6.387162e-07
80	0xbe6ca3d4	-0.2310937
81	0x3470a7ea	2.2412829e-07
82	0x348161c8	2.4099268e-07
83	0x335fc6ff	5.210222e-08
84	0xbd228ac3	-0.039683115
85	0xb502159c	-4.846022e-07
86	0xb51ce148	-5.8442356e-07
87	0xb579ffbd	-9.3131877e-07
88	0xbdcc9275	-0.09988872
89	0xb48aea26	-2.5874868e-07
90	0x345a471e	2.0328704e-07
91	0x3499c800	2.864399e-07
92	0xbd59e875	-0.053200204
93	0x350ceb74	5.2496694e-07
94	0x34e82bbe	4.3245194e-07
95	0xb544992a	-7.3238573e-07
96	0xbde25c36	-0.11052744
97	0x3480dc4a	2.400214e-07
98	0x35512346	7.7909897e-07
99	0xb4c29326	-3.624238e-07
100	0xbe636eb8	-0.22210205
101	0xb50dcdb4	-5.282593e-07
102	0xb541dbe0	-7.2218063e-07
103	0xb54c9986	-7.621933e-07
104	0xbd04a867	-0.032387163
105	0x35195f29	5.713542e-07
106	0xb399b3f4	-7.157351e-08
107	0xb45fe458	-2.0851564e-07
108	0xbd9b7703	-0.07591059
109	0xb4d45fe3	-3.9557844e-07
110	0x35438c66	7.284747e-07
111	0xb53756ff	-6.829941e-07
112	0xbe39043d	-0.18068023
113	0x34dadd8c	4.076686e-07
114	0x34b20b35	3.3163238e-07
115	0xb31700e4	-3.5158237e-08
116	0xbd958947	-0.07301574
117	0x347a9a9e	2.3339314e-07
118	0xb46f6e66	-2.2298772e-07
119	0x3485afc2	2.490106e-07
120	0x3d97ba28	0.07408553
121	0x359bd3bc	1.1610023e-06
122	0x336ee217	5.561932e-08
123	0xb392beda	-6.8333705e-08
124	0xbddac39e	-0.10681842
125	0xb4222c95	-1.5103645e-07
126	0xb3a35971	-7.606548e-08
127	0x35233a8a	6.080742e-07
128	0xbd947fd3	-0.07250943
129	0xb4e4b844	-4.260238e-07
130	0x34cb7397	3.78958e-07
131	0x3585fd37	9.982967e-07
132	0xbda27abb	-0.07933565
133	0xb5944ad4	-1.1048637e-06
134	0xb4e152d0	-4.196977e-07
135	0xb539f4bf	-6.9274023e-07
136	0x3d269e3b	0.040678244
137	0x345be9ac	2.0480974e-07
138	0x358f8c98	1.0695248e-06
139	0xb56ad487	-8.748106e-07
140	0x3c2eae5f	0.0106616905
141	0x31385c80	2.6828104e-09
142	0x351e12ad	5.8886764e-07
143	0x33dc2edc	1.0253072e-07
144	0x3cc85f66	0.024459552
145	0x34afb6ae	3.2729207e-07
146	0x34cf31cc	3.8592987e-07
147	0x351760c5	5.63927e-07
148	0xbd9b0c68	-0.07570726
149	0x33a0102a	7.453521e-08
150	0xb4f75a89	-4.6073208e-07
151	0x34e43646	4.2507799e-07
152	0xbcb536a8	-0.022120789
153	0x33fa9a1a	1.1669563e-07
154	0xb53ab1a9	-6.954893e-07
155	0xb3e2b548	-1.055692e-07
156	0xbd1c7c83	-0.03820468
157	0x3528a2e7	6.282193e-07
158	0x3318a8b8	3.5543707e-08
159	0xb4188b91	-1.4206877e-07
160	0xbe001c0f	-0.12510704
161	0x347fa470	2.3808548e-07
162	0xb557d5d1	-8.0404885e-07
163	0x356d0e61	8.8310304e-07
164	0x3db1a43f	0.086739056
165	0x34f66944	4.5897661e-07
166	0x32538278	1.2311482e-08
167	0x34492928	1.8734556e-07
168	0x3d8c5646	0.06852393
169	0x34ed5498	4.420624e-07
170	0x34848136	2.468093e-07
171	0xb4e8dd62	-4.3374445e-07
172	0xbd9b033d	-0.07568977
173	0xb30eee3c	-3.3278624e-08
174	0xb52736dd	-6.2292185e-07
175	0x35743c70	9.098503e-07
176	0xbdb0fce1	-0.08641983
177	0xb395ff92	-6.984841e-08
178	0x350a163a	5.144135e-07
179	0x34e67c88	4.2931447e-07
180	0xbb3a512b	-0.0028429728
181	0xb4c4740c	-3.659228e-07
182	0x34656fe5	2.1367994e-07
183	0xb4576b91	-2.0062568e-07
184	0x3b8ec0aa	0.0043564634
185	0xb3b4b690	-8.415111e-08
186	0xb46f37f8	-2.2278971e-07
187	0x31fbb5f0	7.3257453e-09
188	0xbd0ca3d7	-0.034335937
189	0xb3ff07ca	-1.187578e-07
190	0xb4caa244	-3.7743496e-07
191	0xb378fc57	-5.79715e-08
192	0xbde36f35	-0.111051954
193	0xb49548c3	-2.7806354e-07
194	0xb4d1e7c2	-3.909791e-07
195	0x3494eabb	2.7737937e-07
196	0xbca10f2d	-0.019660557
197	0x33a583e8	7.707405e-08
198	0x33390c40	4.308481e-08
199	0x354fe12d	7.7441183e-07
200	0xbd1a7d18	-0.037716955
201	0xb5289dd4	-6.281455e-07
202	0xb30242e6	-3.0328827e-08
203	0xb44d000c	-1.909213e-07
204	0x3d1c6926	0.038186215
205	0x34fbab0e	4.6876852e-07
206	0xb3d24765	-9.7918736e-08
207	0x35893fae	1.0225829e-06
208	0x3cbc5037	0.022987468
209	0xb566dd22	-8.600347e-07
210	0x34a5fa20	3.0915635e-07
211	0x339b6692	7.2364074e-08
212	0x3ca94a0b	0.02066519
213	0xb501a436	-4.8295203e-07
214	0xb4ad8ae1	-3.232481e-07
215	0xb5582212	-8.051585e-07
216	0x3d4d2c90	0.050091326
217	0xb583e9f3	-9.828349e-07
218	0x349bcdaa	2.902064e-07
219	0x337d543a	5.8982756e-08
220	0xbbced9d4	-0.006312588
221	0xb437d4c7	-1.7120611e-07
222	0xb3a0fc8f	-7.496521e-08
223	0x34af8792	3.269493e-07
224	0x3d4db78d	0.050223876
225	0x32d6ecc8	2.5020555e-08
226	0x33b23330	8.298082e-08
227	0xb5013b34	-4.8142397e-07
228	0xbe01e15b	-0.12683623
229	0xb5273270	-6.2285744e-07
230	0xb51892da	-5.683811e-07
231	0xb498aff5	-2.8440232e-07
232	0xbda25e8e	-0.07928191
233	0xb29a531c	-1.7965753e-08
234	0xb4f390c6	-4.5367614e-07
235	0x33a0b356	7.4832016e-08
236	0xbd853f7e	-0.06506251
237	0xb53b345e	-6.9739133e-07
238	0x351c942a	5.8330136e-07
239	0xb5909e5a	-1.0774922e-06
240	0xbe8d0009	-0.2753909
241	0x331dad31	3.6711928e-08
242	0x34f470ab	4.5530518e-07
243	0x34041e7b	1.2304547e-07
244	0xbe89e067	-0.26929018
245	0x34914801	2.7060744e-07
246	0x351bf369	5.809621e-07
247	0x33eef7b6	1.1127797e-07
248	0xbe20fab9	-0.15720643
249	0x353d3041	7.0478205e-07
250	0xb588c3f2	-1.0189817e-06
251	0x346f2315	2.2271372e-07
252	0xbe17616f	-0.14783262
253	0xb4231796	-1.5189138e-07
254	0x34a21eae	3.0197174e-07
255	0xb3a9a726	-7.90008e-08

bias f4 [64]
0	0xbd32f8cd	-0.043694306
1	0x3cd404b4	0.025881149
2	0xbdb24d6a	-0.08706172
3	0xbd9cece0	-0.07662368
4	0x3d2c9fb5	0.042144496
5	0xbe241d54	-0.16026813
6	0xbd4ce078	-0.050018758
7	0x3e837c8e	0.25680965
8	0xbcbf5023	-0.023353642
9	0xbdaec615	-0.08533875
10	0x3d97407a	0.07385345
11	0x3d1bf053	0.038070988
12	0xbdd3a50e	-0.10334216
13	0xbd90ccbb	-0.07070299
14	0x3d8de04a	0.06927545
15	0x3d9a40f7	0.07531922
16	0x3d33a975	0.04386278
17	0x3ddb00b6	0.10693495
18	0x3e5ebf5c	0.21752685
19	0x3de68862	0.11256482
20	0x3e3a9af8	0.18223178
21	0xbcb2397e	-0.02175593
22	0x3d8eba1d	0.06969092
23	0x3d45983d	0.04824089
24	0x3deede18	0.11663455
25	0x3d9a4351	0.07532371
26	0xbd60e1f8	-0.054903
27	0x3e23c820	0.1599431
28	0x3e05d45b	0.13069288
29	0x3b186f96	0.002325987
30	0xbe3c043c	-0.1836099
31	0x3d78e5ca	0.06076602
32	0xbd2cc713	-0.04218204
33	0x3cbf787d	0.023372883
34	0xbd8463cd	-0.06464348
35	0xbc662b26	-0.014048373
36	0xbdf64881	-0.12025548
37	0x3d9716c2	0.073773876
38	0xbe494668	-0.19655764
39	0x3e691c6d	0.2276475
40	0xbd1fe973	-0.039040994
41	0xbc57de22	-0.013175519
42	0xbc84e9a6	-0.016224694
43	0x3d1d78bc	0.03844522
44	0xbd5167bb	-0.051124316
45	0xbe2e01f4	-0.16992933
46	0xbd1227cc	-0.035682485
47	0xbce49157	-0.027901335
48	0x3cb6a975	0.0222976
49	0xbdd937fd	-0.10606382
50	0x3d10cc33	0.03535099
51	0x3ba56403	0.0050473227
52	0xbe18efdb	-0.14935248
53	0x3dfb20b1	0.12262095
54	0xbe541443	-0.20710854
55	0x3e2c3421	0.1681676
56	0xbdda73f0	-0.106666446
57	0xbdb76749	-0.08955247
58	0x3d0cf41c	0.03441249
59	0x3d54c297	0.051943388
60	0x3cf8a773	0.030353284
61	0x3dd22c8a	0.102624014
62	0xbdf44ec7	-0.11929088
63	0x3caaa7fc	0.020832054

weight f4 [32, 64]
0	0x3e1e2b94	0.15446311
1	0x3dd8aa45	0.10579351
2	0x3d88ebbd	0.066855885
3	0x3da534e1	0.080667265
4	0x3afacf5c	0.0019135284
5	0xbe37abb1	-0.17936589
6	0xbb0ec35c	-0.0021783924
7	0x3de13c32	0.109978095
8	0xbe08b873	-0.13351612
9	0xbd08ab2c	-0.033366367
10	0xbe024afa	-0.12723914
11	0x3c8ecf09	0.017432706
12	0xbd153fdf	-0.036437865
13	0x3df22484	0.11823371
14	0xbe5f22d8	-0.21790636
15	0xbe922943	-0.28547105
16	0xbe0880de	-0.13330409
17	0x3d52a974	0.051431134
18	0x3dc1e3d2	0.094672814
19	0xbe490692	-0.19631413
20	0x3e1355d8	0.14388216
21	0xbd2ee177	-0.04269549
22	0x3e0c6f16	0.13714251
23	0xbe6f3e46	-0.23363599
24	0x3e11149f	0.14168023
25	0xbdea58dd	-0.114427306
26	0x3e843dba	0.25828344
27	0x3d2a5454	0.041584328
28	0xbda3f14c	-0.08005008
29	0xbe04b6c8	-0.1296035
30	0xbd84892f	-0.06471478
31	0xbe818af1	-0.25301316
32	0x3e882ec2	0.26598173
33	0xbdf20186	-0.11816697
34	0x3e62b614	0.2213977
35	0xbe839367	-0.25698397
36	0x3e80f577	0.25187275
37	0xbe16f38e	-0.14741346
38	0x3c271bf5	0.010199537
39	0xbd96565e	-0.07340692
40	0x3daebee1	0.08532501
41	0x3e05008a	0.12988487
42	0xbd429f99	-0.047515485
43	0x3e16222c	0.14661473
44	0x3d93ac38	0.072105825
45	0x3da16f7d	0.07882593
46	0x3e4989a1	0.19681408
47	0x3e6831f9	0.22675313
48	0xbbcc0805	-0.006226542
49	0x3d9e99b2	0.07744159
50	0xbe20cea6	-0.1570383
51	0xbe946a0b	-0.28987154
52	0xbcf484d9	-0.029848503
53	0x3e13c32d	0.14429922
54	0xbe43df35	-0.19128115
55	0x3da48210	0.0803262
56	0xbd7c99c5	-0.061670084
57	0x3e03a3a2	0.1285539
58	0xbde8ae29	-0.113613434
59	0xbdf004b7	-0.11719649
60	0x3e0d336b	0.13789146
61	0x3d656515	0.056004602
62	0x3e6aff64	0.22948986
63	0xbdb60c5c	-0.08889076
64	0xbda3126b	-0.07962497
65	0xbcb921ad	-0.022599066
66	0xbca25e24	-0.01982028
67	0x3d52ee88	0.051497012
68	0xbd4f8a8d	-0.05066924
69	0x3e1e15b1	0.15437962
70	0x3ca26206	0.019822132
71	0xbe231da0	-0.1592927
72	0xbd21b77e	-0.039481632
73	0x3c3702af	0.011170073
74	0x3e07d022	0.1326299
75	0xbd6109cf	-0.054940995
76	0xbc952ff6	-0.018211346
77	0x3d78bee5	0.060728926
78	0x3daa5a42	0.083179966
79	0x3ccd5b64	0.025067993
80	0xbd1b7ff1	-0.03796381
81	0x3cf0b648	0.029383793
82	0xbd18f858	-0.037346214
83	0xbc50621d	-0.0127187045
84	0xbd9aa9bf	-0.07551908
85	0xbd428537	-0.047490325
86	0xbd20f9d9	-0.039300773
87	0x3e11b7dd	0.14230295
88	0xbd1b3520	-0.03789246
89	0xbcdd85b4	-0.027041294
90	0xbd0c0a86	-0.034189723
91	0xbe353a72	-0.17698076
92	0xbe23bd84	-0.15990263
93	0xbcef09b9	-0.02917944
94	0x3e60977b	0.21932785
95	0x3c8feeff	0.017570017
96	0xbdccd972	-0.10002412
97	0xbdc94e0d	-0.0982934
98	0xbcb797bb	-0.022411218
99	0xbd1ee9ff	-0.038797375
100	0x3e28a156	0.16467795
101	0x3e1a82b0	0.15088916
102	0x3d61a19d	0.055085767
103	0x3cd5d5e9	0.026102977
104	0x3d8355de	0.06412862
105	0x3ddab4fe	0.10679053
106	0x3dbe5949	0.092943735
107	0xbcadbadd	-0.021207267
108	0x3e1709ca	0.14749828
109	0xbcb643d3	-0.022249138
110	0xbd7c5e28	-0.061613232
111	0x3d564107	0.05230811
112	0xbe10f78e	-0.14156935
113	0x3dada456	0.0847861
114	0x3d9f8309	0.07788665
115	0xbc70f71d	-0.014707354
116	0x3e1f4416	0.15553316
117	0xbe29ce55	-0.16582616
118	0x3e677114	0.2260173
119	0xbe223af5	-0.15842803
120	0x3d626709	0.055274043
121	0x3e0bc09f	0.13647698
122	0x3df69e28	0.12041885
123	0x3d3e452e	0.046452694
124	0x3d9d676c	0.07685742
125	0xbe37c436	-0.17945942
126	0x3ca57ebd	0.020202035
127	0x3dcf1f97	0.10113447
128	0xbd43898f	-0.047738608
129	0xbd63698f	-0.05552059
130	0xbe0b1de2	-0.13585618
131	0x3bae14e4	0.005312549
132	0xbd984720	-0.07435441
133	0x3e4f9965	0.20273359
134	0x3dd502ee	0.104009494
135	0xbddbe934	-0.10737839
136	0xbd91de38	-0.07122463
137	0x3d5fe2a5	0.054659504
138	0x3e646860	0.22305441
139	0xbd5319cb	-0.05153827
140	0x3ddc06d8	0.10743493
141	0xbdf84b36	-0.1212372
142	0x3e06ba3c	0.1315698
143	0x3e0552d9	0.13019885
144	0x3e0b2c5b	0.13591139
145	0x3e099bef	0.1343839
146	0xbdf73a25	-0.12071637
147	0xbdd52644	-0.10407689
148	0xbe206ea1	-0.15667202
149	0x3e02802e	0.12744209
150	0xbe1f62ff	-0.15565108
151	0x3e41374c	0.1886875
152	0xbe21b959	-0.15793361
153	0xbd1a643d	-0.03769325
154	0xbddf2b72	-0.108969584
155	0xbd6b5fcf	-0.057464417
156	0xbe286706	-0.1644555
157	0xbde0b898	-0.109727085
158	0x3e880f89	0.26574352
159	0x3e1e9c25	0.15489252
160	0xbdab1ed8	-0.08355492
161	0x3db5b791	0.08872903
162	0xbba06e1a	-0.0048959376
163	0x3ddfe861	0.10932995
164	0x3c062269	0.008186915
165	0x3e6cc623	0.23122458
166	0x3c3787d7	0.01120182
167	0xbe1718e6	-0.14755592
168	0x3d6dec84	0.058086887
169	0x3c536d34	0.012904454
170	0x3d09ae6d	0.03361361
171	0xbdf2b977	-0.11851781
172	0x3c48ccf1	0.012255893
173	0xba071849	-0.000515346
174	0xbe61dfa4	-0.22057968
175	0xbd708d70	-0.058728635
176	0x3e707cd9	0.23485126
177	0xbe62c430	-0.22145152
178	0x3e5337f4	0.20626813
179	0x3df20fb9	0.11819405
180	0x3e8cfe78	0.27537894
181	0xbdd74d71	-0.10512818
182	0x3e9102a3	0.28322324
183	0xbe022a22	-0.12711385
184	0x3d95b133	0.07309189
185	0xbdda0b3d	-0.10646675
186	0x3d9b84cc	0.07593688
187	0x3dd8721b	0.10568639
188	0xbe49f617	-0.19722782
189	0xbe74f337	-0.23920904
190	0xbd989439	-0.07450146
191	0xbd6b4d78	-0.057446927
192	0xbc53bc0d	-0.012923253
193	0x3da7eac3	0.08199074
194	0xbdd924bc	-0.1060271
195	0xbdc4e5ba	-0.09614129
196	0xbcc0c62f	-0.023532001
197	0xbd8284a2	-0.06372954
198	0xbd744938	-0.05964014
199	0x3e3079f0	0.17234015
200	0xbc0b77a7	-0.008512414
201	0x3d36c41e	0.044620626
202	0x3b27117b	0.0025492597
203	0x3d4cc70e	0.04999452
204	0xbdf29f80	-0.118468285
205	0xbe27ee60	-0.16399527
206	0x3dad67f2	0.084670916
207	0x3e169b39	0.1470765
208	0xbb043be4	-0.00201773
209	0x3e2d16f1	0.16903283
210	0x3cc1f3d9	0.023675846
211	0x3d9d25cf	0.07673227
212	0x3e0e2858	0.13882577
213	0xbdcb6612	-0.09931578
214	0x3e020011	0.12695338
215	0xbdae1404	-0.084999114
216	0x3da49411	0.08036054
217	0x3d5df247	0.05418613
218	0xbe0953ce	-0.13410875
219	0x3db91a0b	0.090381704
220	0x3d24840c	0.040164992
221	0xbd1cd19b	-0.038285833
222	0xbd42612e	-0.04745596
223	0xbd91173b	-0.07084509
224	0xbd47dcb0	-0.04879445
225	0x3d22f0a8	0.03978029
226	0x3d8716b7	0.065961294
227	0xbd644724	-0.055731907
228	0xbd164d0d	-0.036694575
229	0xbb17f3e3	-0.002318614
230	0xbe1d013b	-0.153325
231	0x3e1ee6f8	0.15517795
232	0x3d5490f4	0.05189605
233	0x3d03f08e	0.032211833
234	0xbd8a2238	-0.06744808
235	0x3da84100	0.08215523
236	0xbb8ded68	-0.0043312795
237	0xbd785e34	-0.060636714
238	0x3d34def2	0.04415793
239	0x3d7c0113	0.061524462
240	0x3d2b8c47	0.041881826
241	0xbd9b35e9	-0.07578642
242	0xbd902f40	-0.07040262
243	0xbca05284	-0.019570597
244	0xbc440652	-0.0119643975
245	0x3e071320	0.1319089
246	0xbe99503f	-0.29944035
247	0x3e2b51ca	0.16730419
248	0xbd7653a7	-0.06013837
249	0xbc0adc4c	-0.008475374
250	0xbddaa299	-0.10675544
251	0x3cecb0e2	0.028892938
252	0xbdbc187b	-0.09184357
253	0xbc005f6c	-0.00783525
254	0x3d38a02e	0.045074634
255	0x3c176564	0.009240482

bias f4 [32]
0	0x3d8ece73	0.06972971
1	0xbe585273	-0.21125202
2	0xbe585ccc	-0.21129149
3	0x3e31e577	0.1737269
4	0x3e4d1ff8	0.20031726
5	0xbaeecad0	-0.0018218402
6	0x3dd14fc5	0.10220293
7	0xbd796c80	-0.06089449
8	0x3dd6576d	0.10465894
9	0xbde1e788	-0.11030489
10	0x3e0724a4	0.13197571
11	0x3e5f2015	0.21789582
12	0x3d986dca	0.074428156
13	0xbda4ea4a	-0.080524996
14	0x3dce020e	0.10058986
15	0x3e65e6b4	0.22451288
16	0xbe13df70	-0.14440703
17	0x3e4ee7d6	0.20205626
18	0xbdb4816a	-0.08813746
19	0x3dfce192	0.123477116
20	0xbb7297b7	-0.0037016699
21	0x3df4de79	0.11956496
22	0xbe31abf7	-0.17350756
23	0x3e14d4e1	0.14534332
24	0xbe331b35	-0.17490847
25	0x3dc8ea3e	0.09810303
26	0x3b507348	0.0031806994
27	0x3db25371	0.087073214
28	0xbda40a11	-0.080097325
29	0x3d169ebc	0.036772475
30	0x3e4e4863	0.20144801
31	0x3e711f70	0.23547149

weight f4 [8, 32]
0	0x3e46cc91	0.19413973
1	0x3d925aa5	0.07146195
2	0x3e18db0e	0.14927313
3	0x3dc3b45c	0.09555885
4	0x3d9102de	0.07080625
5	0x3d84442c	0.06458315
6	0x3d6dd7d1	0.058067147
7	0x3df9f46e	0.122048244
8	0x3dbc5ee4	0.091977865
9	0xbdd61784	-0.10453704
10	0xbd94d248	-0.072666705
11	0xbe1a9da8	-0.15099204
12	0x3e142c55	0.14470036
13	0xbe1bc462	-0.15211633
14	0x3d2b511c	0.0418254
15	0xbe1c9fdb	-0.15295355
16	0x3c7242d7	0.014786444
17	0x3a9a8f6e	0.0011792013
18	0x3e58e6ca	0.21181789
19	0x3d941bd4	0.0723187
20	0x3e0ccae8	0.13749278
21	0xbd07d16b	-0.0331587
22	0xbe16a7bb	-0.14712422
23	0xbd2c09f9	-0.0420017
24	0xbded7b0c	-0.11595735
25	0x3e0b79fc	0.13620752
26	0x3d8202a3	0.06348159
27	0xbe0f31c7	-0.13983832
28	0xbe1c1b88	-0.15244877
29	0xbe5f7507	-0.21821986
30	0x3db6337c	0.088965386
31	0xbd015f56	-0.03158506
32	0x3d3973dc	0.045276508
33	0x3e017487	0.12642108
34	0x3d680490	0.056644976
35	0xbe10d273	-0.1414278
36	0xbce42979	-0.027851807
37	0x3e09c020	0.13452196
38	0x3974b190	0.000233358
39	0xbbd87a0a	-0.006606345
40	0xbddf152f	-0.10892712
41	0x3db81120	0.08987641
42	0x3d8b0ae4	0.067891866
43	0xbd5236a1	-0.05132163
44	0xbdec4f05	-0.11538509
45	0x3e2bf32c	0.16791981
46	0x3cd594ba	0.026071895
47	0xbd7c33b3	-0.06157274
48	0x3dee0455	0.1162192
49	0xbeb61fb6	-0.3557107
50	0x3d9303a4	0.07178429
51	0xbda68748	-0.081312716
52	0x3dd8c4c2	0.105844036
53	0x3d68790d	0.056756068
54	0x3d0749da	0.033029415
55	0xbe33219d	-0.17493291
56	0x3d33c173	0.04388566
57	0xbe98a537	-0.2981355
58	0xbb30087e	-0.002686053
59	0x3e5be201	0.21472932
60	0xbe2bfabf	-0.16794871
61	0xbd32c1fa	-0.04364202
62	0x3d145472	0.036213346
63	0xbea6b563	-0.32560262
64	0x3e394e34	0.18096238
65	0x3e2be2b7	0.16785704
66	0x3e42b4a8	0.19014227
67	0xbe3c795a	-0.18405667
68	0xbe92c351	-0.2866464
69	0xbda5f351	-0.081030495
70	0x3c9a4902	0.018833641
71	0x3d13c49a	0.036076166
72	0x3c87a402	0.016557697
73	0x3e1d804f	0.15380977
74	0x3d57391f	0.05254471
75	0xbe99d5d9	-0.30045965
76	0xbdcec56e	-0.100962505
77	0xbe3e2856	-0.18570074
78	0x3d1d7524	0.038441792
79	0x3e56a129	0.20959915
80	0xbd9b6787	-0.07588106
81	0xbe046fe3	-0.12933306
82	0xbdf2ebcc	-0.11861381
83	0xbdcd7b98	-0.10033339
84	0x3df18413	0.11792769
85	0x3d971873	0.0737771
86	0x3e6c375f	0.23067997
87	0xbe1c5c7a	-0.15269652
88	0xbeac299c	-0.33625495
89	0x3e1842d2	0.1486924
90	0x3d9328d6	0.07185523
91	0x3c1c4482	0.009537818
92	0x3e0d6101	0.13806535
93	0x3dfbad5a	0.122889236
94	0x3d2fe01c	0.042938337
95	0x3e29f6b5	0.16598018
96	0xbd34f61a	-0.044180013
97	0x3e132af6	0.14371857
98	0x3dbda187	0.092593245
99	0xbe5a4109	-0.21313871
100	0xbe5ee572	-0.21767214
101	0xbe83eaec	-0.2576517
102	0xbc817e20	-0.015807211
103	0xbbf174d8	-0.007368665
104	0x3e1f7a8b	0.1557409
105	0x3e38ee0c	0.18059558
106	0x3e68f5db	0.22750036
107	0xbd837554	-0.06418863
108	0x3e3faf2e	0.1871917
109	0xbe8be957	-0.27326462
110	0x3deb6407	0.11493688
111	0x3e2f2f98	0.17108
112	0xbe59e421	-0.2127843
113	0x3e23b87f	0.15988348
114	0xbdaf082e	-0.08546482
115	0xbd976658	-0.073925674
116	0xbe90d77e	-0.28289407
117	0x3e2e69d7	0.17032562
118	0x3e5f060d	0.21779652
119	0x3e18ace4	0.14909703
120	0xbd5fad71	-0.054608766
121	0x3ea26f4f	0.31725547
122	0x3e10853d	0.14113326
123	0xbdb74a62	-0.08949734
124	0x3e3dcc5c	0.18534988
125	0x3d93bc2f	0.072136275
126	0xbe456446	-0.19276533
127	0x3eaf486f	0.3423495
128	0xbcb3aba6	-0.021932434
129	0xbaf7c308	-0.0018902728
130	0x3e8def8f	0.2772183
131	0xbc6e4f08	-0.01454521
132	0x3cb1dec5	0.02171267
133	0x3e0856d9	0.1331438
134	0xbe4200b1	-0.18945576
135	0xbe145d1e	-0.14488646
136	0xbe012c57	-0.1261457
137	0x3e017162	0.12640908
138	0x3db4bbb2	0.088248625
139	0xbd91e3e0	-0.07123542
140	0xbe51ad60	-0.20476294
141	0xbe27f2eb	-0.1640126
142	0xbe200c01	-0.15629579
143	0xba8fd062	-0.0010972137
144	0x3c97b936	0.018520933
145	0x3dc8d753	0.09806695
146	0xbd22d452	-0.039753266
147	0x3da19d20	0.07891297
148	0xbdb287ca	-0.08717306
149	0xbe126552	-0.14296463
150	0x3e2f9526	0.1714674
151	0x3d094d47	0.033520963
152	0xbdfba209	-0.12286765
153	0x3d629049	0.055313382
154	0x3ccd21ce	0.025040533
155	0xbdbcf467	-0.092263035
156	0x3d65df61	0.056121234
157	0xbcb04872	-0.02151892
158	0x3e0bd2e8	0.13654673
159	0x3d826dae	0.06368576
160	0xbe18e200	-0.14929962
161	0xbc63700b	-0.013881694
162	0x3b82b12d	0.003988406
163	0x3c75aa31	0.01499419
164	0xbdfedb9d	-0.12444232
165	0xbe16fd59	-0.14745082
166	0xbe0c9737	-0.13729559
167	0xbdd8de8a	-0.10589321
168	0x3dd7d6be	0.10539006
169	0xbd283cf6	-0.041073762
170	0x3d872885	0.06599525
171	0xbe0fe803	-0.14053349
172	0x3de6b22d	0.11264453
173	0xbcf04d82	-0.029333834
174	0xbe2d75a9	-0.16939415
175	0xbc91b346	-0.01778568
176	0xbdc301f1	-0.09521855
177	0xbbbf1434	-0.005831266
178	0x3d1cb969	0.03826276
179	0x3d83438e	0.064093694
180	0xbd4f5f36	-0.05062791
181	0x3ceb8424	0.028749533
182	0xbd9ffa41	-0.07811404
183	0x3e4bbb55	0.1989568
184	0xbd17c8cb	-0.037056725
185	0x3d0a0e9f	0.03370535
186	0xbd38f94f	-0.045159634
187	0xbe81afc8	-0.25329423
188	0xbe02b81e	-0.12765548
189	0xbd98ce24	-0.07461193
190	0xbd04be72	-0.032408185
191	0x3cf2472e	0.029574957
192	0x3c841523	0.01612336
193	0x3d1a0193	0.037599158
194	0x3e2a908c	0.16656703
195	0xbd1e6119	-0.03866682
196	0xbc8f151c	-0.01746612
197	0xbe1483a4	-0.14503342
198	0x3d391c23	0.04519285
199	0x3df6ae72	0.120449916
200	0xbcd72844	-0.026264317
201	0xbbfa29dc	-0.0076343846
202	0xbde9ab2c	-0.114096016
203	0xbd951fc2	-0.07281448
204	0xbd06a0a1	-0.03286803
205	0xbddb91c2	-0.107211605
206	0x3d4f4804	0.05060579
207	0xbe63856c	-0.22218865
208	0x3dc1c986	0.09462266
209	0x3dc0204e	0.09381162
210	0x3dbf5528	0.09342414
211	0xbd3e131d	-0.046404947
212	0xbda36e30	-0.07980001
213	0xbc571496	-0.013127467
214	0xbc9f0c28	-0.019414976
215	0xbddefd86	-0.108881995
216	0xbdc48c3a	-0.095970586
217	0x3e426953	0.1898549
218	0x3ace4a18	0.0015738634
219	0xbe0c2178	-0.13684642
220	0xbe425989	-0.18979467
221	0xbe362865	-0.17788847
222	0xbe313d68	-0.17308581
223	0x3d500156	0.050782524
224	0xbd2f5a73	-0.04281087
225	0xbe2910dd	-0.16510339
226	0x3d224141	0.039613012
227	0x3e1c0650	0.15236783
228	0x3de51bdb	0.11186954
229	0x3eb3123c	0.3497485
230	0x3dc06807	0.09394842
231	0x3e037baa	0.12840143
232	0xbe1b66c3	-0.15175919
233	0xbd59ec90	-0.05320412
234	0xbe075ce4	-0.13219029
235	0x3af692e2	0.0018812085
236	0xbd825220	-0.0636332
237	0xbde0bb24	-0.10973194
238	0xbe275877	-0.1634234
239	0x3d34fa3c	0.044183955
240	0x3e371dde	0.17882487
241	0x3e2edb0e	0.1707575
242	0x3e2e05f0	0.16994452
243	0xbdc4b051	-0.09603942
244	0x3e84e776	0.2595784
245	0xbd75b365	-0.059985537
246	0xbec19e59	-0.37816122
247	0xbdba04fc	-0.09082982
248	0xbde353da	-0.11099978
249	0x3d6ec419	0.058292482
250	0xbbb25c8c	-0.0054431614
251	0xbd36ac5c	-0.04459797
252	0xbe20b4ae	-0.15693924
253	0xbdab170d	-0.08354006
254	0x3e9d26b5	0.30693594
255	0x3d1a29f9	0.037637684

bias f4 [8]
0	0x3dfb8303	0.12280848
1	0x3dff5415	0.12467209
2	0x3cc0a37a	0.023515452
3	0xbe3a7702	-0.1820946
4	0x3e663aad	0.2248332
5	0xbe6264b9	-0.22108735
6	0xbcc56402	-0.024095539
7	0xbcfb3a7e	-0.03066754

weight f4 [64, 60]
0	0x3d476ca3	0.04868759
1	0x3d3222f6	0.043490373
2	0x3d2350f3	0.03987212
3	0x3e06ef9f	0.13177346
4	0x3e0e8c64	0.13920742
5	0x3db0d498	0.08634299
6	0x3deeaec8	0.11654431
7	0x3d895bb4	0.06706944
8	0xbc8e28ca	-0.017353434
9	0xbcf32cc0	-0.029684424
10	0xbd14b492	-0.036305018
11	0xbd738d7e	-0.05946111
12	0x3ce0c2bc	0.027436607
13	0xbda945db	-0.08265277
14	0xbcc5179c	-0.02405911
15	0x3dab8820	0.08375573
16	0x3d35e714	0.044409826
17	0xbd8ac9b9	-0.06776757
18	0xbd7c0cd6	-0.06153568
19	0xbdf60874	-0.12013331
20	0x3da7dba0	0.08196187
21	0xbd90da92	-0.07072939
22	0x3d3a0bcb	0.045421403
23	0xbde43db4	-0.111445814
24	0xbd080aca	-0.033213414
25	0xbdbf5803	-0.09342959
26	0x3d90720c	0.07053003
27	0xbe0c311c	-0.13690609
28	0x3d5925f9	0.05301473
29	0x3d4dd31e	0.050250165
30	0x3c8346e0	0.016025007
31	0x3cefe0ca	0.029281992
32	0x3d09a470	0.033604085
33	0x3d80afd2	0.06283535
34	0xbe127836	-0.1430367
35	0xbbcc512a	-0.0062352614
36	0xbdf2bb33	-0.11852112
37	0x3dbde713	0.092725895
38	0xbe4753ea	-0.19465604
39	0xbd8b9bf5	-0.06816856
40	0xbd9accce	-0.07558595
41	0x3d3e44a5	0.046452183
42	0xbd3ec012	-0.04656989
43	0xbdc51da1	-0.09624792
44	0xbc5a67b5	-0.01333039
45	0x3ce628e8	0.028095677
46	0x3d03c45b	0.03216968
47	0x3b865e01	0.0041005616
48	0x3d40e441	0.04709268
49	0xbc3310fb	-0.010929341
50	0xbe1b53a5	-0.15168627
51	0xbe21297a	-0.15738478
52	0xbc9ee99c	-0.019398503
53	0xbbe8b062	-0.0071011046
54	0xbdb0dba5	-0.08635644
55	0xbd43e7cc	-0.04782848
56	0xbd8218e9	-0.063524075
57	0xbd5e86e3	-0.054327857
58	0xbe53982e	-0.2066352
59	0x3bdaab58	0.006673258
60	0xbd986e66	-0.07442932
61	0x3cbc4c0d	0.022985483
62	0xbd88f23b	-0.06686827
63	0xbe0b6847	-0.13613997
64	0x3d5e23a0	0.054233193
65	0xbe00f9c1	-0.12595274
66	0xbb612792	-0.003435586
67	0xbdc1e66a	-0.09467776
68	0xbe3378e0	-0.17526579
69	0xbdef60a7	-0.11688357
70	0x3d314ad7	0.043284263
71	0xbdba071c	-0.09083387
72	0xbe265c19	-0.1624607
73	0xbdf4d403	-0.119545005
74	0xbdcf3be7	-0.10118847
75	0xbe18ee96	-0.14934763
76	0x3cb2baa3	0.021817511
77	0x3cf461f4	0.029831864
78	0xbd8b4457	-0.06800144
79	0xbe0e2cb3	-0.13884239
80	0xbd0d1db9	-0.034452174
81	0x3ba44554	0.0050131474
82	0xbc015a72	-0.007895099
83	0xbdb84cc1	-0.08999015
84	0x39d48a10	0.00040538656
85	0x3d09739f	0.03355753
86	0xbd359693	-0.044333052
87	0x3dbb9319	0.09158916
88	0xbd10ba4b	-0.035333913
89	0xbd993154	-0.07480112
90	0xbcce6f03	-0.025199419
91	0x3da502f6	0.080572054
92	0xbd97df78	-0.0741567
93	0x3db8759e	0.09006809
94	0xbd87c19a	-0.066287234
95	0x3db3ef23	0.08785846
96	0xbb97cd87	-0.004632655
97	0xbdd40a7d	-0.10353563
98	0xbdc0f5ab	-0.094218574
99	0x3d68e623	0.0568601
100	0x3cf99cbd	0.030470246
101	0xbd831c97	-0.064019375
102	0xbdd6b998	-0.10484618
103	0xbd94de13	-0.0726892
104	0xbcb2b2ba	-0.02181374
105	0xbdba0b81	-0.090842254
106	0x3ddfea7d	0.10933397
107	0x3de4c008	0.111694396
108	0x3b6d68f6	0.0036225892
109	0xbb51c610	-0.0032008924
110	0xbdb0f335	-0.08640138
111	0xbd4fc945	-0.050729055
112	0xbde77cf1	-0.113031276
113	0x3d9ec68d	0.07752714
114	0xbdb4c62b	-0.0882686
115	0x3d6bea07	0.057596233
116	0x3cb92c78	0.022604212
117	0xbc70eaa0	-0.014704376
118	0x3d73d884	0.059532657
119	0xbc01bba1	-0.007918269
120	0x3c7b9622	0.015355619
121	0x3e2405ea	0.16017881
122	0xbd69df30	-0.057097614
123	0xbdbc162d	-0.09183917
124	0x3b9e6176	0.0048333956
125	0x3d79bbc4	0.060970083
126	0x3d8a0e04	0.067409545
127	0x3d306e6b	0.043074053
128	0x3d8e8370	0.069586635
129	0x3e4de42b	0.2010657
130	0x3d9584d5	0.07300726
131	0x391b3658	0.00014802197
132	0xbe039e32	-0.12853315
133	0x3e61a222	0.22034505
134	0xbd11e9f9	-0.035623524
135	0x3ce94e93	0.02847985
136	0xbdfd8cc4	-0.123803645
137	0x3e1f1053	0.15533571
138	0xbd8b01d4	-0.06787458
139	0x3db6540a	0.08902748
140	0x3df2478a	0.11830051
141	0x3e7664f3	0.24061947
142	0xbd6e25e3	-0.0581416
143	0xbb00a203	-0.0019627817
144	0xbd6a33ef	-0.057178434
145	0x3dc1afd0	0.09457362
146	0xbd6090bf	-0.05482554
147	0x3dc688d0	0.09694064
148	0xbdca1d2e	-0.09868847
149	0x3d8cdb39	0.06877751
150	0xbc84c4ac	-0.016207062
151	0xbda5d1df	-0.0809667
152	0xb9f11532	-0.00045982894
153	0x3dac345d	0.08408425
154	0xbd7f2cfa	-0.062298752
155	0x3d4718c2	0.048607595
156	0xbde9c467	-0.11414414
157	0x3e9ea118	0.3098228
158	0x3b93028e	0.0044863885
159	0xbd8d34cf	-0.06894838
160	0xbd5d37b5	-0.054008204
161	0x3e9d0c7c	0.30673587
162	0x3cf7effd	0.030265803
163	0x3db9b85a	0.090683654
164	0xbd49475d	-0.049140323
165	0x3e825bb8	0.254606
166	0xbbed7ca1	-0.007247523
167	0x3deec85d	0.1165931
168	0xbdcb8621	-0.099376924
169	0x3e4cb602	0.19991305
170	0xbc8ed994	-0.017437734
171	0xbd9bd5b8	-0.07609123
172	0xbb004b9d	-0.001957632
173	0x3e5084c8	0.20363152
174	0x3df0628e	0.11737548
175	0x3d36c11e	0.044617765
176	0x3c45a6f9	0.012063735
177	0x3e40d60f	0.18831657
178	0xbcaf7c88	-0.021421686
179	0x3ccb8d31	0.024847599
180	0x3cc6bb8b	0.02425935
181	0xbe63be74	-0.22240621
182	0xbdf05dde	-0.11736654
183	0xbdd42aa6	-0.10359697
184	0xbdf06f52	-0.11739983
185	0xbe4e006f	-0.20117353
186	0xbdcca342	-0.099920765
187	0xbd54a6ab	-0.05191676
188	0xbdd3aa0b	-0.103351675
189	0xbe3c6082	-0.1839619
190	0xbdb6c359	-0.08923978
191	0x3dd7c0cf	0.10534822
192	0x3cbfccbb	0.023413053
193	0xbe396ccf	-0.18107913
194	0xbe06d412	-0.13166836
195	0x3c860e99	0.016364383
196	0x3da5a6e9	0.08088476
197	0xbe44de05	-0.19225319
198	0x39febdc4	0.00048588042
199	0xbcf01526	-0.02930696
200	0xbb046346	-0.0020200773
201	0xbe5e8728	-0.21731246
202	0xbd8c1226	-0.06839399
203	0xbdd811ac	-0.10550246
204	0x3dda60e9	0.106630154
205	0xbd87c7f5	-0.06629936
206	0x3da602f6	0.081060335
207	0xbd5a4c97	-0.053295698
208	0x3cfcacd3	0.030844128
209	0xbe2c96c4	-0.16854388
210	0x3d01e47e	0.031712048
211	0xbd323a15	-0.043512423
212	0x3dd56818	0.10420245
213	0xbdb7ed2f	-0.08980786
214	0xbd6a535e	-0.05720841
215	0x3e07b5f0	0.13252997
216	0xbcad2902	-0.021137718
217	0xbdf7e091	-0.121033795
218	0xbb2666ec	-0.0025390936
219	0x3d77bf2a	0.060485043
220	0xbd1048a2	-0.035225518
221	0xbcfde608	-0.030993477
222	0x3d43da0f	0.04781538
223	0x3d43f1d6	0.047838055
224	0xbd27817a	-0.040894963
225	0xbd770e38	-0.060316294
226	0x3caa9a47	0.020825518
227	0xb9d2d258	-0.0004021104
228	0x3e236692	0.15957096
229	0x3d841c17	0.0645067
230	0xbac46b02	-0.0014985504
231	0x3db7fb16	0.08983438
232	0x3de4ecee	0.11178003
233	0xbd900014	-0.07031265
234	0x3dd54684	0.104138404
235	0x3d6b1f9c	0.057403192
236	0xbc19b660	-0.0093818605
237	0xbdba0de7	-0.09084683
238	0x3e065457	0.1311811
239	0x3e0ffa35	0.1406029
240	0x3cbda14e	0.023148205
241	0xbe4a9f14	-0.19787246
242	0x3e2d5753	0.16927843
243	0x3ded63de	0.11591314
244	0xbc472056	-0.012153706
245	0xbdc86535	-0.09784929
246	0x3e41221c	0.18860668
247	0x3d356e58	0.044294685
248	0x3e42a5ce	0.19008562
249	0xbd5c39b4	-0.053765967
250	0xbc3057ac	-0.01076309
251	0x3de7b4e0	0.11313796
252	0x3cc946a0	0.02456981
253	0xbd33d546	-0.043904565
254	0xbc89a4e1	-0.016802253
255	0x3de988ea	0.114030674

bias f4 [64]
0	0xbec1d13b	-0.37854943
1	0x3eb50902	0.35358435
2	0x3dd091d6	0.10184066
3	0x3eb7e488	0.35916543
4	0xbe38735b	-0.18012755
5	0xbdb19e41	-0.08672763
6	0x3d2ca486	0.04214909
7	0xbe39c032	-0.18139723
8	0x3e4455f4	0.19173414
9	0xbe8bfbf3	-0.2734066
10	0xbea49777	-0.32146809
11	0x3eed1631	0.46305993
12	0x3eaecc2b	0.34140143
13	0xbe81a66e	-0.25322288
14	0xbed16ecf	-0.40904853
15	0xbddc8a62	-0.10768582
16	0xbedc97f3	-0.43084678
17	0xbeea3ac0	-0.45747948
18	0x3e78d0d6	0.24298415
19	0xbda54e9b	-0.080716334
20	0xbeaed9b2	-0.34150463
21	0xbdd1a5b0	-0.102366805
22	0x3e38582c	0.18002385
23	0x3e91bd31	0.28464654
24	0xbe9010de	-0.2813787
25	0x3e992fbc	0.2991923
26	0xbeda677d	-0.4265708
27	0x3e91705c	0.28406036
28	0xbea755fc	-0.32682788
29	0xbed3e996	-0.4138915
30	0x3e5f6a64	0.21817929
31	0x3ebaa3b3	0.36453018
32	0xbe9bcf81	-0.3043175
33	0xbee82d5d	-0.4534711
34	0x3eeaf09e	0.458867
35	0xbde446da	-0.11146326
36	0x3e713e4f	0.23558925
37	0x3e87b245	0.26503196
38	0x3ea5c8c9	0.3237975
39	0x3e2f875d	0.1714148
40	0xbe93e2da	-0.28884012
41	0x3aca0d01	0.0015415252
42	0x3c00005a	0.007812584
43	0xbea7b593	-0.32755718
44	0xbee4098c	-0.44538534
45	0x3ead8401	0.33889773
46	0xbd47e090	-0.048798144
47	0x3e721c6b	0.23643653
48	0xbed47804	-0.41497815
49	0x3e96c6e8	0.29448628
50	0xbe33d4d9	-0.17561664
51	0x3edaa391	0.42702916
52	0xbea2b599	-0.31779173
53	0x3ee1899c	0.440503
54	0x3f0de7a3	0.55431575
55	0xbe9ac01b	-0.3022469
56	0x3e9037fa	0.28167707
57	0x3e92b8ba	0.2865656
58	0x3e9d1cf8	0.30686164
59	0xbe510666	-0.20412597
60	0x3e352ae8	0.17692149
61	0xbe0e4ff8	-0.13897693
62	0xbd079ad5	-0.033106644
63	0x3df47368	0.119360745

weight f4 [32, 64]
0	0xbe4bbb7f	-0.19895743
1	0x3d89ff73	0.06738176
2	0xbd3f7609	-0.046743426
3	0x3e4e614f	0.20154308
4	0xbea94191	-0.33057836
5	0x3e5971ca	0.21234813
6	0xbcc6d773	-0.024272656
7	0xbe05697b	-0.13028519
8	0xbe0fd64f	-0.14046596
9	0xbdc04f9b	-0.093901835
10	0x3dc4cd2a	0.096094444
11	0x3e5e6934	0.2171982
12	0x3e9c6377	0.30544636
13	0xbe0fbdc9	-0.14037241
14	0xbe0b3a02	-0.13596347
15	0x3d601cfd	0.054715145
16	0xbe242b8c	-0.16032237
17	0xbe3a5227	-0.18195401
18	0x3e670c47	0.22563277
19	0x3c6d2712	0.014474647
20	0xbea7ac2d	-0.32748547
21	0xbc900b83	-0.017583614
22	0x3e62ff6f	0.22167753
23	0x3e9b3bd1	0.30319074
24	0xbe149d68	-0.1451317
25	0xbd68147a	-0.056660153
26	0xbdeffb75	-0.117178835
27	0x3ebbd1c1	0.36683467
28	0x3d2d90b2	0.04237432
29	0xbe902de9	-0.28160027
30	0x3e6511d5	0.22370084
31	0x3e431924	0.19052559
32	0x3d7f8dde	0.062391154
33	0xbd607573	-0.05479951
34	0x3e2b96f9	0.1675681
35	0xbdbe8dae	-0.09304367
36	0x3e4d2956	0.200353
37	0x3d9372e7	0.0719965
38	0x3e990906	0.29889697
39	0xbdea2109	-0.11432082
40	0xbeaf0ea0	-0.34190845
41	0x3e031676	0.12801537
42	0xbcfd585a	-0.030925918
43	0xbccc4b19	-0.024938153
44	0xbdbc40e8	-0.091920674
45	0x3e684d95	0.22685845
46	0xbd20b6a1	-0.03923667
47	0x3d95667a	0.072949365
48	0xbe904248	-0.2817557
49	0x3cd6dc5c	0.026228122
50	0x3a110a64	0.00055328594
51	0x3d992720	0.074781656
52	0x3d12c63f	0.035833593
53	0x3e5a169c	0.21297687
54	0x3e483b05	0.19553764
55	0x3c57828a	0.0131536815
56	0x3d9ecd29	0.07753975
57	0x3c6bb287	0.014385826
58	0x3e2f0c8b	0.17094629
59	0xbdd98dd6	-0.10622756
60	0xbe1cbe10	-0.15306878
61	0xbe31f410	-0.17378259
62	0x3dfb5a35	0.12273065
63	0xbd4305d6	-0.047612987
64	0x3d51aaaa	0.05118815
65	0xbe04c39e	-0.12965247
66	0x3db54fec	0.088531345
67	0xbe696a8f	-0.22794555
68	0x3e079885	0.13241775
69	0xbc7da5f7	-0.015481464
70	0x3ca5d8fa	0.020245064
71	0xbded597f	-0.11589336
72	0x3dfbedc6	0.12301211
73	0x3dc7e390	0.09760201
74	0x3c01a34a	0.007912466
75	0xbe4eae6f	-0.20183729
76	0xbdcd7726	-0.100324914
77	0x3c71d440	0.014760077
78	0x3e9d309a	0.30701143
79	0xbd12310d	-0.03569131
80	0x3e02b868	0.12765658
81	0x3da7a9d1	0.08186687
82	0xbdf578b8	-0.11985916
83	0xbe0b1089	-0.13580526
84	0x3e4e9f44	0.20177943
85	0xbdbf7120	-0.09347749
86	0xbde7b54f	-0.11313879
87	0xbe6d18a3	-0.2315393
88	0x3e4b9af5	0.1988333
89	0x3dc2fdaf	0.095210426
90	0x3e134e6a	0.14385381
91	0xbe9dc967	-0.3081772
92	0xbdc40e2b	-0.09573015
93	0x3e35ac72	0.17741564
94	0x3d675a3f	0.05648255
95	0xbe4f8a3a	-0.20267573
96	0xbcc2ce29	-0.023779945
97	0x3e3e86dd	0.18606134
98	0xbd0398f0	-0.032128274
99	0xbd0f6817	-0.035011377
100	0xbd90b5fb	-0.0706596
101	0x3d8be98f	0.06831657
102	0xbe2f5b08	-0.1712457
103	0x3df674ae	0.12033974
104	0x3de350e6	0.110994145
105	0xbd3384e5	-0.04382791
106	0xbd267be0	-0.04064548
107	0x3d681648	0.056661874
108	0x3e8e1c71	0.27756074
109	0xbe2d5ead	-0.16930647
110	0xbcc5426e	-0.024079528
111	0xbd988424	-0.07447079
112	0x3e318386	0.17335328
113	0xbc053ca7	-0.008132136
114	0x3d769802	0.06020356
115	0xbe892090	-0.26782656
116	0x3d1b0d60	0.037854552
117	0xbeb3f609	-0.35148647
118	0xbe83f741	-0.25774577
119	0xbd2fa30d	-0.042880107
120	0x3d550bf3	0.05201335
121	0x3e3039a1	0.17209484
122	0xbdb2867b	-0.08717056
123	0x3e1f08b1	0.1553066
124	0x3e268f29	0.16265549
125	0x3cb40ac2	0.021977786
126	0x3cad8c90	0.02118519
127	0xbb2ce049	-0.0026378802
128	0xbd33c2b2	-0.043886848
129	0x3d527758	0.051383346
130	0x3b42ba35	0.0029713039
131	0x3e7c88af	0.24661516
132	0xbe2efbba	-0.17088214
133	0xbda16a97	-0.078816585
134	0xbddcb615	-0.10776917
135	0x3cf0f2ba	0.029412616
136	0xbd569a09	-0.052392993
137	0xbddb82a7	-0.10718279
138	0x3c7222c9	0.014778801
139	0x3e5e6254	0.21717197
140	0x3d83d0a5	0.0643628
141	0xbdfca0a6	-0.12335329
142	0xbe2c566d	-0.16829844
143	0x3d23d18b	0.039994758
144	0xbe2e80c6	-0.1704131
145	0xbe40f1ea	-0.18842283
146	0x3e40761a	0.18795052
147	0x3d3f0d61	0.04664362
148	0xbd106b50	-0.03525859
149	0xbdc59aaa	-0.096486405
150	0xbd2b26fd	-0.04178523
151	0x3dd17384	0.10227111
152	0xbdf1b629	-0.118023224
153	0xbd9ff989	-0.07811267
154	0xbe05102a	-0.12994447
155	0x3e5be580	0.21474266
156	0xbdf9d163	-0.121981405
157	0xbe5dd7f5	-0.21664412
158	0x3df66423	0.12030818
159	0x3e6b5ce5	0.22984655
160	0xbd9d3fdc	-0.07678196
161	0xbe391401	-0.18074037
162	0x3e19aeba	0.15008059
163	0xbe31b7ce	-0.17355272
164	0x3d81a4ec	0.063302845
165	0x3baa34c3	0.005194278
166	0x3e0cb24c	0.1373989
167	0xbde23738	-0.110456884
168	0xbe861bc2	-0.26193053
169	0x3e22ebc4	0.1591025
170	0x3e331a6e	0.17490551
171	0xbe520b89	-0.20512213
172	0xbe562d42	-0.20915702
173	0x3d13c019	0.03607187
174	0x3d132c9a	0.035931207
175	0x3e481678	0.19539821
176	0xbd58852c	-0.052861378
177	0x3e3c54f1	0.18391778
178	0xbe83cead	-0.2574362
179	0x3d8e99b0	0.06962907
180	0xbe1051cb	-0.14093702
181	0x3e91823c	0.28419673
182	0x3e707aee	0.23484394
183	0xbd7328ff	-0.05936527
184	0x3dddeaba	0.10835786
185	0xbde74a32	-0.112934485
186	0x3d0d7aa8	0.034540802
187	0xbc87b9e1	-0.016568126
188	0xbc327f2c	-0.010894578
189	0xbd684e05	-0.05671503
190	0x3e10d241	0.14142706
191	0x3cd98902	0.026554588
192	0x3e6e1654	0.23250705
193	0xbdc137c6	-0.09434466
194	0x3d1880e3	0.03723229
195	0xbe18e540	-0.14931202
196	0x3e1c4cd5	0.15263684
197	0x3cc17549	0.023615496
198	0x3db8164b	0.08988627
199	0x3c8263fe	0.01591682
200	0x3dafa44d	0.0857626
201	0x3da9ba70	0.08287513
202	0x3dd4cd35	0.10390703
203	0xbe839131	-0.2569671
204	0xbe030150	-0.1279347
205	0x3e1f15db	0.15535681
206	0x3e3cbafc	0.18430704
207	0xbba1bb6e	-0.0049356734
208	0x3e67d07b	0.22638123
209	0x3e73cccc	0.23808593
210	0xbe865500	-0.26236725
211	0xbc808fc3	-0.01569355
212	0x3e514678	0.20437038
213	0xbd10be23	-0.03533758
214	0x3b3410e4	0.0027475888
215	0xbe691f54	-0.22765857
216	0x3da19e8d	0.07891569
217	0x3d83e004	0.06439212
218	0x3e469ce8	0.19395792
219	0xbda866f3	-0.08222761
220	0x3dc7ffa5	0.09765557
221	0x3dbae542	0.09125759
222	0xbe0ac713	-0.13552503
223	0xbe3d014a	-0.18457523
224	0xbd731101	-0.059342388
225	0xbd5b96f5	-0.05361076
226	0xbd9d09ae	-0.07667862
227	0x3d7e1daf	0.062040027
228	0xbcd234cf	-0.025659947
229	0x3c130f43	0.008975807
230	0xbe042328	-0.12904036
231	0x3d69ee83	0.057112228
232	0x3e751a65	0.2393585
233	0x3d8ecf47	0.06973129
234	0xbd26e329	-0.04074398
235	0xbd5d8dc2	-0.05409027
236	0x3e15ab12	0.1461604
237	0xbe17460b	-0.14772813
238	0xbd487664	-0.04894103
239	0xbe2fa280	-0.17151833
240	0x3e240fa4	0.16021591
241	0xbe301c8a	-0.17198387
242	0x3d9966fc	0.07490346
243	0xbe37169e	-0.17879722
244	0xbe015715	-0.12630875
245	0xbd8c2ac1	-0.06844092
246	0xbe95d9c8	-0.29267716
247	0x3dde3391	0.10849679
248	0x3e0645dd	0.13112588
249	0xbcfe1fc7	-0.031021012
250	0xbdef65c1	-0.1168933
251	0x3cf054b4	0.029337265
252	0xbc2b2a2c	-0.010447066
253	0x3e4a2d90	0.19743943
254	0xbe645b32	-0.22300413
255	0x3cf2195d	0.02955311

bias f4 [32]
0	0xbd0ea0bd	-0.03482126
1	0xbe54cdbf	-0.20781611
2	0xbdbe05be	-0.09278439
3	0xbd87d882	-0.066330925
4	0xbd2a7955	-0.041619617
5	0xbdb83d0e	-0.0899602
6	0xbea29548	-0.31754518
7	0xbd115072	-0.03547711
8	0x3e1bb8e0	0.15207243
9	0x3ea63700	0.32463837
10	0xb9c7569d	-0.0003802077
11	0x3e0625f0	0.1310041
12	0x3e2dfa25	0.16989954
13	0xbd8c5b1a	-0.06853314
14	0x3c6ae1f6	0.0143361
15	0xbd32fa81	-0.04369593
16	0x3e2b3ab0	0.16721606
17	0x3cb6413c	0.022247903
18	0x3cbf8634	0.023379423
19	0x3e60a800	0.21939087
20	0x3c66b263	0.014080617
21	0x3df66bf7	0.120323114
22	0xbcd76fba	-0.026298393
23	0x3ca66529	0.020311909
24	0x3e1a8a7c	0.1509189
25	0xbde35ca6	-0.11101656
26	0x3d78ee4f	0.060774144
27	0xbe5aa238	-0.21350944
28	0x3e10504a	0.14093128
29	0xbe8374cf	-0.25675055
30	0x3e3162a9	0.17322792
31	0x3e8606c5	0.2617704

weight f4 [8, 32]
0	0xbe2b7f86	-0.16747865
1	0xbe92b5b1	-0.28654245
2	0x3e5de8a7	0.21670781
3	0x3cf67170	0.030083388
4	0xbd173cf4	-0.036923364
5	0x3e30ca70	0.17264724
6	0xbe09e270	-0.13465285
7	0xbd4c8dc0	-0.04993987
8	0x3ceeaf6a	0.029136378
9	0x3e3c6417	0.18397556
10	0xbe1665a0	-0.14687204
11	0x3e13f9ed	0.14450808
12	0xbd35b8a6	-0.044365548
13	0xbc8025e1	-0.015643062
14	0xbdfb8adb	-0.12282344
15	0x3e2aabcd	0.166671
16	0xbccb5d57	-0.024824781
17	0x3e135fe6	0.14392051
18	0xbd635d68	-0.055509
19	0x3de2a6be	0.1106696
20	0xbe18b28f	-0.14911865
21	0xbe6cde04	-0.23131567
22	0x3e9592a4	0.2921344
23	0xbd0f7fac	-0.035033867
24	0x3e2fdbb9	0.17173661
25	0xbd98edd8	-0.0746724
26	0x3d990597	0.07471769
27	0xbe2eacc5	-0.17058094
28	0xbe56243e	-0.20912263
29	0xbecd9674	-0.4015385
30	0x3e9154f7	0.28385136
31	0x3e23f75e	0.16012332
32	0xbdc0e10d	-0.09417925
33	0x3db2a432	0.08722724
34	0x3dbce8a6	0.09224062
35	0xbdcd402f	-0.10022008
36	0x3c8617f8	0.016368851
37	0x3d5c1560	0.053731322
38	0x3db8d1fa	0.09024425
39	0xbe0a3219	-0.13495673
40	0xbd92b523	-0.07163455
41	0x3dd49e6c	0.10381779
42	0xbd929218	-0.071567714
43	0xbe0bb056	-0.13641486
44	0x3d93facb	0.07225569
45	0xbe70a47e	-0.23500249
46	0x3b868fa9	0.004106481
47	0x3e836009	0.25659207
48	0xbe82cc28	-0.25546384
49	0xbd27a984	-0.040933147
50	0x3dc1b7d0	0.094588876
51	0xbdc6f991	-0.0971557
52	0xbe36ffb4	-0.1787098
53	0xbe235b51	-0.15952803
54	0x3dcff861	0.101547964
55	0xbe38c9a9	-0.18045677
56	0x3e50e09d	0.20398183
57	0xbd73c48a	-0.059513606
58	0xbe03aed1	-0.12859656
59	0x3dd993a4	0.10623863
60	0xbd4a3e59	-0.049375866
61	0xbdca1d41	-0.09868861
62	0x3d8e53e0	0.06949592
63	0x3d35ffab	0.044433277
64	0xbe1fa6eb	-0.15591018
65	0xbe4b069d	-0.19826742
66	0x3d6a7d88	0.057248622
67	0xbe20222f	-0.1563804
68	0xbe97809c	-0.2959031
69	0x3d9cc409	0.07654578
70	0xbe353294	-0.17695075
71	0xbe6a2727	-0.22866498
72	0x3d4b4543	0.0496266
73	0x3da515c6	0.080607936
74	0xbe196fbe	-0.14984033
75	0x3decd5b1	0.11564196
76	0x3e132a69	0.14371647
77	0xbe1e4c1a	-0.15458718
78	0xbd87ffd6	-0.06640594
79	0x3d61b4c4	0.055104032
80	0x3e29bd60	0.16576147
81	0xbe07d30f	-0.13264106
82	0x3de5562c	0.111980766
83	0x3cbf2107	0.023331178
84	0x3d6fb6da	0.05852399
85	0x3b37fd65	0.002807462
86	0x3d75fd08	0.060055763
87	0xbdc58a38	-0.09645504
88	0x3e55376e	0.20821926
89	0xbca04d84	-0.019568212
90	0xbd821fc1	-0.06353713
91	0xbd25f3ef	-0.040515836
92	0xbd948d6a	-0.07253535
93	0xbe25143b	-0.16120999
94	0xbc08e10e	-0.0083544385
95	0xbd30b354	-0.04313977
96	0x3ec4f5c1	0.38468745
97	0xbe51f73e	-0.20504472
98	0xbc42e001	-0.011894227
99	0xbde7fd7a	-0.11327644
100	0xbe9bed3e	-0.3045444
101	0x3d1e4895	0.03864344
102	0xbeb87ff5	-0.36035123
103	0xbea43f70	-0.3207965
104	0xbe89d51a	-0.26920396
105	0xbd8841d3	-0.0665318
106	0x3e277c11	0.16355921
107	0x3e8527dd	0.26006976
108	0xbe44b027	-0.19207822
109	0x3ded833f	0.11597299
110	0xbde056de	-0.109540686
111	0xbe3ffdec	-0.18749207
112	0x3e111f8a	0.14172187
113	0xbd615bd4	-0.055019215
114	0x3d8d372d	0.068952896
115	0x3e92920e	0.28627056
116	0x3e27b3dc	0.16377205
117	0x3e10d926	0.14145336
118	0xbc3cb01b	-0.011516596
119	0x3df1f6db	0.11814662
120	0xbc4a73e0	-0.012356728
121	0xbdeebfd1	-0.1165768
122	0xbe247b2f	-0.16062616
123	0xbe6c97c7	-0.23104773
124	0x3e603ec7	0.21898948
125	0xbd0bf39d	-0.034167875
126	0xbd444864	-0.0479206
127	0x3bed9cec	0.0072513726
128	0x3cd2b65c	0.025721721
129	0xbdc8ec5d	-0.09810708
130	0x3d108b10	0.03528887
131	0x3e7d8ca5	0.24760683
132	0x3d5dcb6f	0.054149088
133	0xbd80d57a	-0.062907174
134	0xbd1f9ba2	-0.038966782
135	0xbd65556d	-0.05598967
136	0xbe18f1d3	-0.14935999
137	0xbda3ed8e	-0.08004294
138	0x3e807330	0.2508788
139	0x3c67ddff	0.014152049
140	0xbe393c05	-0.18089302
141	0x3e28bf02	0.16479114
142	0x3e29d745	0.16586025
143	0xbda3ab7c	-0.079916924
144	0x3e4f5f57	0.20251213
145	0x3aa66ba4	0.0012696874
146	0xbe479dca	-0.19493786
147	0x3de875ad	0.1135057
148	0x3c895084	0.016762026
149	0xbcce86a8	-0.025210693
150	0xbd82cb8b	-0.06386479
151	0x3d02e54d	0.03195696
152	0xbda9a092	-0.082825795
153	0xbe3b156b	-0.18269889
154	0x3daa23d5	0.08307616
155	0x3dad9e4e	0.0847746
156	0x3de11807	0.10990911
157	0xbdf54238	-0.11975521
158	0xbd1aca5b	-0.037790637
159	0xbe466239	-0.19373406
160	0x3d266e95	0.040632803
161	0xbdd02864	-0.10163954
162	0xbc59bc0e	-0.013289465
163	0xbb6e74fc	-0.0036385646
164	0xbe09ac21	-0.13444568
165	0x3d538cf7	0.051648106
166	0xbdd44285	-0.1036425
167	0xbd79392d	-0.060845543
168	0xbc68377b	-0.014173384
169	0x3e85b1fd	0.26112357
170	0x3da938eb	0.08262809
171	0x3dc60db7	0.09670585
172	0x3e2d85ed	0.1694562
173	0xbdca6d77	-0.0988416
174	0x3e2d783b	0.16940396
175	0x3ddda201	0.108219154
176	0x3e0b2edb	0.13592093
177	0x3cf93d0f	0.030424623
178	0xbc4d69cc	-0.012537431
179	0x3e1b4cd0	0.1516602
180	0xba542139	-0.0008092109
181	0xbe40da1a	-0.18833199
182	0x3d530e62	0.05152739
183	0x3db4c5ad	0.08826766
184	0x3d87c4da	0.06629343
185	0xbe1f1d66	-0.15538558
186	0x3d2fdc68	0.042934805
187	0xbd9f14b2	-0.07767619
188	0xbdc13cdc	-0.09435436
189	0x3d0fcc92	0.035107203
190	0x3dcbd384	0.09952453
191	0xbaf7c1ee	-0.00189024
192	0xbe0fa895	-0.14029153
193	0xbc5de9d8	-0.013544522
194	0x3e059eb2	0.13048819
195	0x3d6858b5	0.056725223
196	0xbd9bbb25	-0.07604054
197	0x3da0367c	0.07822892
198	0x3d52fdad	0.051511455
199	0xbda9f5fb	-0.0829887
200	0xbdff0c0e	-0.12453471
201	0xbdae56c0	-0.0851264
202	0xbd3094db	-0.04311071
203	0xbd4d1860	-0.050072074
204	0xbd860a06	-0.065448806
205	0x3e10d4fb	0.14143746
206	0x3e1c9590	0.15291429
207	0xbdea8903	-0.11451914
208	0xbe0647c1	-0.1311331
209	0xbde9f7fd	-0.11424253
210	0xbc288cb3	-0.010287452
211	0xbc801730	-0.015636057
212	0xbd04a2de	-0.032381885
213	0x3eba818e	0.36426967
214	0xbe28b5a3	-0.16475539
215	0x3ba25d86	0.0049549965
216	0xbd6051b0	-0.054765403
217	0xbda3eb20	-0.08003831
218	0x3dda02c7	0.10645061
219	0xbdaa565a	-0.083172515
220	0x3e567115	0.20941575
221	0xbbfe7f24	-0.007766621
222	0x3e09be28	0.13451445
223	0xbdb956dd	-0.09049771
224	0xbe9cf04e	-0.30652088
225	0x3d6a33f5	0.057178456
226	0xbd86383e	-0.06553696
227	0x3cf88876	0.030338507
228	0x3d812289	0.06305415
229	0x3e60fe7c	0.21972078
230	0x3ed459b0	0.41474676
231	0xbd70ba00	-0.058771133
232	0x3e6e5420	0.23274279
233	0x3de82285	0.11334709
234	0xbe99bf2e	-0.3002867
235	0xbe9df425	-0.3085033
236	0xbbff4807	-0.0077905688
237	0xbd0d12d1	-0.034441773
238	0xbb2240a9	-0.0024757779
239	0x3ea1121f	0.31459138
240	0xbef8bf6e	-0.4858355
241	0x3c817a8e	0.015805509
242	0xbd899cb8	-0.06719345
243	0xbed517f0	-0.41619825
244	0xbc9df087	-0.019279731
245	0xbe292f57	-0.16521965
246	0x3d9e72ed	0.07736764
247	0xbd2862d1	-0.041109864
248	0xbdfd8ae8	-0.1238001
249	0x3e3c3b03	0.18381886
250	0xbd235c3a	-0.039882876
251	0x3d8f9334	0.07010499
252	0xbe42ab42	-0.19010642
253	0xbd364fde	-0.04450976
254	0xbc923e56	-0.01785199
255	0x3dcd97be	0.10038708

bias f4 [8]
0	0xbc96d656	-0.01841275
1	0xbd9ca3cb	-0.076484285
2	0xbdea886d	-0.114518024
3	0xbe007fcc	-0.1254875
4	0xbe074405	-0.13209541
5	0xbe4359f5	-0.19077285
6	0x3cdecc24	0.027196951
7	0xbe229703	-0.15877919
