model/MMAE_10_32_0.01.pt (torch, 115979 bytes, 24 tensors)

weight f4 [64, 60]
-0.21504247 -5.6135008e-09 -7.7551726e-07 -3.460286e-07 -0.045811962 5.146042e-09 6.0627684e-08 -9.1079335e-07
-0.19601792 4.9040352e-08 -5.351009e-07 -4.5041497e-07 -0.18864524 -9.858505e-07 -1.1293021e-06 9.0029636e-07
-0.09541453 -5.1897933e-07 3.042331e-07 2.6388534e-07 -0.029238522 -6.3094683e-07 6.52548e-07 1.6281528e-07
-0.026922107 4.140999e-07 2.1479744e-07 -4.9542325e-07 0.036938068 -2.2307841e-08 -4.3629356e-07 -6.123121e-07
0.036160517 -7.279016e-08 6.535616e-07 -2.984823e-08 -0.09441211 1.04723824e-07 -4.9064397e-09 1.6886167e-07
-0.05239147 -4.270383e-07 1.7803549e-07 5.0963126e-07 -0.10605769 -7.0924807e-07 1.0234825e-07 1.7954943e-07
-0.1033253 1.7966696e-07 -1.9994914e-08 -1.2620754e-07 0.06619639 -1.7216005e-08 -8.1822407e-07 -1.7242314e-07
-0.1010608 5.7373654e-07 -4.8436405e-08 5.5398743e-07 0.08756509 2.3579676e-07 -7.848305e-07 -5.8894557e-08
0.18776245 3.6755196e-07 2.5182794e-07 -1.7663984e-07 0.039533347 3.373147e-07 1.4774557e-07 -3.728621e-07
0.08156391 -3.8358968e-07 -2.43571e-07 -8.4865076e-07 0.1732047 -7.0198337e-07 1.4543161e-07 2.3026983e-07
0.18001899 -2.1824113e-07 2.6911664e-07 5.2577093e-07 -0.018416796 -1.6225158e-08 -1.3132745e-07 2.48533e-07
0.16938134 -2.5365424e-08 1.302252e-07 2.6781214e-07 -0.029050902 -6.546456e-07 7.256212e-07 9.642806e-07
0.053405408 -7.667657e-08 -9.2283436e-08 -2.1172222e-07 0.013949127 7.8514745e-07 -1.5079766e-07 -4.60127e-08
0.13180827 -4.1870845e-07 1.2891157e-07 -1.6857825e-08 0.11017574 3.6086357e-07 9.770015e-07 1.3376999e-07
0.112462536 -4.914209e-07 1.0237234e-06 -5.274708e-07 0.018676054 2.3732548e-07 3.30286e-08 6.965371e-07
-0.109847166 4.89842e-07 1.0312209e-07 -1.1619611e-06 -0.006461111 3.3736805e-07 3.2652292e-07 -1.6579648e-08
-0.20242725 -8.428601e-07 1.516371e-07 1.1625217e-06 0.006133517 2.3823998e-07 -3.5269528e-07 1.0905268e-08
-0.0020384055 8.2094225e-08 -4.3590757e-07 7.489089e-08 -0.20029145 -2.769535e-08 -8.117334e-07 -5.6720467e-08
-0.11852736 -1.5177095e-07 1.0669778e-07 5.5921188e-09 -0.09899694 -3.8335337e-08 -5.908175e-08 -5.885093e-07
-0.12530416 -4.2617827e-07 -6.360177e-08 1.2033446e-07 -0.21939774 8.4123855e-08 1.17174395e-07 1.1296175e-06
-0.21108459 -7.766525e-09 3.3053342e-07 -3.3695164e-07 -0.12650013 -1.9421876e-07 -2.07083e-07 -1.688305e-07
0.003034068 1.9446844e-08 1.6504735e-08 -4.226514e-07 -0.09551079 1.0776511e-06 -3.9896423e-07 -1.0208649e-06
-0.120642744 3.4110514e-08 -2.5589912e-07 2.647217e-08 -0.25965497 -1.0230666e-06 -5.6196404e-07 2.216312e-07
-0.41315076 -7.0715754e-07 -6.502191e-07 -1.6173166e-07 -0.35720775 -3.3423433e-09 1.6244636e-07 -2.8404514e-09
-0.28571576 6.8618635e-07 -1.8217143e-08 7.630376e-08 -0.40195027 -2.5111942e-07 8.9502083e-07 -3.5328074e-07
-0.33830032 -3.2967392e-08 -1.0152571e-06 9.1058716e-08 -0.23124658 -1.2821646e-07 -1.1612225e-07 1.80583e-08
-0.24255428 -4.853681e-07 8.620967e-07 -1.22574e-07 -0.38018915 -3.5008213e-08 3.9628566e-07 -6.77412e-08
-0.3833467 8.704612e-08 1.1941913e-07 1.5588242e-07 -0.3875121 -3.8819914e-07 1.4322454e-07 -8.0609084e-08
-0.19666956 -5.6924546e-07 7.9363025e-07 5.709328e-07 -0.1822736 8.92176e-07 9.990835e-07 -2.8603125e-07
-0.20499659 1.7332488e-07 8.2081115e-09 3.968495e-07 -0.20935358 2.685594e-07 4.1630253e-07 2.9713996e-07
0.0003093467 -6.443867e-07 -1.5499135e-07 8.130143e-07 -0.17814426 -7.5739806e-08 4.7974277e-07 1.5315479e-07
-0.07879004 -5.4928057e-07 -7.8994134e-08 1.01001785e-08 -0.16663174 -2.8969893e-09 -3.2806147e-07 -8.0773657e-07
00000000: 1834 5cbe e0e0 c0b1 242d 50b5 cfc5 b9b4
00000010: 53a5 3bbd 10d1 b031 6c32 8233 3e7d 74b5
00000020: ecb8 48be 70a0 5233 dba3 0fb5 90d0 f1b4
00000030: 382c 41be 9151 84b5 8692 97b5 e5ab 7135
00000040: b168 c3bd fd4f 0bb5 7b55 a334 20ac 8d34
00000050: a085 efbc 565e 29b5 c22a 2f35 53d2 2e34
00000060: c08b dcbc 7551 de34 12a3 6634 3afd 04b5
00000070: 5f4c 173d 769f bfb2 bb3b eab4 c45d 24b5
00000080: 0d1d 143d d050 9cb3 6970 2f35 7a32 00b3
00000090: 235b c1bd 88e4 e033 8095 a8b1 5850 3534
000000a0: 7098 56bd b243 e5b4 062a 3f34 98cd 0835
000000b0: c634 d9bd 2863 3eb5 8cca db33 2cca 4034
000000c0: 379c d3bd 7aea 4034 48c1 abb2 aa83 07b4
000000d0: f991 873d 65e2 93b2 eea3 5bb5 5023 39b4
000000e0: f7f8 cebd e002 1a35 6408 50b3 bab5 1435
000000f0: 5355 b33d 522f 7d34 24ad 52b5 40f3 7cb3
00000100: cd44 403e f553 c534 f832 8734 64aa 3db4
00000110: b8ed 213d 2e18 b534 fea3 1e34 c72d c8b4
00000120: fb0a a73d 2af0 cdb4 25c4 82b4 d6ce 63b5
00000130: 935c 313e ee6f 3cb5 f027 1c34 1740 7734
00000140: e656 383e aa55 6ab4 1c7b 9034 b422 0d35
00000150: d2de 96bc 805f 8bb2 0403 0db4 1e6e 8534
00000160: 4d72 2d3e 28e3 d9b2 08d4 0b34 d2c7 8f34
00000170: 28fc edbc e7ba 2fb5 4fc8 4235 6e6c 8135
00000180: a1bf 5a3d 64a9 a4b3 5b2d c6b3 c355 63b4
00000190: e18a 643c ecc2 5235 f2ea 21b4 809f 45b3
000001a0: bff8 063e daca e0b4 f16a 0a34 c0ce 90b2
000001b0: d2a3 e13d b6bc c134 8421 8335 6aa2 0f34
000001c0: c252 e63d 30ea 03b5 de66 8935 8497 0db5
000001d0: 86fe 983c 88d3 7e34 54db 0d33 aaf9 3a35
000001e0: 8df7 e0bd b07d 0335 f873 dd33 aef4 9bb5
000001f0: bab7 d3bb 831f b534 f84c af34 086b 8eb2
00000200: 1749 4fbe e840 62b5 b0d1 2234 f107 9c35
00000210: abfb c83b e8ce 7f34 125a bdb4 e059 3b32
00000220: c596 05bb c74b b033 ae06 eab4 b4d3 a033
00000230: 3419 4dbe b8e6 edb2 e5e5 59b5 d09c 73b3
00000240: 79be f2bd 7bf6 22b4 ba21 e533 cc24 c031
00000250: e8be cabd 26a6 24b3 12c1 7db3 0dfa 1db5
00000260: bc4f 00be 7fcd e4b4 7195 88b3 4935 0134
00000270: cda9 60be 94a7 b433 4ea1 fb33 5d9d 9735
00000280: 8f26 58be 8a6d 05b2 2b74 b134 48e6 b4b4
00000290: 4089 01be 728a 50b4 8b5a 5eb4 c647 35b4
000002a0: 37d7 463b 100c a732 4cc6 8d32 c4e8 e2b4
000002b0: 299b c3bd cfa3 9035 3a31 d6b4 a704 89b5
000002c0: 8b13 f7bd e880 1233 8262 89b4 eb64 e332
000002d0: 7ff1 84be 4d50 89b5 e0d9 16b5 85f9 6d34
000002e0: 7f88 d3be 7fd3 3db5 b78a 2eb5 76a8 2db4
000002f0: efe3 b6be 20af 65b1 ea6c 2e34 c031 43b1
00000300: 5649 92be 5e32 3835 ec7b 9cb2 70dc a333
00000310: 6dcc cdbe 97d1 86b4 5d41 7035 89aa bdb4
00000320: b335 adbe 0898 0db3 f843 88b5 0f8c c333
00000330: e7cb 6cbe dfab 09b4 e25e f9b3 9f1e 9b32
00000340: 2660 78be 3e4a 02b5 d66a 6735 e29c 03b4
00000350: 27a8 c2be f05b 16b3 16c1 d434 1e79 91b3
00000360: 0546 c4be 1cee ba33 ae39 0034 a260 2734
00000370: fc67 c6be af69 d0b4 43c9 1934 501b adb3
00000380: bf63 49be 40ce 18b5 db09 5535 3442 1935
00000390: eea5 3abe de7d 6f35 3f18 8635 d68f 99b4
000003a0: a0ea 51be 2e1b 3a34 a803 0d32 940e d534
000003b0: c960 56be 862e 9034 2f80 df34 9b86 9f34
000003c0: d02f a239 ebf9 2cb5 b36b 26b4 eb3d 5a35
000003d0: 736b 36be 66a6 a2b3 acc7 0035 de72 2434
000003e0: ac5c a1bd 4672 13b5 7ca3 a9b3 0e85 2d32
000003f0: 83a1 2abe 6014 47b1 6d20 b0b4 3cd3 58b5

bias f4 [64]
0.2697089 0.15594116 -0.21926253 0.120276235 -0.13646148 0.35820764 0.1521879 0.19517823
-0.01624181 0.1962898 0.26326913 0.1490225 0.022579439 0.017336491 0.17753693 -0.119347215
0.031137735 -0.22138348 0.10445264 -0.18683626 0.12469168 0.1712088 0.18319386 -0.25879636
0.024153452 0.021177217 0.32761744 0.10373589 -0.35215813 0.02150871 0.15332402 -0.16079102
-0.062231403 -0.094180524 0.20179613 0.1348664 0.02360712 -0.21767569 0.13849862 -0.02411472
-0.25804082 -0.16155395 0.10341142 0.18597792 0.1842822 0.17732282 -0.035858035 -0.18546893
-0.11581749 0.008794644 -0.21827155 -0.005806836 0.17248705 -0.1517198 -0.0070779803 0.23061918
-0.269091 -0.15616038 0.17967989 0.18370786 0.102934085 0.14583865 0.09548467 -0.20930752
00000000: 4917 8a3e 0aaf 1f3e 5b86 60be 6353 f63d
00000010: 8fbc 0bbe fe66 b73e 25d7 1b3e cddc 473e
00000020: 8b0d 85bc 3100 493e 36cb 863e 5b99 183e
00000030: 84f8 b83c 4205 8e3c 3ecc 353e 506c f4bd
00000040: 9014 ff3c 5ab2 62be 44eb d53d 0152 3fbe
00000050: 5a5e ff3d 5c51 2f3e 2c97 3b3e f580 84be
00000060: 76dd c53c d87b ad3c 79bd a73e 7b73 d43d
00000070: 124e b4be 0933 b03c f900 1d3e 67a6 24be
00000080: 5be6 7ebd b8e1 c0bd a5a3 4e3e 6b1a 0a3e
00000090: b863 c13c 60e6 5ebe 95d2 0d3e 3c8c c5bc
000000a0: ed1d 84be 666e 25be 5ec9 d33d ff70 3e3e
000000b0: 79b4 3c3e 1d94 353e e0df 12bd 91eb 3dbe
000000c0: b831 edbd 6917 103c 9482 5fbe 4547 bebb
000000d0: 72a0 303e 6f5c 1bbe 67ee e7bb 6f27 6c3e
000000e0: 4cc6 89be 82e8 1fbe 01fe 373e ea1d 3c3e
000000f0: 1bcf d23d ba56 153e 778d c33d b654 56be

weight f4 [32, 64]
-0.14000393 0.023054428 -0.14069289 -0.3106129 0.059989695 -0.081461795 0.08391332 0.13798405
0.3239517 0.14114645 0.30130962 0.22989373 -0.30616498 -0.2139714 -0.10493424 0.047596715
-0.39296046 -0.046400297 0.2147144 0.1333374 -0.05506625 0.017426347 0.15624095 0.18714632
0.22788179 -0.14800125 -0.08574568 0.1305408 0.16897365 -0.29191965 0.124105945 -0.03858968
-0.36101004 -0.23165253 0.08923555 0.07279141 -0.26010606 0.20207807 0.14000183 0.3855478
-0.12765574 -0.05692903 0.0987208 0.06919487 0.027807456 0.11271981 -0.20249866 -0.031576786
0.086189 0.16913451 -0.34406522 -0.38017482 0.09844801 0.3202214 -0.24354558 -0.12159163
0.15489909 0.17704676 0.063403256 0.048326172 -0.09439813 -0.17142445 0.07342099 -0.06761382
0.019160075 -0.18253063 0.31091547 0.039366376 0.18333286 -0.13752912 -0.19361003 -0.13596012
-0.0011527981 -0.19031583 0.032063335 -0.036377937 0.104886465 -0.08827425 -0.09423422 0.27401483
0.12531191 0.18296053 -0.07452544 0.30627766 -0.16224627 -0.15608753 -0.19906212 0.20761919
-0.13200052 0.27522597 -0.12799688 -0.18260385 0.2196618 0.058499157 -0.3242743 0.1979312
-0.0074050603 0.011609731 -0.14758241 -0.16322173 0.17650947 0.1759143 -0.17048326 0.08925972
0.21136388 0.2532212 0.13111912 -0.29547888 -0.13265379 -0.2134556 0.005337014 0.1642926
0.3077249 -0.18584482 -0.1812989 -0.107779905 -0.19814762 -0.12676722 0.20020077 0.008577145
0.08165914 -0.12848413 -0.24118266 -0.22773051 -0.1986811 0.08993544 -0.2639408 0.20377052
-0.28571138 -0.020904807 -0.090220585 -0.20171459 -0.091810174 -0.15522328 -0.056187507 -0.01512384
0.1547407 -0.019353608 0.34714636 0.2934914 -0.257197 -0.3439261 -0.124809906 -0.03567009
-0.1444795 0.081969246 -0.020820782 -0.06104997 -0.14217982 0.029598054 0.050545737 0.055426337
0.30921057 -0.099635854 -0.21008186 0.06056419 0.117613636 -0.17396966 0.08379934 -0.05346482
-0.16331013 -0.37330356 0.059273157 -0.1099137 -0.20851567 0.18865468 0.13394833 0.16247098
-0.10311747 -0.063684285 0.20671387 0.01258305 -0.051017787 -0.0025707341 -0.180815 -0.06490009
-0.10311419 0.20910385 -0.22328669 -0.25612625 -0.1221744 0.1970026 -0.18216641 -0.3492629
0.2488757 0.17466772 0.028227305 0.008315142 0.01045743 -0.2687393 -0.15684156 0.054044098
-0.0058554444 0.18186301 -0.08753737 -0.34368783 -0.1421261 -0.1724612 0.13780452 0.21779428
0.18607695 -0.005217589 0.05678606 0.13367644 -0.044949368 -0.08030924 -0.19035797 -0.22361515
-0.11928295 -0.06376458 0.18035674 -0.14272992 0.16488926 0.025726508 0.19094872 0.049365778
0.24004194 -0.1386013 -0.040705077 0.15389358 0.1972989 -0.15927117 0.12814747 -0.18283123
-0.2349644 -0.207617 0.110811114 0.062098537 -0.096833125 0.094933614 0.104109906 0.1782148
-0.05997717 -0.03166906 -0.06530458 0.057998486 0.14345245 0.16525865 -0.17540018 -0.19861202
-0.09239022 0.089940205 -0.2504869 -0.16878216 0.044038333 0.22781059 -0.14228207 -0.29381925
0.12486721 0.1709609 0.08983737 0.12594882 0.0020246434 -0.12353073 0.18142127 -0.024303196
00000000: 315d 0fbe a4dc bc3c cc11 10be a708 9fbe
00000010: c1b7 753d 71d5 a6bd bfda ab3d b14b 0d3e
00000020: ffdc a53e b288 103e 4145 9a3e 4369 6b3e
00000030: a8c1 9cbe 521b 5bbe c3e7 d6bd c6f4 423d
00000040: 1d32 c9be 3d0e 3ebd 17de 5b3e 9989 083e
00000050: 268d 61bd b3c1 8e3c a1fd 1f3e 49a3 3f3e
00000060: d859 693e a48d 17be 6e9b afbd 7dac 053e
00000070: 6e07 2d3e 7e76 95be 422b fe3d 3610 1ebd
00000080: 4fd6 b8be 5236 6dbe 21c1 b63d aa13 953d
00000090: 9f2c 85be 8eed 4e3e a45c 0f3e 8566 c53e
000000a0: 30b8 02be 6a2e 69bd 212e ca3d 0ab6 8d3d
000000b0: 76cc e33c a5d9 e63d cf5b 4fbe a956 01bd
000000c0: dc83 b03d 9931 2d3e 5129 b0be 46a6 c2be
000000d0: 1c9f c93d 0ff4 a33e 0364 79be 0805 f9bd
000000e0: de9d 1e3e bf4b 353e 91d9 813d aaf1 453d
000000f0: cf53 c1bd e489 2fbe be5d 963d 1d79 8abd
00000100: 97f5 9c3c 4fe9 3abe 5030 9f3e a33e 213d
00000110: 9cbb 3b3e 6fd4 0cbe b541 46be 2139 0bbe
00000120: 7c19 97ba 27e2 42be d854 033d 0801 15bd
00000130: b7ce d63d 21c9 b4bd dffd c0bd ac4b 8c3e
00000140: c451 003e 015a 3b3e cba0 98bd 6dd0 9c3e
00000150: e323 26be 69d5 1fbe f1d6 4bbe 209a 543e
00000160: 252b 07be 6bea 8c3e 9d11 03be 81fc 3abe
00000170: 06ef 603e d09c 6f3d 4807 a6be 7aae 4a3e
00000180: 26a6 f2bb be36 3e3c d81f 17be 9923 27be
00000190: e6be 343e e122 343e 2a93 2ebe cdcd b63d
000001a0: c66f 583e 36a6 813e 1744 063e 0249 97be
000001b0: 65d6 07be 1b94 5abe 1ee2 ae3b 523c 283e
000001c0: 1e8e 9d3e 1b4e 3ebe 6ba6 39be b6bb dcbd
000001d0: 36e7 4abe 44cf 01be 6e01 4d3e 2787 0c3c
000001e0: e83c a73d 5891 03be 96f8 76be 3032 69be
000001f0: 0f73 4bbe 1230 b83d 4023 87be 38a9 503e
00000200: c348 92be 8f40 abbc 92c5 b8bd 458e 4ebe
00000210: f906 bcbd daf2 1ebe df24 66bd fcc9 77bc
00000220: 5974 1e3e 758b 9ebc 2bbd b13e 8144 963e
00000230: 53af 83be 1517 b0be 569c ffbd cd1a 12bd
00000240: 6ff2 13be 7edf a73d 5890 aabc 890f 7abd
00000250: 9697 11be 9e77 f23c 0c09 4f3d ba06 633d
00000260: d950 9e3e e20d ccbd b31f 57be 2812 783d
00000270: 6bdf f03d 1a25 32be fd9e ab3d edfd 5abd
00000280: c53a 27be a521 bfbe 69c8 723d 6f1a e1bd
00000290: 2285 55be b12e 413e c029 093e cb5e 263e
000002a0: 412f d3bd e86c 82bd cdac 533e 2329 4e3c
000002b0: 07f8 50bd c379 28bb 9127 39be 57ea 84bd
000002c0: 882d d3bd 521f 563e 44a5 64be fb22 83be
000002d0: 9236 fabd 0dbb 493e d589 3abe 96d2 b2be
000002e0: 46d9 7e3e 18dc 323e f33c e73c 3c3c 083c
000002f0: a455 2b3c 3398 89be 139b 20be 585d 5d3d
00000300: 07df bfbb 4c3a 3a3e cb46 b3bd daf7 afbe
00000310: 8189 11be ab99 30be a11c 0d3e 7705 5f3e
00000320: f58a 3e3e 4ff8 aabb 8098 683d 7ae2 083e
00000330: d41c 38bd 2c79 a4bd 33ed 42be 5ffb 64be
00000340: 9f4a f4bd 0197 82bd 70af 383e cb27 12be
00000350: bbd8 283e 66c0 d23c 1088 433e c533 4a3d
00000360: 8ecd 753e 80ed 0dbe 5eba 26bd 4796 1d3e
00000370: b908 4a3e fb17 23be 1739 033e 1c38 3bbe
00000380: 829a 70be 8d99 54be f0f0 e23d 095b 7e3d
00000390: 7250 c6bd 8e6c c23d 9337 d53d f17d 363e
000003a0: 9faa 75bd 6bb7 01bd 68be 85bd d28f 6d3d
000003b0: 33e5 123e 9039 293e 1b9c 33be f360 4bbe
000003c0: 1537 bdbd 9232 b83d d23f 80be 3bd5 2cbe
000003d0: 8a61 343d 2e47 693e 64b2 11be 7a6f 96be
000003e0: 61ba ff3d 6010 2f3e a8fc b73d baf8 003e
000003f0: e1af 043b aefd fcbd 7fc6 393e 7f17 c7bc

bias f4 [32]
0.023673294 -0.1718313 -0.070883326 0.042157743 -0.29628444 0.16445859 -0.12584095 -0.01323724
0.060336616 0.032900423 -0.05186318 0.013738547 0.27283174 0.11390524 0.03126559 0.0008322019
-0.069015294 0.04113139 0.12045476 -0.060355205 0.12596314 0.022438057 0.046565477 -0.16351072
-0.17117102 0.023583567 -0.13820367 -0.07664801 0.20153508 0.089049585 -0.075609565 0.15126356
00000000: 7fee c13c 8bf4 2fbe 472b 91bd 99ad 2c3d
00000010: 98b2 97be d567 283e 73dc 00be 02e1 58bc
00000020: 8723 773d 98c2 063d 7c6e 54bd a517 613c
00000030: 9ab0 8b3e 2747 e93d 5910 003d 2028 5a3a
00000040: e457 8dbd 6379 283d fcb0 f63d 0537 77bd
00000050: 7bfc 003e 04d0 b73c 71bb 3e3d 5b6f 27be
00000060: 7547 2fbe 5332 c13c 4385 0dbe a2f9 9cbd
00000070: 365f 4e3e a15f b63d 30d9 9abd d6e4 1a3e

weight f4 [8, 32]
0.02352401 0.1628392 0.07684925 -0.02925364 -0.022991873 0.06201096 -0.022592898 -0.2005329
0.037356015 -0.1160104 -0.15146397 0.14374328 -0.14388514 -0.10605079 0.08679893 0.23042014
-0.006319696 0.023188392 0.087616906 0.07009697 -0.011822867 -0.15758269 0.088480614 0.19617361
0.07829099 -0.37773657 0.103208356 -0.026646405 0.09374413 -0.17149073 0.056897465 -0.14161967
0.006692688 0.48511553 -0.16385359 -0.1773139 0.30902612 -0.11235461 0.09103034 -0.0011306214
-0.10977916 -0.118082955 0.001656316 0.16504407 -0.12181308 -0.029837836 -0.20260458 0.22290988
-0.006476798 0.15614302 -0.22122116 0.3202543 0.034123518 -0.027709465 0.3133408 0.026820334
0.18219398 -0.28508022 0.17571568 -0.3061195 0.23691441 -0.40648708 0.054773945 -0.26359814
-0.038194492 0.36583 -0.032780282 -0.027859703 0.2113335 -0.016934486 -0.030225717 0.11225319
0.099155515 -0.17812946 -0.115238465 0.096400455 -0.17964654 -0.31452668 0.015413368 -0.04461799
-0.20939542 -0.04878096 -0.37951773 0.036139417 -0.09657802 0.0780884 0.10776878 -0.04088575
0.16710663 -0.28373808 0.17838724 -0.07075879 0.07286232 -0.25932917 0.1394296 0.088460304
-0.16059472 0.39775345 0.1175157 0.048669487 0.20772938 -0.00028828438 -0.10326741 -0.16687553
-0.10929034 0.077285975 -0.009253706 -0.023992809 0.04473498 -0.074298196 -0.03077528 -0.09264585
0.07887992 -0.13293311 -0.22688876 0.042082753 -0.04538357 -0.20918433 -0.0806988 -0.07172115
-0.097203866 -0.18482263 0.06237623 0.09691346 0.18509191 -0.3036521 0.046697184 0.06818649
-0.036306046 0.19395743 -0.054498494 -0.17884183 0.35235077 0.25416988 0.13162906 -0.1880189
-0.14177114 -0.0020481 -0.24430653 0.0304051 0.22247434 -0.3145738 0.017887989 0.23839708
0.069308765 0.21326423 -0.19255215 0.049232237 -0.04522627 -0.27003634 0.07913021 0.24386576
0.044978824 -0.20758201 -0.20958193 -0.36718303 0.20054215 -0.34540233 0.20213339 -0.08331182
0.05477796 -0.2489307 -0.0011103943 0.14735465 -0.21278554 -0.15212227 -0.12388935 0.06384239
0.067415215 0.04197385 0.2794866 -0.07436753 -0.15595719 0.11777399 -0.2013154 -0.22116317
-0.06492097 -0.10594438 0.19072652 -0.079638965 -0.13149768 0.08129596 -0.09504351 -0.15306981
0.109065816 0.23266187 0.18517497 0.20725337 -0.37322524 0.31351596 -0.16051354 0.030941889
-0.1816901 0.2749849 -0.10654356 -0.29949144 0.32369956 0.034722716 0.13381994 -0.3005849
-0.13954411 -0.08676201 -0.331965 0.32024023 -0.0051142043 -0.19349264 0.1330818 0.073384196
0.018164555 0.29264128 -0.07484627 0.00896386 -0.07242599 -0.014760323 0.032061588 0.02224998
0.042426076 -0.28280175 -0.14303088 -0.17667623 0.19922659 -0.35987785 0.15461886 0.022641325
0.06269748 -0.18096691 0.1035784 0.30989492 -0.36363295 0.036321327 -0.13632943 0.18762605
0.09258353 0.06192033 0.017162628 -0.15432124 0.051948972 0.10305463 0.09536935 -0.06480087
0.20029882 -0.1352929 0.25337014 -0.12213738 0.12692972 0.047958095 0.058689505 -0.2891874
0.043913763 0.15493405 -0.24849992 0.050440934 -0.2277405 0.30889252 -0.19093324 0.18140279
00000000: 6db5 c03c 52bf 263e 2463 9d3d 54a5 efbc
00000010: 7459 bcbc 34ff 7d3d be14 b9bc 7f58 4dbe
00000020: 9f02 193d dc96 edbd 5f19 1bbe 7031 133e
00000030: a056 13be 2831 d9bd a3c3 b13d 42f3 6b3e
00000040: 7415 cfbb 95f5 bd3c 7e70 b33d 008f 8f3d
00000050: b3b4 41bc 5b5d 21be 5335 b53d bce1 483e
00000060: 0757 a03d b066 c1be e75e d33d 9049 dabc
00000070: ecfc bf3d 449b 2fbe 510d 693d bf04 11be
00000080: 564e db3b 1061 f83e 3cc9 27be c691 35be
00000090: ac38 9e3e 2c1a e6bd 1d6e ba3d 5c31 94ba
000000a0: e5d3 e0bd 7ad5 f1bd be18 d93a 5001 293e
000000b0: 2379 f9bd 7a6e f4bc 9377 4fbe 7d42 643e
000000c0: 523b d4bb f5e3 1f3e cd87 62be 5ff8 a33e
000000d0: 1ac5 0b3d f6fe e2bc 356e a03e 51b6 db3c
000000e0: 0f91 3a3e 09f6 91be d0ee 333e b2bb 9cbe
000000f0: b199 723e 131f d0be a55a 603d 56f6 86be
00000100: d471 1cbd 124e bb3e 9e44 06bd 083a e4bc
00000110: cf67 583e 31ba 8abc ec9b f7bc 00e5 e53d
00000120: 0c12 cb3d 9267 36be 2502 ecbd 9a6d c53d
00000130: 43f5 37be a409 a1be 5a88 7c3c 5ac1 36bd
00000140: c16b 56be 8bce 47bd 2650 c2be ed06 143d
00000150: b2ca c5bd d0ec 9f3d e1b5 dc3d d177 27bd
00000160: 001e 2b3e 1e46 91be 25ab 363e fce9 90bd
00000170: d738 953d cbc6 84be a2c6 0e3e ad2a b53d
00000180: f172 24be 57a6 cb3e 12ac f03d a859 473d
00000190: 03b7 543e e024 97b9 dd7d d3bd 6be1 2abe
000001a0: 9dd3 dfbd 1c48 9e3d db9c 17bc 918c c4bc
000001b0: 073c 373d a729 98bd 711c fcbc 1bbd bdbd
000001c0: cc8b a13d 9e1f 08be 8755 68be f75e 2c3d
000001d0: 1fe4 39bd 6b34 56be 6a45 a5bd 8ae2 92bd
000001e0: d212 c7bd 2542 3dbe 387e 7f3d 907a c63d
000001f0: bc88 3d3e 4a78 9bbe 8c45 3f3d 5ca5 8b3d
00000200: a6b5 14bd c79c 463e d039 5fbd 5022 37be
00000210: 5267 b43e 8e22 823e c5c9 063e 0788 40be
00000220: 742c 11be 6b39 06bb 7e2b 7abe 1e14 f93c
00000230: 50d0 633e d10f a1be d589 923c 5d1e 743e
00000240: c1f1 8d3d f061 5a3e 642c 45be bea7 493d
00000250: 2e3f 39bd 3442 8abe 050f a23d f2b7 793e
00000260: b73b 383d 6190 54be a59c 56be 6aff bbbe
00000270: ec5a 4d3e 93d8 b0be 0efc 4e3e 639f aabd
00000280: db5e 603d b0e7 7ebe a68a 91ba 23e4 163e
00000290: 74e4 59be f1c5 1bbe b3b9 fdbd cdbf 823d
000002a0: fd10 8a3d c6ec 2b3d de18 8f3e 014e 98bd
000002b0: 3eb3 1fbe 7d33 f13d a025 4ebe 9978 62be
000002c0: 49f5 84bd 5ef9 d8bd d04d 433e c119 a3bd
000002d0: 54a7 06be 7f7e a63d 2ca6 c2bd 55be 1cbe
000002e0: e65d df3d ea3e 6e3e 829e 3d3e 3a3a 543e
000002f0: 6117 bfbe 2a85 a03e a95d 24be d879 fd3c
00000300: f80c 3abe d2ca 8c3e 8333 dabd f156 99be
00000310: f3bb a53e 6839 0e3d 1808 093e 44e6 99be
00000320: a7e4 0ebe 48b0 b1bd 51f7 a9be 87f6 a33e
00000330: 0e95 a7bb ef22 46be 9846 083e 744a 963d
00000340: d5cd 943c 14d5 953e 0049 99bd 27dd 123c
00000350: 1454 94bd 48d5 71bc 0353 033d 9745 b63c
00000360: f7c6 2d3d 64cb 90be b076 12be 9dea 34be
00000370: 0e02 4c3e e941 b8be 6854 1e3e 4d7a b93c
00000380: 8967 803d 644f 39be ea20 d43d 8caa 9e3e
00000390: 192e babe acc5 143d f199 0bbe 0b21 403e
000003a0: 6f9c bd3d 2ca0 7d3d a498 8c3c 6306 1ebe
000003b0: 72c8 543d 4e0e d33d 0151 c33d 52b6 84bd
000003c0: 221b 4d3e 398a 0abe bbb9 813e 2a23 fabd
000003d0: ddf9 013e b56f 443d 6864 703d 5f10 94be
000003e0: ebde 333d 08a7 1e3e c376 7ebe 279b 4e3d
000003f0: ce34 69be 2927 9e3e 0184 43be a7c1 393e

bias f4 [8]
-0.28084973 0.05387813 -0.18409133 -0.14735101 0.31117472 0.051025186 0.00021854043 0.09735234
00000000: 89cb 8fbe 50af 5c3d 7082 3cbe 2fe3 16be
00000010: 4b52 9f3e c9ff 503d 0028 6539 aa60 c73d

weight f4 [64, 60]
0.05887815 0.0889463 0.12207413 0.19495022 0.2468976 0.06354053 0.103251755 0.1413147
0.27227193 0.17077214 0.1668381 0.08198374 0.22922638 -0.06940674 0.10174501 0.22042337
0.22909357 -0.06428401 0.083131626 0.059920043 0.0727715 -0.029883912 0.27549344 0.22387332
0.23185797 -0.06764494 0.062210932 0.040250916 0.10407181 0.008779469 0.2721649 0.033386793
0.17112264 -0.054164067 0.17613184 0.12699153 0.08130956 0.0042257677 0.23473649 0.09180412
0.026501637 -0.007230594 0.048880566 0.0878903 0.14408676 0.027145576 0.0247596 0.0686606
0.033407588 -0.03368585 0.054871175 0.100251384 0.22932887 0.068597816 0.19849592 0.24754158
0.21001673 0.025564652 0.0491671 0.2731175 0.16094983 0.08665915 0.1962206 0.1218317
0.13321032 0.11396905 0.002280726 -0.02220305 0.11596177 0.23656361 0.057395328 0.07618116
0.09586074 0.09870094 -0.028637227 0.17800042 -0.04467857 0.012585657 0.13248636 -0.035636663
0.101502046 0.15053988 0.028766677 0.04009061 -0.016198758 0.1495931 -0.047942095 0.17282791
0.1566618 0.24588236 -0.031956162 0.09221198 0.07565718 0.24269377 -0.005505553 0.13050571
0.0467836 0.16789767 0.029369447 0.10677374 0.014517281 0.22672395 0.024487447 0.1773961
0.08615422 0.14980645 0.016406905 -0.015479742 0.13155752 0.20834062 0.11395879 0.07961838
0.040091835 0.20597644 0.014179516 0.13760343 0.07622529 0.022583984 0.074489236 -0.066208445
-0.13450146 -0.027996577 -0.25146413 -0.05691632 -0.16931286 -0.071290545 -0.012166159 -0.11680326
-0.1584575 0.026841415 -0.018790228 -0.22790009 -0.19834296 -0.02836551 -0.10326237 -0.16959421
-0.18479703 0.089920886 -0.054752313 -0.0014120176 -0.023243612 -0.008981064 -0.19125825 -0.08543928
-0.2110004 -0.05443908 -0.06248544 -0.051797252 -0.09757585 -0.09121936 -0.024556244 0.003215367
-0.23172103 0.04702192 -0.16549586 -0.23198324 -0.18818311 -0.084994234 -0.14033842 -0.0009514381
0.010966168 -0.025928933 -0.21301961 -0.14043218 -0.0781662 -0.044076324 -0.22600381 -0.18089618
-0.07528238 -0.045571174 -0.04084251 -0.16906764 -0.22375545 -0.026734723 -0.0888712 -0.062420942
-0.07540838 -0.14162834 -0.072000705 0.0001770404 -0.16824274 -0.05676879 -0.21030585 -0.14092919
-0.31862843 -0.07838187 -0.113385655 -0.23209244 -0.22609945 -0.04164853 -0.23533733 -0.10881133
-0.083676204 -0.026414033 -0.14704235 -0.14649196 -0.3155435 -0.069109015 -0.14992894 -0.062699676
-0.3208291 -0.14159094 -0.09062108 -0.2677735 -0.12700193 -0.21070907 -0.060168825 -0.10104527
-0.11562804 -0.028790738 -0.18582383 -0.17024827 -0.21756956 -0.03279878 -0.2633225 -0.23669063
-0.2875985 -0.108773984 -0.14063275 -0.21252982 -0.16855206 -0.27664778 -0.19399776 -0.28310993
-0.086743005 -0.032668307 -0.046092935 -0.18443905 -0.09554128 -0.0730113 -0.207748 -0.18709363
-0.101848274 -0.05854767 -0.060385156 -0.1254999 -0.06447435 -0.22151771 -0.22773992 -0.2671384
0.21074136 0.24136584 0.20670202 0.1363632 0.098934285 0.27747828 0.2608545 0.15533541
0.18741858 0.2725968 0.23465082 0.24680403 0.108790055 0.047159195 0.20252246 0.05608357
00000000: 372a 713d 7a29 b63d 0002 fa3d 08a1 473e
00000010: b9d2 7c3e 8a21 823d a875 d33d cdb4 103e
00000020: 3a67 8b3e e4de 2e3e 9bd7 2a3e 17e7 a73d
00000030: 52ba 6a3e 1f25 8ebd b05f d03d aab6 613e
00000040: 8197 6a3e 56a7 83bd ea40 aa3d b86e 753d
00000050: 3909 953d 1bcf f4bc 7a0d 8d3e 0c3f 653e
00000060: 2d6c 6d3e 6e89 8abd e4d0 7e3d 25de 243d
00000070: 9a23 d53d c3d7 0f3c 3359 8b3e 97c0 083d
00000080: c63a 2f3e 24db 5dbd e85b 343e 110a 023e
00000090: a085 a63d 4f78 8a3b c35e 703e cc03 bc3d
000000a0: f619 d93c 9eee ecbb fd36 483d d4ff b33d
000000b0: 7b8b 133e 6660 de3c a5d4 ca3c ee9d 8c3d
000000c0: 65d6 083d 2dfa 09bd 99c0 603d 9950 cd3d
000000d0: 30d5 6a3e 037d 8c3d 8442 4b3e 8a7b 7d3e
000000e0: a00e 573e f66c d13c 7163 493d 0fd6 8b3e
000000f0: 08d0 243e 5a7a b13d 0eee 483e e682 f93d
00000100: 4968 083e 9b68 e93d 3c78 153b 2ce3 b5bc
00000110: 5d7d ed3d bb3d 723e 5d17 6b3d de04 9c3d
00000120: a352 c43d b823 ca3d 9e98 eabc be45 363e
00000130: e000 37bd 1234 4e3c 81aa 073e c0f7 11bd
00000140: 4ee0 cf3d 2027 1a3e 18a8 eb3c 0d36 243d
00000150: 42b3 84bc ef2e 193e ee5e 44bd cdf9 303e
00000160: f36b 203e 96c8 7b3e 77e4 02bd a2d9 bc3d
00000170: 27f2 9a3d b784 783e ed67 b4bb 4aa3 053e
00000180: 29a0 3f3d 5eed 2b3e 3298 f03c 31ac da3d
00000190: e4d9 6d3c 532a 683e e699 c83c 53a7 353e
000001a0: a071 b03d dd66 193e c667 863c be9e 7dbc
000001b0: 04b7 063e 3e57 553e 3a63 e93d f60e a33d
000001c0: 5637 243d 7deb 523e 3351 683c eae7 0c3e
000001d0: 011c 9c3d 0c02 b93c d08d 983d 4b98 87bd
000001e0: c0ba 09be 1459 e5bc e8bf 80be 1621 69bd
000001f0: 5a60 2dbe c700 92bd 9254 47bc 8c36 efbd
00000200: af42 22be 87e2 db3c f7ed 99bc a45e 69be
00000210: 6b1a 4bbe c95e e8bc 397b d3bd 1baa 2dbe
00000220: 6f3b 3dbe 7128 b83d f643 60bd 7313 b9ba
00000230: 6369 bebc 5025 13bc 34d9 43be cafa aebd
00000240: 7d10 58be 83fb 5ebd bcf0 7fbd 5b29 54bd
00000250: d9d5 c7bd 37d1 babd 2d2a c9bc e8b8 523b
00000260: 4748 6dbe 0f9a 403d bf77 29be 048d 6dbe
00000270: 13b3 40be 7511 aebd e0b4 0fbe ee69 79ba
00000280: 71ab 333c ea68 d4bc d021 5abe 74cd 0fbe
00000290: 9a15 a0bd 6089 34bd 8b6d 67be d93c 39be
000002a0: a62d 9abd d7a8 3abd 7a4a 27bd 1120 2dbe
000002b0: 2620 65be c702 dbbc 1b02 b6bd 1aad 7fbd
000002c0: b56f 9abd 0507 11be 1b75 93bd eca3 3939
000002d0: d347 2cbe 6486 68bd 6b5a 57be be4f 10be
000002e0: 4423 a3be ad86 a0bd bd36 e8bd a4a9 6dbe
000002f0: 9d86 67be a697 2abd 45fc 70be 79d8 debd
00000300: 6e5e abbd 3e62 d8bc 4592 16be fd01 16be
00000310: eb8e a1be 0789 8dbd f986 19be b068 80bd
00000320: b643 a4be 37fd 10be 8b97 b9bd 9c19 89be
00000330: cb0c 02be 1ec4 57be 9673 76bd d3f0 cebd
00000340: 65ce ecbd 8eda ebbc 9a48 3ebe 9055 2ebe
00000350: 8eca 5ebe 0358 06bd 35d2 86be 075f 72be
00000360: 1c40 93be e5c4 debd 0802 10be 6ba1 59be
00000370: e998 2cbe c7a4 8dbe 59a7 46be c9f3 90be
00000380: 51a6 b1bd 34cf 05bd f2cb 3cbd 97dd 3cbe
00000390: 26ab c3bd f386 95bd e4bb 54be 7995 3fbe
000003a0: d495 d0bd aecf 6fbd 6d56 77bd 0c83 00be
000003b0: 210b 84bd 8ad5 62be a734 69be 5dc6 88be
000003c0: 95cc 573e 9b28 773e b2a9 533e cba2 0b3e
000003d0: 0f9e ca3d a211 8e3e b98e 853e 3f10 1f3e
000003e0: a8ea 3f3e cf91 8b3e 4e48 703e 32ba 7c3e
000003f0: 52cd de3d 002a 413d 0c62 4f3e e3b7 653d

bias f4 [64]
-0.032902773 -0.011276457 0.07692161 0.25876418 -0.08786393 -0.29223993 -0.3858065 0.14684848
0.2426454 -0.35916176 0.43591347 -0.221747 -0.03144907 -0.08246898 0.38068077 -0.16624321
0.07939863 0.17873827 -0.113033794 -0.27132955 -0.24407437 -0.42379302 -0.17195185 0.029991629
-0.18307166 -0.2077007 -0.074049756 0.1866952 -0.017900629 0.092580654 0.09627426 0.112354055
0.21765219 0.25193515 0.16367434 0.28087097 0.023118855 -0.039161272 0.31256908 0.3205449
0.42375225 0.31542146 -0.17082697 -0.02896467 0.02235576 -0.05260934 0.015195459 0.00884676
-0.024455199 0.21889289 0.05753962 -0.34976292 0.05997027 0.015587987 -0.022124961 -0.15306352
-0.12725973 0.26510972 -0.253074 -0.030302484 0.15173236 -0.222864 0.23730662 0.0011944972
00000000: 0fc5 06bd e4c0 38bc 1489 9d3d bd7c 843e
00000010: 01f2 b3bd 79a0 95be 6e88 c5be 735f 163e
00000020: 0978 783e 0de4 b7be 0d30 df3e a511 63be
00000030: bdd0 00bd 7fe5 a8bd 97e8 c23e a93b 2abe
00000040: c09b a23d 2a07 373e 437e e7bd b5eb 8abe
00000050: a2ee 79be 66fb d8be 2514 30be 01b1 f53c
00000060: 2377 3bbe 7eaf 54be 66a7 97bd 072d 3f3e
00000070: 57a4 92bc ed9a bd3d 702b c53d e219 e63d
00000080: 37e0 5e3e a5fd 803e 3f9a 273e 52ce 8f3e
00000090: c163 bd3c 9267 20bd 0e09 a03e 761e a43e
000000a0: 0ef6 d83e ec7e a13e 44ed 2ebe 5147 edbc
000000b0: 6d23 b73c e47c 57bd 60f6 783c 00f2 103c
000000c0: 4556 c8bc 7525 603e aaae 6b3d 2014 b3be
000000d0: 63a3 753d c264 7f3c 683f b5bc afbc 1cbe
000000e0: 6050 02be 76bc 873e ea92 81be ea3c f8bc
000000f0: ba5f 1b3e 7636 64be 8200 733e ad90 9c3a

weight f4 [32, 64]
-0.084947616 0.007022189 0.020046718 0.13065279 -0.044091556 0.27483636 0.23062412 0.048608627
-0.12796222 0.3264634 -0.3104569 0.04395566 -0.06925339 0.048432346 -0.0088041155 -0.11607617
-0.19104505 0.18660448 -0.08825296 -0.18437353 0.08618107 0.23670188 0.220758 0.0718266
-0.13119397 0.24028419 0.20201367 -0.08214818 0.0040998133 0.16594447 -0.10256718 -0.056069113
0.15445335 -0.31440926 -0.1974677 -0.044162527 -0.11048983 -0.09895518 -0.24141978 -0.23463859
-0.14336804 -0.14218797 -0.0588904 0.044929225 -0.0473963 0.24766907 0.1483017 0.08743357
0.0033043604 -0.00052485487 0.1507261 0.0876246 -0.078309104 -0.25174093 -0.0040173386 0.17869551
-0.0610269 -0.3613597 0.23765194 0.060642544 0.12826717 -0.0020377487 -0.06118507 -0.088901564
0.068149395 0.059580453 -0.22183906 -0.15983562 0.07103517 -0.25380468 -0.12148595 -0.12818907
0.385274 -0.33206394 0.41688794 0.013420152 0.13326044 0.05505141 0.1335848 0.07604295
0.22479232 -0.16831143 0.0020556394 0.046533495 -0.024136562 -0.32628506 -0.052554764 0.026459053
-0.068532765 -0.104199305 -0.13359079 -0.0854772 0.124839 -0.10613913 -0.031502027 0.08939114
-0.10360413 0.29805696 0.20920447 0.16488504 0.1342725 0.16281208 0.15044576 -0.007926518
0.17673215 0.18614404 -0.023894096 0.03931186 -0.14809537 -0.113538764 -0.13523147 -0.14569086
-0.23103006 -0.12923244 -0.13575408 0.028111242 -0.024653006 0.29062775 -0.0057960534 -0.27217042
0.10484533 0.32371515 -0.095028035 -0.10009847 0.016090658 0.105334856 0.18374282 0.1029038
0.059259467 0.15377778 -0.010317431 -0.15928555 0.31215993 0.18816242 0.19808485 -0.011314616
-0.08975414 0.13258113 -0.08307005 0.3092462 0.10500236 0.105031624 -0.102437556 0.14172015
-0.07468273 -0.16278072 0.09396574 0.15983991 0.2050304 -0.024735305 0.21354419 0.024192585
0.059050526 0.05273509 0.048717488 -0.2603584 0.2260353 -0.12620552 -0.15738411 -0.26776862
-0.15846369 -0.102809116 -0.10665655 -0.10264175 0.114512004 0.11893378 -0.191787 -0.14837047
-0.09106026 -0.15697253 -0.024517728 -0.22248738 -0.13435546 -0.03381615 -0.24550395 -0.08275521
-0.14792341 0.011000428 -0.25459927 0.13531645 0.048664384 -0.016818348 -0.017823974 0.088559546
0.102409765 -0.11709353 0.24559212 -0.022778342 -0.05840457 0.21135771 -0.18840645 0.20429479
0.13276094 0.09191033 0.022792164 -0.03550174 0.1070811 0.06712671 -0.00011583563 0.059766177
-0.15748768 0.18434133 -0.062177602 0.21936902 0.107373685 0.18499832 0.039080925 0.102776445
-0.07898567 -0.007635206 0.051208626 0.2247792 0.19486392 0.027522981 0.075728424 -0.073705606
0.2014068 -0.008067679 -0.018559719 -0.05287234 0.1588853 -0.13589728 -0.25131848 -0.26713157
-0.06964487 -0.13480636 -0.035639822 0.03337715 0.23158225 0.0764234 -0.09910947 -0.09263455
-0.05530244 -0.09294737 0.044106893 -0.25581622 -0.18606351 0.084561594 -0.19131601 -0.20416768
-0.14951342 -0.06001059 -0.08887511 0.04349738 0.17840184 -0.12183741 0.23726828 -0.039646745
0.14782594 -0.052636333 0.026876772 -0.11623824 0.011376836 0.09176851 0.015136868 0.14139771
00000000: 04f9 adbd 641a e63b 0439 a43c d8c9 053e
00000010: 5999 34bd 5ab7 8c3e bb28 6c3e d719 473d
00000020: 8708 03be 3626 a73e 35f4 9ebe da0a 343d
00000030: b9d4 8dbd ff60 463d 233f 10bc 58b9 edbd
00000040: 50a1 43be 3f15 3f3e f8bd b4bd 6acc 3cbe
00000050: b37f b03d fa61 723e 630e 623e d319 933d
00000060: b657 06be 0f0d 763e acdc 4e3e 4e3d a8bd
00000070: ba57 863b 59ed 293e be0e d2bd baa8 65bd
00000080: 0529 1e3e 40fa a0be f934 4abe c4e3 34bd
00000090: 7e48 e2bd 03a9 cabd bf36 77be 1945 70be
000000a0: 12cf 12be b999 11be 0f37 71bd b507 383d
000000b0: 9f22 42bd f69c 7d3e 67dc 173e 5f10 b33d
000000c0: f88d 583b 6a96 09ba f157 1a3e 8774 b33d
000000d0: 8660 a0bd 30e4 80be e1a3 83bb f5fb 363e
000000e0: 58f7 79bd 2304 b9be 085b 733e 5164 783d
000000f0: 7858 033e c08b 05bb 329d 7abd 0612 b6bd
00000100: e991 8b3d a20a 743d c729 63be f3ab 23be
00000110: e37a 913d b0f2 81be a0cd f8bd ff43 03be
00000120: a242 c53e 4904 aabe 5672 d53e 32e0 5b3c
00000130: 6d75 083e 967d 613d 74ca 083e 68bc 9b3d
00000140: f52f 663e d559 2cbe e8b7 063b e899 3e3d
00000150: 0aba c5bc d60e a7be aa43 57bd a8c0 d83c
00000160: e85a 8cbd 7266 d5bd 06cc 08be ac0e afbd
00000170: 97ab ff3d 795f d9bd 4508 01bd b412 b73d
00000180: 672e d4bd ec9a 983e b239 563e a0d7 283e
00000190: bb7e 093e 36b8 263e 740e 1a3e 3ade 01bc
000001a0: 46f9 343e 8b9c 3e3e 8dbd c3bc 7905 213d
000001b0: 50a6 17be 0387 e8bd 1e7a 0abe fc2f 15be
000001c0: 2593 6cbe 8255 04be 1e03 0bbe 8c49 e63c
000001d0: 1af5 c9bc 29cd 943e d2ec bdbb ec59 8bbe
000001e0: 26b9 d63d febd a53e 0f9e c2bd 6d00 cdbd
000001f0: 8ed0 833c cdb9 d73d 1427 3c3e 3abf d23d
00000200: 0eba 723d ec77 1d3e 710a 29bc c01b 23be
00000210: 6dd3 9f3e a6ad 403e c1d6 4a3e f060 39bc
00000220: 05d1 b7bd 59c3 073e a120 aabd 8555 9e3e
00000230: 7a0b d73d d21a d73d c8ca d1bd 161f 113e
00000240: 42f3 98bd fdaf 26be 1c71 c03d 13ad 233e
00000250: 7df3 513e b2a1 cabc 54ab 5a3e 872f c63c
00000260: f7de 713d c000 583d fd8b 473d b24d 85be
00000270: cc75 673e 053c 01be 4d29 21be f818 89be
00000280: 4e44 22be 968d d2bd c06e dabd d635 d2bd
00000290: 4585 ea3d 8e93 f33d d063 44be 6eee 17be
000002a0: cd7d babd 68bd 20be 67d9 c8bc bbd3 63be
000002b0: 7a94 09be ce82 0abd 6365 7bbe 907b a9bd
000002c0: 3c79 17be 243b 343c d65a 82be 6590 0a3e
000002d0: 4e54 473d a2c6 89bc 9503 92bc b55e b53d
000002e0: 36bc d13d bcce efbd 807c 7b3e a599 babc
000002f0: a139 6fbd 286e 583e 9fed 40be a732 513e
00000300: 7cf2 073e 7c3b bc3d a2b6 ba3c 466a 11bd
00000310: 564d db3d bb79 893d c8ec f2b8 61cd 743d
00000320: 7344 21be f9c3 3c3e f1ad 7ebd 46a2 603e
00000330: bce6 db3d 3370 3d3e 5213 203d 757c d23d
00000340: 3dc3 a1bd c030 fabb 23c0 513d 852c 663e
00000350: 688a 473e e077 e13c 8117 9b3d f7f2 96bd
00000360: 963d 4e3e 4c2e 04bc 8d0a 98bc ab90 58bd
00000370: d4b2 223e a828 0bbe d1ac 80be 78c5 88be
00000380: f8a1 8ebd ae0a 0abe 10fb 11bd 7ab6 083d
00000390: e623 6d3e df83 9c3d e8f9 cabd 2fb7 bdbd
000003a0: d084 62bd 315b bebd 6ea9 343d 58fa 82be
000003b0: 6f87 3ebe a12e ad3d 58e8 43be 5511 51be
000003c0: 0c1a 19be aacd 75bd 2704 b6bd 4f2a 323d
000003d0: f9ae 363e e485 f9bd 75f6 723e a064 22bd
000003e0: af5f 173e 3299 57bd ad2c dc3c 500e eebd
000003f0: e965 3a3c 21f1 bb3d a000 783c 90ca 103e

bias f4 [32]
-0.24386452 0.25461358 0.025979599 0.18542278 0.02713027 -0.12982185 -0.05302312 -0.25186855
-0.19179375 -0.021003673 0.0015551656 0.25684243 0.039322548 0.2912262 -0.093960136 0.103846505
-0.10465968 -0.01033452 0.28220043 0.012397216 -0.15343627 -0.07158036 0.238144 0.087362066
-0.059137426 0.052927375 -0.116528615 -0.19073036 -0.18565236 0.09870642 -0.27088854 -0.12847789
00000000: 9fb7 79be b65c 823e 2bd3 d43c 78df 3d3e
00000010: 4d40 de3c 05f0 04be c52e 59bd eaf4 80be
00000020: 9565 44be e50f acbc b3d6 cb3a da80 833e
00000030: ae10 213d 9a1b 953e 2c6e c0bd 7aad d43d
00000040: d057 d6bd 1e52 29bc 937c 903e b11d 4b3c
00000050: 661e 1dbe b998 92bd 05dc 733e e2ea b23d
00000060: 163a 72bd 60ca 583d 8ea6 eebd d24e 43be
00000070: a71b 3ebe 9726 ca3d e7b1 8abe b58f 03be

weight f4 [8, 32]
0.16918108 -0.37287596 -0.074333094 0.08810528 -0.29042697 0.08570826 -0.058320828 0.21435224
-0.16786435 -0.017440392 0.17625995 -0.0040837126 0.3292073 -0.054184306 -0.021451235 -0.016431114
-0.2813449 0.24064186 -0.29006514 0.0882147 0.048462328 0.018940687 -0.06980008 -0.076968014
-0.024857324 -0.017800959 0.037995048 0.0936126 -0.1563535 -0.027023043 0.31884602 -0.13760005
0.09220063 -0.16304228 0.16230564 0.15177236 -0.02702627 0.13448086 0.045483187 0.19540818
-0.10957185 -0.07035594 -0.02761477 -0.0611416 0.07812655 0.020686476 0.11262504 0.056067187
-0.17915218 0.12688906 -0.1257899 0.111525655 0.070919044 0.18925038 -0.15699017 -0.23518223
0.009531412 0.01665525 0.12665562 0.08667403 -0.19712237 -0.1320997 0.09086974 -0.26149598
0.31525806 -0.5201612 0.16219038 0.102634676 -0.16529754 -0.15470013 0.015549068 0.35647002
-0.29993066 -0.19394982 0.15747878 -0.08215155 0.28119212 -0.08482052 -0.22912665 -0.007850701
-0.21327436 0.1987361 -0.36061257 0.17752828 -0.13635942 -0.021608805 -0.12165062 -0.1858505
-0.011569062 -0.06882227 0.030421412 0.47357762 -0.07316212 -0.27511048 0.3464086 -0.14270765
-0.13160229 0.14045377 0.038814854 0.13320613 0.28044143 -0.100780636 -0.04404627 -0.11323502
-0.06518792 0.12459844 0.12643524 -0.086134344 -0.0041559474 0.06808735 -0.020453457 0.0058908276
-0.037329867 -0.35308692 0.10213798 -0.027679846 0.07263882 0.16122639 -0.15995362 0.054626144
-0.17980601 -0.0385147 -0.09508711 -0.08845439 0.006744699 0.13362134 -0.0055090543 0.044377815
-0.083354816 0.20780574 0.11425229 -0.18532728 0.035106637 0.0022489387 0.0014474681 -0.16435172
0.016084202 0.038075563 -0.15108815 0.057362083 0.019248 0.05985198 0.07683874 0.17742993
0.06129961 0.083508596 0.20319366 0.010740852 -0.01861488 -0.19070126 0.096429944 -0.06825745
-0.0030516668 0.18801472 0.06298558 -0.14112884 0.068640135 0.2251467 -0.091816224 0.06018183
0.12756783 -0.26580286 0.1523356 0.11182377 -0.13375784 0.1738433 -0.18686987 0.068706304
0.06080649 -0.21055563 -0.18228237 -0.0547334 0.1892887 -0.14170498 0.1987677 0.31287578
-0.07169671 0.0072831097 -0.16078584 0.0010288067 -0.118539885 0.13991515 -0.13947798 0.15254924
0.18188888 0.11779154 0.12354634 0.21751551 -0.016244024 -0.14446805 0.15788314 -0.07767132
0.40385234 -0.32579836 0.013410745 -0.12872826 -0.26313505 -0.00885476 -0.111711636 0.29034406
0.046274938 -0.20343474 -0.035474107 -0.05249853 0.12318975 -0.109829545 -0.1395162 0.030886652
0.047576908 0.22300684 -0.28390816 -0.16095994 -0.16922796 0.1580739 -0.15044743 -0.1793471
0.016182175 0.08864454 0.17700703 0.35305783 0.11016603 -0.125724 0.1010123 -0.14574255
0.06838685 0.092205144 -0.23193978 -0.2317335 0.16645469 -0.23741555 0.15238222 0.10343514
0.24434836 0.14626569 0.10264486 0.015822576 -0.15367529 0.06733085 -0.29375336 -0.4020344
0.22985366 -0.18501264 0.13807248 -0.32435519 0.15852459 -0.07431934 0.31229895 0.08290021
-0.26193956 -0.21514389 -0.12299152 -0.0048360983 0.1813604 0.34333605 -0.15626311 0.21915919
00000000: ce3d 2d3e 99e9 bebe f33b 98bd 8b70 b43d
00000010: d8b2 94be d087 af3d d2e1 6ebd 277f 5b3e
00000020: a2e4 2bbe 27df 8ebc 7d7d 343e aad0 85bb
00000030: dc8d a83e 5df0 5dbd 80ba afbc 8b9a 86bc
00000040: 700c 90be d26a 763e 6b83 94be e9a9 b43d
00000050: 6f80 463d 8029 9b3c 58f3 8ebd 68a1 9dbd
00000060: 96a1 cbbc 51d3 91bc b2a0 1b3d f6b7 bf3d
00000070: 221b 20be 6e5f ddbc c93f a33e 07e7 0cbe
00000080: afd3 bc3d 8ef4 26be 7333 263e 376a 1b3e
00000090: 3266 ddbc 5ab5 093e 944c 3a3d 1519 483e
000000a0: 3567 e0bd c616 90bd 5f38 e2bc 9d6f 7abd
000000b0: d000 a03d af76 a93c f5a7 e63d b5a6 653d
000000c0: ab73 37be 35ef 013e 11cf 00be 9067 e43d
000000d0: 013e 913d daca 413e 08c2 20be 9cd3 70be
000000e0: a429 1c3c 9770 883c 03b2 013e 2782 b13d
000000f0: 72da 49be 2545 07be ea19 ba3d cde2 85be
00000100: 8169 a13e 4929 05bf 3c15 263e 2132 d23d
00000110: c243 29be b669 1ebe 85c1 7e3c 3d83 b63e
00000120: 8390 99be c89a 46be 1e42 213e 123f a8bd
00000130: 6af8 8f3e 61b6 adbd 2da0 6abe 3aa0 00bc
00000140: 9864 5abe 7a81 4b3e 36a2 b8be f9c9 353e
00000150: cea1 0bbe f304 b1bc f623 f9bd 984f 3ebe
00000160: 2a8c 3dbc b1f2 8cbd 5336 f93c c478 f23e
00000170: 06d6 95bd 48db 8cbe 785c b13e f421 12be
00000180: c0c2 06be 1dd3 0f3e 53fc 1e3d 3067 083e
00000190: 0596 8f3e 1466 cebd dd69 34bd c3e7 e7bd
000001a0: 3f81 85bd 782d ff3d 3d78 013e 3467 b0bd
000001b0: 9d2e 88bb 6171 8b3d 028e a7bc d807 c13b
000001c0: 34e7 18bd cfc7 b4be b82d d13d d8c0 e2bc
000001d0: a9c3 943d 8818 253e e2ca 23be aabf 5f3d
000001e0: 111f 38be 97c1 1dbd 08bd c2bd 9327 b5bd
000001f0: a302 dd3b 08d4 083e 4c85 b4bb 83c5 353d
00000200: eeb5 aabd 07cb 543e 1bfd e93d 6fc6 3dbe
00000210: facb 0f3d ee62 133b f8b8 bd3a d14b 28be
00000220: 04c3 833c 1ff5 1b3d dab6 1abe 81f4 6a3d
00000230: fbad 9d3c 5a27 753d a15d 9d3d 31b0 353e
00000240: 4d15 7b3d 8e06 ab3d 0012 503e 66fa 2f3c
00000250: 3c7e 98bc 3147 43be 107d c53d 90ca 8bbd
00000260: 79fe 47bb ee86 403e 95fe 803d 1484 10be
00000270: 3393 8c3d db8c 663e 250a bcbd 3981 763d
00000280: 24a1 023e 5017 88be ddfd 1b3e dc03 e53d
00000290: d1f7 08be fa03 323e d15a 3fbe e4b5 8c3d
000002a0: 3a10 793d e59b 57be 3ba8 3abe 2130 60bd
000002b0: e6d4 413e 1c1b 11be c389 4b3e 4131 a03e
000002c0: bad5 92bd 27a7 ee3b 0ba5 24be 06d9 863a
000002d0: 0ac5 f2bd eb45 0f3e 51d3 0ebe de35 1c3e
000002e0: 1441 3a3e b13c f13d dd05 fd3d 63bc 5e3e
000002f0: 3012 85bc 6fef 13be 1eac 213e 2412 9fbd
00000300: bcc5 ce3e 0bcf a6be beb8 5b3c 57d1 03be
00000310: a3b9 86be 8e13 11bc 12c9 e4bd faa7 943e
00000320: ca8a 3d3d 3251 50be 4c4d 11bd b308 57bd
00000330: e84a fc3d 50ee e0bd 56dd 0ebe 0106 fd3c
00000340: 01e0 423d e85b 643e 695c 91be afd2 24be
00000350: 184a 2dbe 20de 213e e40e 1abe c4a6 37be
00000360: 7b90 843c 458b b53d 5541 353e ffc3 b43e
00000370: ba9e e13d cbbd 00be 89df ce3d 893d 15be
00000380: 680e 8c3d 0dd6 bc3d 9f81 6dbe 8c4b 6dbe
00000390: 1973 2a3e 101d 73be 160a 1c3e cdd5 d33d
000003a0: 7536 7a3e acc6 153e 7837 d23d 599e 813c
000003b0: 0e5d 1dbe c2e4 893d d766 96be 74d7 cdbe
000003c0: c25e 6b3e f473 3dbe df62 0d3e e211 a6be
000003d0: 4554 223e bd34 98bd a6e5 9f3e 96c7 a93d
000003e0: f11c 86be ae4e 5cbe fae2 fbbd 2278 9ebb
000003f0: 8ab6 393e bec9 af3e 7003 20be 446b 603e

bias f4 [8]
-0.11487269 -0.16617927 0.049391344 0.18771501 0.13377872 -0.0040020053 -0.016548075 0.2177015
00000000: 5f42 ebbd e62a 2abe 944e 4a3d 5d38 403e
00000010: 4afd 083e 4123 83bb d48f 87bc 24ed 5e3e

weight f4 [32, 16]
0.22195666 0.21944423 0.10931678 0.22842334 0.07660488 -0.2929548 0.11422203 -0.07726664
-0.107967116 -0.05062703 -0.098448195 -0.085501 -0.26098773 0.119847216 0.12946458 0.04495517
0.05645054 -0.15615948 0.018331055 0.12653635 0.23976207 -0.017612036 -0.14832057 0.13551885
-0.20574431 -0.087918006 0.05524575 0.0680186 0.08024278 -0.17021166 -0.41821322 -0.05120299
-0.116337694 0.25097874 0.09297879 -0.1372471 0.32957625 -0.124037236 -0.07067451 -0.058790542
0.22176464 -0.12098377 0.3388114 -0.07252487 0.11094194 0.27071092 0.37454364 -0.05309486
0.1316267 0.0637934 0.19309895 -0.2568212 -0.011788407 -0.14632076 0.10225746 -0.108047016
0.07530571 -0.11259582 0.3052808 -0.18947613 -0.11611611 0.3932543 0.17710365 -0.3135923
0.25257894 0.01702919 -0.30994242 -0.12198059 -0.24309403 0.28490984 -0.23888579 0.037060507
0.09691853 0.08359876 0.046446934 -0.27290496 0.10306327 0.11988647 0.3801024 -0.28496882
-0.05795562 -0.2228732 -0.2547921 0.06297701 -0.29565436 0.078778334 -0.19044128 0.44967103
0.13442612 0.0063986154 0.038647454 0.38679737 -0.1906137 0.0507256 -0.053920813 0.08317399
0.033922493 -0.30926687 -0.14453745 -0.27284193 -0.48093662 0.20456485 -0.23163258 -0.096354306
-0.22712795 -0.16236366 0.008995434 -0.0856389 0.13668524 0.018488213 0.08037925 -0.072102726
-0.074775204 0.0027102425 0.0957622 0.012905144 0.12616608 0.1841032 -0.20774484 -0.36142516
-0.26121488 -0.1753966 0.02019643 0.07000611 0.1631119 -0.055083424 0.13517553 0.31049255
-0.11326029 -0.027394518 0.23685244 -0.20075887 -0.25735444 0.04430131 0.1323641 -0.40531784
-0.051429458 0.39624423 0.040559407 0.09960595 0.021199564 0.26200625 0.26270378 -0.17076492
0.22872746 -0.041951854 0.3602712 -0.0056511676 -0.08384248 -0.20060979 0.049456004 -0.1284638
-0.04400241 -0.33481112 -0.27038005 0.015870998 0.19240633 -0.13174623 -0.18930322 0.2326854
0.025628135 -0.11648969 0.20655799 0.12880175 -0.10198209 0.05550876 0.2091569 0.37517288
-0.0021166913 -0.12337123 -0.27560613 0.09202142 0.32009837 -0.1586084 -0.13386518 0.12744495
-0.0872332 -0.11946029 -0.0868039 0.17967618 0.12764084 0.11310394 0.18769969 0.05140992
-0.16261803 0.033483252 -0.179889 0.26258168 -0.07506055 -0.27996328 -0.059608664 0.25389934
0.32330292 0.32925245 0.0039122417 0.07330242 0.38525936 -0.1919886 0.3985517 0.104490556
-0.05618016 0.0113322325 -0.025301911 0.2546514 0.3434082 0.15041377 -0.143117 0.020451117
-0.26720563 0.21578646 -0.06028224 0.34516793 0.031383425 -0.03979907 0.11073317 0.1484128
-0.09781971 0.3305361 0.033761725 -0.18776076 -0.04931375 -0.056483045 0.14923303 -0.38756597
0.28547093 0.028620977 0.11800306 0.033872694 0.0713182 0.16985692 0.075427786 0.32806003
-0.37919548 -0.10473497 -0.33887756 0.010338271 0.37823245 -0.114936866 0.008896717 0.0843241
-0.123462714 -0.2681687 -0.1941002 -0.0061651026 -0.49703446 -0.17504801 -0.38563874 0.30748895
0.14304854 -0.23727947 -0.18740965 0.034861427 -0.024964638 0.33180702 0.044262055 -0.044232503
00000000: 9b48 633e fdb5 603e 7ae1 df3d cfe7 693e
00000010: 05e3 9c3d 2cfe 95be 3ded e93d f93d 9ebd
00000020: dd1d ddbd 4a5e 4fbd 359f c9bd 261b afbd
00000030: 2fa0 85be 7572 f53d 5d92 043e ea22 383d
00000040: ae38 673d 45e8 1fbe 022b 963c bf92 013e
00000050: 3084 753e 1e47 90bc 59e1 17be 74c5 0a3e
00000060: a3ae 52be 5b0e b4bd 5e49 623d 564d 8b3d
00000070: 5456 a43d f74b 2ebe 0b20 d6be 3aba 51bd
00000080: 7542 eebd 4980 803e aa6b be3d 818a 0cbe
00000090: 38be a83e 3c07 febd ccbd 90bd 5ace 70bd
000000a0: 4516 633e 57c6 f7bd b078 ad3e eb87 94bd
000000b0: 8735 e33d 9f9a 8a3e 2fc4 bf3e ff79 59bd
000000c0: 26c9 063e 1da6 823d bbbb 453e 117e 83be
000000d0: 2a24 41bc 1cd5 15be 5c6c d13d c147 ddbd
000000e0: e139 9a3d a398 e6bd c44d 9c3e 0806 42be
000000f0: 48ce edbd a158 c93e a95a 353e 2c8f a0be
00000100: 0752 813e cd80 8b3c c6b0 9ebe f6d0 f9bd
00000110: a4ed 78be b4df 913e 7a9e 74be c2cc 173d
00000120: 397d c63d d435 ab3d 243f 3e3d 33ba 8bbe
00000130: d612 d33d 0a87 f53d c89c c23e 6fe7 91be
00000140: df62 6dbd df38 64be 1c74 82be 17fa 803d
00000150: 0260 97be 8956 a13d 0a03 43be 483b e63e
00000160: 00a7 093e 7aab d13b cb4c 1e3d 4e0a c63e
00000170: 3d30 43be a6c5 4f3d 12dc 5cbd 2057 aa3d
00000180: 50f2 0a3d 3a58 9ebe a001 14be f0b1 8bbe
00000190: 533d f6be 7379 513e 1731 6dbe 6855 c5bd
000001a0: 3b94 68be a942 26be 9661 133c 7363 afbd
000001b0: 37f7 0b3e 9874 973c e09d a43d 98aa 93bd
000001c0: be23 99bd 539e 313b f91e c43d 1970 533c
000001d0: ae31 013e 8d85 3c3e 10bb 54be b80c b9be
000001e0: f5bd 85be 2b9b 33be fc72 a53c 5d5f 8f3d
000001f0: ce06 273e 289f 61bd 746b 0a3e e1f8 9e3e
00000200: 03f5 e7bd 786a e0bc 7289 723e bc93 4dbe
00000210: f6c3 83be 4a75 353d 748a 073e d285 cfbe
00000220: b2a7 52bd 86e0 ca3e 9f21 263d 34fe cb3d
00000230: b5aa ad3c af25 863e 1c81 863e 00dd 2ebe
00000240: 8837 6a3e b5d5 2bbd 7775 b83e 6e2d b9bb
00000250: 9bb5 abbd a76c 4dbe 6192 4a3d 048c 03be
00000260: df3b 34bd 5d6c abbe 416f 8abe e503 823c
00000270: 2a06 453e 7ce8 06be b4d8 41be 1545 6e3e
00000280: 18f2 d13c 2692 eebd f083 533e 9be4 033e
00000290: fcdb d0bd 275d 633d 3a2d 563e a916 c03e
000002a0: 30b8 0abb 0eaa fcbd 3f1c 8dbe ba75 bc3d
000002b0: efe3 a33e 3e6a 22be f413 09be ee80 023e
000002c0: 52a7 b2bd 99a7 f4bd 3ec6 b1bd 08fd 373e
000002d0: 48b4 023e 0aa3 e73d 5934 403e 3593 523d
000002e0: 5785 26be bc25 093d d234 38be 1b71 863e
000002f0: 58b9 99bd 5957 8fbe 3728 74bd 18ff 813e
00000300: f687 a53e c793 a83e 4332 803b 941f 963d
00000310: b740 c53e a998 44be f80e cc3e 25ff d53d
00000320: 2b1d 66bd d4aa 393c f445 cfbc ab61 823e
00000330: 33d3 af3e 1106 1a3e 438d 12be 1a89 a73c
00000340: 2dcf 88be 20f7 5c3e 83ea 76bd dab9 b03e
00000350: e88b 003d 5a04 23bd 12c8 e23d 86f9 173e
00000360: b355 c8bd 073c a93e bc49 0a3d 5b44 40be
00000370: 37fd 49bd c45a 67bd 8bd0 183e 0c6f c6be
00000380: 3f29 923e 8a76 ea3c 97ab f13d 18be 0a3d
00000390: 470f 923d f9ee 2d3e e279 9a3d 7cf7 a73e
000003a0: e925 c2be 4a7f d6bd 5c81 adbe da61 293c
000003b0: afa7 c13e 0564 ebbd 89c3 113c 1db2 ac3d
000003c0: 05da fcbd 684d 89be 34c2 46be a104 cabb
000003d0: 4d7b febe c93f 33be 7172 c5be 316f 9d3e
000003e0: 517b 123e 64f9 72be 51e8 3fbe dbca 0e3d
000003f0: a482 ccbc 9ce2 a93e 214c 353d 242d 35bd

bias f4 [32]
-0.22182186 -0.112763345 0.32656384 0.39194557 0.13426165 -0.04709974 0.24271353 -0.17040223
0.23608297 -0.24726723 -0.1471592 -0.3664289 -0.2600293 -0.26849934 0.08748584 -0.12258352
0.076934285 -0.25952435 -0.357393 0.17413788 0.14283447 0.25918156 -0.31772017 -0.052140664
-0.22015859 0.05248243 -0.34186044 -0.28016225 0.1872969 0.28360072 0.13473687 0.28023887
00000000: 4525 63be 78f0 e6bd 6033 a73e 17ad c83e
00000010: e37b 093e a8eb 40bd e589 783e ec7d 2ebe
00000020: bcbf 713e 9f33 7dbe e7b0 16be 929c bbbe
00000030: 8f22 85be bf78 89be c72b b33d 120d fbbd
00000040: b98f 9d3d 60e0 84be 37fc b6be 3351 323e
00000050: 3343 123e 72b3 843e 38ac a2be 7391 55bd
00000060: 4171 61be d1f7 563d 5508 afbe 6d71 8fbe
00000070: c2ca 3f3e 1d34 913e 76f8 093e 787b 8f3e
